saved_models/qpsk_HeuristicNet_nt4.pkl (torch, 98655 bytes, 13 tensors)

layer_1.weight f4 [128, 88]
00000000: f84a ebbb c562 8dbb 4949 03bc d473 8a39
00000010: e646 d7bb 07cf 20bc 71d7 e13b 6197 303c
00000020: 4623 843c 9e89 bcbc 4f49 12bc bb9a 5cbc
00000030: c43f d53d 8bef 89bb 1e46 6b3b 51ba cf3b
00000040: 00c6 ba3b 57b5 0d3c 94f3 8ebc 498a 17bb
00000050: 755c 193c 3732 2a3b 57e1 ec39 e3d1 88bc
00000060: 20c0 4ebb b004 0f3d 3fef 82bb 5ce3 38bd
00000070: 9256 963c fc7e dbbc 6e94 b03c 5b63 c6bc
00000080: 80ef b73b c016 c23d 9c22 30bd ea5f 6ebb
00000090: 33fb 1d3b bb5e ed3c 7895 f6bb c838 f53b
000000a0: b870 f63c 2544 40bd 762c b13d 1c2b 163d
000000b0: 7a0f 10ba ab4c af40 7381 debc 7cce d8bc
000000c0: bfbc bdbd 7041 c73c 9a76 c63d 0875 04bc
000000d0: aa40 17bd 97f8 413a ec89 983c a79b 873a
000000e0: 7400 053d 28af 57bc d005 ce3d ec03 85bd
000000f0: 94fb 923c cceb ebbc 4180 9bbc facc ad3c
00000100: 60ba 06bb 8c1f 12bd 62a1 d5bd 5c3d 88bd
00000110: 0418 80bd 4ee4 cabd 1bec 92bd 2a6f 2f3b
00000120: d074 f0bb 4ad3 cc40 071b b23f ebfc 47be
00000130: 1bc1 a73d 8e5b 3f40 e3e9 8bbd 30c3 76ba
00000140: 58f0 2fbb ff7e 1bbb ceda 8bbc 75eb a9bb
00000150: d676 183c f7b9 3fbc 7dcb ea3c 469b 523d
00000160: 9aed f9bb fb53 ff3b 6e58 98bb b35f 7f3c
00000170: 5f31 e1bb 3f9e 41bc f37f 27bd 7ede 99bc
00000180: bfd0 60bc 9896 3c3c 73cc 483c 4cad cc3c
00000190: 86d1 a4bd de95 5abb da7b b7bc e8dd d93c
000001a0: cc45 4b3d f3bb 923b 1ef5 3f3d 2417 e3ba
000001b0: 74d4 d23c 8369 b8bc 0834 343c c6af 203c
000001c0: 8ab3 b1bd 8907 82bd efd8 75bc de0c 4e3c
000001d0: 5e1d fd3c dcdc dcba 6dda 353d d748 bd3c
000001e0: 7c63 cc3d 806a dfba 82d8 b2bd 17e0 1c3c
000001f0: fb5f 723d 318a ddbc 8943 06ba 06dd e93c
00000200: 8329 92bd ac20 4e3d 540f 1e3d 780d 033d
00000210: aab9 83bc ad30 0f3b 2597 9dbc 814a 8bbc
00000220: 7cf2 d93d 8456 97bc 963b a7bd a84c 5a3c
00000230: 043c 843c cb95 b23b e866 25bd 72bf 5e3c
00000240: 9e4d 8c3d 10fc da3c 5cc1 813c 6827 74bc
00000250: 0ad0 8fbd a4fa c13d cd56 7abc ab78 ecbc
00000260: 60a4 763d 048d 3c3d a489 cabc 5896 d53d
00000270: 2c52 343d a61f d6bd c851 58bc 76ab 453c
00000280: 1660 973d c247 76c0 6698 5440 347b bdc0
00000290: c0ce 0a3e 9463 4f3d e9c7 8c41 46ac d73c
000002a0: 8158 363c 4bb4 c5bc fe85 79bb ffdd 6ebb
000002b0: e0ef f53b 4827 dbb9 a247 da3c 5326 683c
000002c0: 3a1a 34bc 580e 23be 81e9 e13d b279 8cbd
000002d0: e74a 89bc e423 f5bc 7afb 06be 8251 1b3e
000002e0: c659 cf3d 86fd 743e c4de 2ebd 8521 05be
000002f0: 80f2 993a c46c 8fbc a37e 103e b0ac 793e
00000300: bce0 203d 7f7a 20bd d6e0 ed3d 81ce 32bd
00000310: 10cd 40be 528e 82be f717 17bb 107b 90be
00000320: d070 d13b e02c 9a3d 4814 c8ba 5e8b 2a3c
00000330: ddd8 a0bd 8705 10be 7bb6 073e 92d1 0fba
00000340: d9ef 3ebd 9069 5f3d ecff 893d 0c81 183e
00000350: 3231 4c3c 65b2 2cbe 4fbc dabd 90ae 77bd
00000360: 0617 3fbd a12b 43bd 3c21 c1bd 45e0 bcbd
00000370: 0fa1 b5bd ccd0 78bd adf5 74be 7c13 533e
00000380: 586e 583d ba7b 30bd 4c46 013d a87e 79bd
00000390: 80f3 feba 348a b9bd 2926 2bbd d479 aa3d
000003a0: 8a91 97bd 708d b93b 204e 623d fec3 b03d
000003b0: 3cd0 7f3d 7b53 52bd 1b84 29be 6b96 f1bc
000003c0: f82f ce3d d85d cabd dca0 7e3d c889 823d
000003d0: 3493 793d 7052 ac3c 2a70 b13d aef5 b7bd
000003e0: 90ad a4bb 4f41 79c0 b948 86bf 2b07 0a3f
000003f0: 2a28 d3bd ea7a bc3e 7449 cebe bc34 f1bd
-0.007180568 -0.0043147528 -0.008013078 0.0002640771 -0.006569731 -0.009814984 0.0068921377 0.010778279
0.016130101 -0.02301484 -0.008928611 -0.013464625 0.10412553 -0.004209464 0.0035899947 0.0063393493
0.005699873 0.008649192 -0.017450131 -0.0023123196 0.009360422 0.0025969872 0.0004518132 -0.016701644
-0.003154762 0.03491658 -0.0039958055 -0.0451387 0.018351827 -0.02679395 0.021555152 -0.024217298
0.0056132674 0.094769955 -0.043001756 -0.0036373087 0.0024106025 0.028975835 -0.0075251423 0.0074835755
0.030083045 -0.046939988 0.086510584 0.036662206 -0.000549547 5.478109 -0.027161336 -0.026465647
-0.09264516 0.024323195 0.0969059 -0.008084543 -0.036926903 0.00073994085 0.018620454 0.0010346071
0.032471135 -0.013164319 0.100597024 -0.06494889 0.017942227 -0.02879896 -0.018982055 0.021215905
-0.0020557866 -0.035674617 -0.10431172 -0.06652328 -0.062545806 -0.09906827 -0.0717394 0.002676914
-0.007338144 6.400792 1.3914498 -0.19530074 0.08191129 2.989963 -0.0683172 -0.00094132405
-0.0026846137 -0.0023726819 -0.017072108 -0.0051855394 0.009305676 -0.011702052 0.028661484 0.05141761
-0.0076272013 0.0077919937 -0.0046492135 0.015586781 -0.0068723406 -0.011817514 -0.040893506 -0.01878285
-0.013721644 0.011510514 0.012255776 0.024984978 -0.08047776 -0.0033353488 -0.022397924 0.026595071
0.04962711 0.0044779717 0.04686462 -0.0017325622 0.025736071 -0.02251125 0.010998733 0.009807533
-0.086768225 -0.063490935 -0.015005334 0.01257631 0.030897792 -0.0016850489 0.04439776 0.023106022
0.09979913 -0.0017045289 -0.08732702 0.009574912 0.059173565 -0.027043434 -0.0005121758 0.028547775
-0.07136824 0.050324127 0.038588837 0.031995267 -0.016079742 0.0021849081 -0.01923711 -0.0170033
0.10641953 -0.018473871 -0.08165662 0.01332394 0.016141899 0.0054499856 -0.040381342 0.013595449
0.06850742 0.02673152 0.015839271 -0.014901973 -0.07022102 0.09471634 -0.015279484 -0.028866133
0.060215354 0.04603292 -0.024723835 0.104290664 0.044023678 -0.10455255 -0.013203092 0.012064805
0.07391374 -3.8481297 3.3218017 -5.9212894 0.13555431 0.050632074 17.597612 0.026327264
0.011129499 -0.024133822 -0.003807425 -0.0036448238 0.007505402 -0.00041800202 0.026645485 0.014169293
-0.010992581 -0.1592344 0.110308655 -0.06859149 -0.016759349 -0.02992434 -0.13181868 0.15167812
0.10124545 0.23924837 -0.042692915 -0.13001068 0.0011745244 -0.017507918 0.14110808 0.24382281
0.039276823 -0.03917932 0.1161515 -0.04365397 -0.18828225 -0.25499207 -0.0023055056 -0.2821889
0.006391622 0.075280905 -0.0015264833 0.010409204 -0.078538634 -0.14064609 0.13253205 -0.00054862455
-0.046615455 0.05454403 0.06738266 0.14892977 0.012462901 -0.16864927 -0.10680448 -0.06046921
-0.046652816 -0.04764903 -0.09430167 -0.092224635 -0.0886861 -0.060746 -0.23921843 0.20612901
0.052839607 -0.043086745 0.03156118 -0.060911804 -0.0019451231 -0.09059563 -0.04178444 0.08324018
-0.07400806 0.0056626126 0.055250287 0.086311325 0.062454447 -0.051349144 -0.165543 -0.02949067
0.10067743 -0.098811805 0.062165126 0.06373936 0.0609314 0.021035403 0.08663972 -0.089824066
-0.005025573 -3.8946111 -1.0490943 0.5391719 -0.10310395 0.36812526 -0.40290415 -0.117776364

layer_1.bias f4 [128]
00000000: 1290 8abe 3742 4fc0 8d8c 2bc1 0ffe e4be
00000010: 3db9 4dbf 2dda 5abe 7cfd 6bbf 66c7 14bf
00000020: a3f7 a4bf 9bb2 31c1 ff1a 54bf c602 5dbf
00000030: ca19 2bc1 1db8 adbf 8b5b 2dc1 1779 adbf
00000040: c346 8cbf 9fa6 bebf 58ca afbf 179e 28c1
00000050: 442c 16c1 54b3 7abf 707d 30c1 45ed 88bf
00000060: 5244 2ac1 a45b 0dc1 07c5 51bf d72a 49bf
00000070: 59fb b2c0 6c39 d1c0 154c 75c0 72ab 3ec1
00000080: dd18 f9c0 47c1 c2be 02f6 59bf 86c3 80c0
00000090: acf7 27c0 cd7f a5be f69c 66c0 d9dd 3fc1
000000a0: be67 15c1 e3b3 eabf fc4f 34c0 b1d2 a2bd
000000b0: 1faa a0bf b482 69c0 cb52 7fbf 077e 64c0
000000c0: 8e6c 34c1 5faa acbf d4f6 1fc1 6fcf 2cc0
000000d0: 0c24 34c1 029a 7dbf 8cb0 14c1 a559 8bbf
000000e0: f39c 36c1 aa38 12bf e432 3ec0 22d4 08c1
000000f0: 6c73 09c1 6e2a 45bf d1ad 81be a664 dac0
00000100: afd7 2bbf eb40 b2bf b143 843e 3d07 8bbf
00000110: eaec 18bf 101d 0abf 7ea2 6a3e b98a 22c1
00000120: 43d2 3fc1 d0fa 4cc1 d60a 78bf 2e56 32c1
00000130: db2c 1abf a7a1 10bf afb9 a2c0 f6c8 83c0
00000140: 0d5a 4bbe e49a 3cc1 ba78 85bf 42ad 58bf
00000150: ba43 34c1 be90 96bf e3f1 083f 23ca 89be
00000160: 3e9e 5441 3619 46be f134 2bbf 6a4e 58bf
00000170: b387 22c0 5a93 2cc1 0200 7a3e 4b74 45c0
00000180: 0208 36c1 eda4 cd3d 93cd 1cc1 bff5 7cbf
00000190: fb93 47c1 b2ad 50be 7de7 c6be f4bc 18c1
000001a0: 0cda 39c1 bc8a 23c1 56a1 3ec1 ce85 f4c0
000001b0: 5267 c1c0 5a2e 7bc0 267b e7bf 9a8b ddbe
000001c0: 6754 23c1 9041 2fc1 4ae2 30c1 7085 76bf
000001d0: 5657 88bf c359 28c1 087e c3be 8a37 e3be
000001e0: 9a7f 8bbf e374 b6c0 0e51 28c1 2953 0ebf
000001f0: 8107 41c1 affe 25bf ce52 cac0 f67c aebf
-0.27063042 -3.2384164 -10.721814 -0.4472508 -0.80360776 -0.2137229 -0.9218366 -0.5811676
-1.2888073 -11.106105 -0.8285369 -0.86332357 -10.693796 -1.3571812 -10.834849 -1.3552579
-1.0959095 -1.4894599 -1.3733625 -10.538596 -9.385807 -0.97929883 -11.030624 -1.0697409
-10.64168 -8.834873 -0.81941265 -0.78580993 -5.593182 -6.5382595 -3.8327687 -11.916857
-7.784285 -0.38038084 -0.85141003 -4.0238676 -2.6244917 -0.32324067 -3.6033301 -11.991662
-9.337828 -1.8336147 -2.8173819 -0.079503424 -1.2551917 -3.6486025 -0.9973571 -3.570192
-11.276503 -1.3489493 -9.997761 -2.7001607 -11.2588005 -0.9906312 -9.293102 -1.0886732
-11.413318 -0.5711771 -2.971856 -8.55179 -8.590679 -0.7701787 -0.25327924 -6.824786
-0.6712598 -1.3926061 0.25832894 -1.0861584 -0.597365 -0.53950596 0.22913548 -10.158868
-11.988833 -12.8112335 -0.96891534 -11.14604 -0.60224694 -0.5649666 -5.0851665 -4.1182814
-0.1985857 -11.787815 -1.0427468 -0.8463937 -11.266535 -1.1762922 0.5349409 -0.2691203
13.288633 -0.19345555 -0.6687766 -0.8449465 -2.5395324 -10.7859745 0.24414065 -3.085223
-11.376955 0.10041223 -9.800189 -0.9881248 -12.473628 -0.2037876 -0.38848487 -9.546131
-11.615734 -10.221371 -11.914389 -7.6413336 -6.0438623 -3.924704 -1.8084457 -0.4327057
-10.208106 -10.953506 -11.055246 -0.9629736 -1.0651653 -10.5219145 -0.38182092 -0.4437831
-1.0898316 -5.7017684 -10.519789 -0.5559564 -12.064332 -0.6484174 -6.322608 -1.3631885

layer_2.weight f4 [64, 128]
00000000: d70c ca3a 2732 46bf 99b2 7d3d b72f ccbc
00000010: a818 033e cb7c 6ebf 5cf0 9ebd 11df cb3c
00000020: 5b29 a8be a6e1 04be 4017 833d 931b ec3d
00000030: 1116 4a3e 581f 7abd 2319 ccbd d31f d23e
00000040: 7c60 173e 0d19 e13d 6f2b b2be 6342 9c3b
00000050: 3c03 383e 7b9f e8bf 1e85 f6bd a8b9 103f
00000060: 9955 b5bc 98d1 a2bf 1efc cabe 8239 d2bf
00000070: a538 c0bf 122d d23d 34c2 05bf e92d e9bd
00000080: a0d5 60bf e049 cebe 07d4 eebd 759d 603f
00000090: 0e7a 3b3e d60e 96bd 9f21 6ebf 5406 053e
000000a0: 3e85 16be f67f 733d 8243 f53f d109 0a3f
000000b0: 6499 973e ecc5 e6bf 7da8 d8be b203 73bf
000000c0: d459 d4be 9e12 33be 46e7 92be 2b4d 553f
000000d0: 6d43 a7be 3fb5 b63c 1ecf 123e 0b64 393e
000000e0: 9701 dbbd 3f64 0b3f d921 a9bf 205b 04c0
000000f0: 64ab 85bf d97d 113f ee49 20be 6ba0 2bc0
00000100: d52b cbbc 7304 ae3e 6e0b 7bbe 6909 813e
00000110: 45db 10bf a16e a83e dbb5 0bbd b0e7 bdbe
00000120: 11e0 603d ba54 8abe fff1 933c ca26 2bbc
00000130: 0623 d8be b57f b33b 0ecc d03e 2795 5b3f
00000140: 1315 17bf a9db 1dbe 0d2c 483c 4fc6 2a3d
00000150: 1362 bfbd e185 36c0 ec46 8e3f 4c98 8abf
00000160: 5e3d 7d3e d888 8ebd b876 f1bf d28f b33e
00000170: 73c0 1c3f 2166 9cbf 1318 72be aacc 22bf
00000180: 05c7 dd3b a097 a23f d891 62bd 7ac0 c4be
00000190: 7a0d 943c 1518 7fbd 88d7 aebf 63fe 37bc
000001a0: 49e5 73be 76b9 38be aadf 90bd 1173 12be
000001b0: c08f 9fbf c718 19c0 57c6 5f3d 459a a1c0
000001c0: ed93 0e3e aaf0 87be 26b7 fb3d ee07 b13d
000001d0: d176 293b 96cb a83d 40a0 dcbe e0e5 a2c0
000001e0: 7c7d 703d fa9b 803d 4132 1d3a 190e 103f
000001f0: 8251 da3d b7c1 16bf bab9 62bf 1280 b63d
00000200: 181a 0340 08ae 6dbb a016 dd3c 4bfb 2140
00000210: 87fb e83c 896d b4bd 523b edbc d125 92bb
00000220: 3ead 8dbd 85a0 f7bd 9cf1 523c d951 823c
00000230: 9e23 11be e80d c03c 2e88 12bc cd3d 7aba
00000240: 66d3 7d3c 4d3b 1539 6808 8ebd e6fe 10bd
00000250: aee8 1ebe 85db ea3c 1be2 a5bd 4868 9abd
00000260: 5e9f 82bb fe88 b53d f087 2dbb e8eb f73d
00000270: 0561 4cbe 034d 8abd f4c5 cdba 5fad 7cbd
00000280: 7772 17be 4984 86bb d5b6 0cbd dc64 21bf
00000290: 2f8f 0cbd aa8d 8c3f d735 863f 8ee4 bdbc
000002a0: 8245 06be 9588 f13c 01ac 70bf 1974 063d
000002b0: 2340 583d 0d98 37bf 7d75 973d 4c4e 9e3f
000002c0: 6c2f 3a3c d5fb feba 41c7 b9bd 4535 88bf
000002d0: 764c 673d ffe0 a73a 1218 703d 0a98 513c
000002e0: d2ac f4bc 34f0 a53b afee a93f abb0 23be
000002f0: 5172 d8bc d4ab 22bd 8c60 053c c49a 40bd
00000300: 8218 85bc 1ffb 963d 40b4 9abc abcf 983d
00000310: 052b a43c 49c8 493c 304b 39bc ff70 5abe
00000320: 3477 c6bd 7844 bfbd 3637 67bc cdc6 0fbe
00000330: 1291 95bb a367 b83a 8776 febd c59e 63bf
00000340: 89f0 6abd bd4b 7c3d e17a ebbc d1b0 eb3c
00000350: 3a84 313e 47dc f7ba 2a81 85bd 2ed5 193c
00000360: 065b 86be ff7f 7f3b b051 8f3c 3567 1abd
00000370: 822c 0dbf bd5e eabd 37bb 833c 99a6 3d3c
00000380: 2c35 8fbd 5a90 92bd c1f8 92bc 211a 923a
00000390: c34f 15be 69af 7fbb 9831 483b 4a13 a2bc
000003a0: ef0e 96bd 8e46 c0bc 95c4 dcbc 1905 a3bc
000003b0: b5a8 e6be dbfd 11c0 843e 2e3d b64d 0fba
000003c0: 1f66 16be dcac 87bd 3bf8 073d 53c2 18bc
000003d0: ee9d 4fbc c2bc f4bd e2f3 953c f5cc 9cbc
000003e0: 6847 81bc 5b31 80bc e641 cabd e958 22bc
000003f0: f3e9 bdbd e84b a53c 1249 63be c730 703c
0.0015415204 -0.77420276 0.061937902 -0.024925096 0.12802374 -0.9315917 -0.07760689 0.02488664
-0.32844052 -0.12976703 0.06400919 0.11528697 0.1973498 -0.061065048 -0.09965732 0.41039905
0.147829 0.10991106 -0.34798762 0.004768656 0.17969984 -1.817367 -0.12037109 0.5653329
-0.022135543 -1.2720213 -0.39645475 -1.64238 -1.5017287 0.10262503 -0.52249455 -0.1138571
-0.87825966 -0.40290737 -0.11661535 0.8774026 0.18308279 -0.073270485 -0.9302005 0.12990695
-0.14699265 0.059448205 1.9161227 0.5392123 0.29609215 -1.8029151 -0.42316046 -0.94927514
-0.41474783 -0.1748757 -0.28692073 0.83320874 -0.3266863 0.022303222 0.14336821 0.1810457
-0.106936626 0.5444984 -1.3213454 -2.0680618 -1.0442929 0.56832653 -0.15653202 -2.6816661
-0.024801174 0.3398777 -0.24516079 0.25202492 -0.5658458 0.32896903 -0.034108978 -0.37090826
0.054901186 -0.27017766 0.018059729 -0.01044626 -0.4221422 0.0054778703 0.4078068 0.85774463
-0.5901653 -0.15415825 0.012217534 0.041693028 -0.09344878 -2.8519213 1.1115394 -1.0827727
0.24730441 -0.069596946 -1.8864355 0.35070664 0.61231154 -1.2218667 -0.23641996 -0.6359354
0.0067681097 1.2702522 -0.05531487 -0.38428098 0.018072832 -0.062278826 -1.3659525 -0.011230084
-0.23817934 -0.18039498 -0.070739105 -0.14301707 -1.2465744 -2.3921373 0.05463251 -5.0500817
0.13923617 -0.265508 0.12290792 0.086440906 0.0025858174 0.08241956 -0.4309101 -5.090561
0.05871342 0.0627975 0.0005996563 0.5627151 0.10660078 -0.58889335 -0.88564646 0.08911146
2.0484676 -0.003626706 0.026988328 2.5309627 0.02844025 -0.08809955 -0.02895895 -0.0044600745
-0.06917809 -0.120911635 0.012874987 0.015908169 -0.14173743 0.023444131 -0.008943601 -0.0009545952
0.015492296 0.00014231839 -0.06935197 -0.03539934 -0.15518448 0.028669128 -0.08099767 -0.07539421
-0.003986283 0.0886402 -0.002647873 0.121055424 -0.19958885 -0.0675297 -0.0015699253 -0.061688777
-0.14789759 -0.004105125 -0.03435405 -0.63044524 -0.034316238 1.0980732 1.0485181 -0.023180272
-0.13112453 0.029484073 -0.9401246 0.032825563 0.05279554 -0.71716386 0.07395456 1.2367644
0.011363845 -0.0019453714 -0.09071208 -1.0641257 0.056469403 0.0012808143 0.058616705 0.012792597
-0.029867563 0.005064035 1.3275965 -0.15985362 -0.026421698 -0.03971465 0.008140694 -0.047022596
-0.016247038 0.07372116 -0.018884778 0.074614845 0.020040045 0.012315818 -0.01130943 -0.21332167
-0.09690705 -0.09339231 -0.014112284 -0.1404068 -0.004564413 0.0014068972 -0.12424951 -0.8891414
-0.0573583 0.061595667 -0.028745117 0.028770836 0.17335597 -0.0018910252 -0.06518777 0.009389205
-0.2624132 0.0038986204 0.017495006 -0.037696082 -0.5514604 -0.11443851 0.016080482 0.0115753645
-0.069925636 -0.07156439 -0.01794088 0.0011146703 -0.14581208 -0.0039014465 0.0030547138 -0.019784588
-0.07327067 -0.023471143 -0.026949206 -0.019899892 -0.45050588 -2.281119 0.04254009 -0.0005466597
-0.14687394 -0.06624767 0.033195715 -0.009323674 -0.012671931 -0.11950065 0.018304769 -0.0191407
-0.01578112 -0.015648535 -0.098758504 -0.009908893 -0.09273138 0.020177796 -0.22195843 0.014660067

layer_2.bias f4 [64]
00000000: d518 13bf 753b 2bbf 826b 3340 6bae 0a3f
00000010: 2b8d bc3d 1794 39bf 9e8b 6f3f bb6e dcbc
00000020: cf9e f1bd 5fde 0ebe 0bb0 e1bd df43 7dbd
00000030: b429 2940 df86 a8be 6934 6540 4bad e03f
00000040: edc6 52be ffe3 06be 3c77 5840 b4ef 48be
00000050: 2f69 9840 0fcc 29bf cd82 e83f 7ead 693f
00000060: 483a 41bf e855 a33e dc07 0dc0 e563 16bc
00000070: b012 293f 30a9 91bd 179d da3b 9958 4640
00000080: 77cd 82bd 5d4b 41bf f725 acbf 2f04 6e3e
00000090: b90a b63c b03a 003e d3ab 4e40 3ec4 febe
000000a0: 2eb3 64c0 ccba f0bd c903 c8bd 4940 863e
000000b0: e173 0f40 8854 09c0 b49d 2a3d 6e77 1d40
000000c0: 7d7b a13e 33d5 3cc0 3522 42bf d7d4 85be
000000d0: 7e3e 7bbf 7c4e 40c0 fbb9 ad40 c38f dfbe
000000e0: fd9d 08c0 d398 8cbd 32bf 2cbd cd5c ebbd
000000f0: 082e c6be 577e a33f 86ae 19bf e2de 32bf
-0.57459766 -0.668876 2.8034368 0.5417239 0.09206613 -0.7249159 0.93572414 -0.02690827
-0.117978685 -0.13952015 -0.11019906 -0.061832305 2.6431704 -0.32915398 3.5813239 1.7552885
-0.20583697 -0.13172911 3.3822775 -0.1962269 4.76284 -0.66326994 1.8164917 0.91280353
-0.75479555 0.3190148 -2.2036047 -0.00917909 0.6604414 -0.07112348 0.0066715586 3.0991576
-0.063868456 -0.7550562 -1.3449086 0.23243783 0.02222191 0.12522388 3.2292373 -0.49759096
-3.5734363 -0.11754379 -0.09766347 0.2622092 2.2414477 -2.1457844 0.041654304 2.4604144
0.31539527 -2.9505126 -0.75833446 -0.26138946 -0.9814223 -3.0047903 5.4289527 -0.4366437
-2.1346428 -0.068650864 -0.042174526 -0.1149231 -0.38706994 1.2772931 -0.60031927 -0.6987134

layer_3.weight f4 [32, 64]
00000000: 8088 173e 4331 99bf 8929 6cbf ae45 363d
00000010: 9e24 4ebd 47fb 7fbc 797c 68be 276d 90bc
00000020: 32d0 1a3d cf66 7bbc 9d97 ab3d c20d 583c
00000030: f591 50bd f143 00be 8f6e 5bbe beca ad3d
00000040: 8a70 073d ff7b c5bc d310 7b3f 6b03 24be
00000050: 4746 f4be 545b ca3f 32e2 bb3c 8cc4 debc
00000060: f1ae e6bc 62f5 95bc 4761 87bf 01db 0dbe
00000070: 5461 3a3c 8c07 b23d 566c 38bd c2f8 0ebc
00000080: 23bd 12be a64b 833a 2c2e 28bd 3036 743e
00000090: f711 f83c 2aa7 2d3d e86c 0cbd 1d07 8fbd
000000a0: bb8d 803c 5723 013e 6ccf 633d 7453 55bc
000000b0: b80e 47bd 1875 4bbd bcc8 3cbd 9df9 d13b
000000c0: 4d13 46bd d637 61bf a336 18bd 0303 2ebd
000000d0: f4d7 ba3f 1905 0e3e c908 56bd e40f 613c
000000e0: 583b 153e 4e93 7abc a414 863c ab7c b33d
000000f0: 7f4d 35bc 657d 123d f38f d73f 8cf1 9d3e
00000100: f56e 48bf e863 d3bc 641a 0fc0 bd8c 6c3c
00000110: 90aa 47bc 98b8 b63e 6138 a4bf 0145 96be
00000120: f123 95bd fe2d dc3c 5334 ee3d a447 9b3d
00000130: 2832 00bf 293c c63a fb24 9abd d564 e23e
00000140: 1a34 b2bc d2cf f33d 50e2 70bf 599f d4bd
00000150: a67b 8cbe 6ea3 0b3c 8479 3840 7085 583d
00000160: 6be8 bd3c f63f ea3d a54b e43d 0ea9 4b3e
00000170: 127c a5bf fe30 203d b2f7 353d 0e6b 0bbd
00000180: dbd2 e839 be4b 06be a9c3 d4be eb33 953e
00000190: 77a9 1ebd bd58 09be 97c5 f6be 0973 87bd
000001a0: e3a4 c43e 640e a2bc d79f 4bbd 6b9e 093b
000001b0: 4491 2a3d e08d babe 60a9 5c3d 561c edbd
000001c0: 015f 9d3b d250 fc3d af7c 11bd d07c 0c3e
000001d0: 8e8b dd3c 2196 503d ed4b 063e 4d34 d1bd
000001e0: cca3 813e 02dc 18b9 d5b2 b6bd 24b0 6bbd
000001f0: 974f a8bd e478 d9be 7ea4 e13d 29ef 693a
00000200: b8b0 80bd 0f15 89be a057 9fbd bcc9 0e3d
00000210: e385 00be afcd c9bd 5477 9cbd 755a e23d
00000220: eeb7 c8bd 267d ea3d b077 19bd 14c6 2f3d
00000230: 2f42 4bbe e2b9 66bd c5fc 4abe c29c 10be
00000240: 6508 293d f854 1dbc c24d 95bd 4b89 19bd
00000250: eeb2 36bd 3ddc 5dbd a1e2 193b 059a 89bd
00000260: c334 24be 337b c13c 930a c0bd c7dd 973d
00000270: 4852 f7bb 9852 bf3d 95e8 cebd 2d59 d9bd
00000280: 7d87 393d 266f 92bc eedc 9d3d 02cc 0d3d
00000290: b0de 23be 53ec e8bd 1f24 37bc ff4d f5bd
000002a0: 3b43 893c dd09 38bd 2100 5cbc e429 79bd
000002b0: 0ea4 87bd 7f7f 81bd 7aa7 13bd d978 dbbd
000002c0: b8c6 763d 73fd ffbd 7f30 613d 25ca 3abd
000002d0: f484 9b3d b03e 0ebe 7def 09be 528b 3dbe
000002e0: 6a05 033e 9093 e23d 7d00 0abd 3ef6 dcbd
000002f0: 8d5d c3bd 1597 31bd 6cc5 6fbd 9616 81bd
00000300: 6af4 6dbe 824d 7ebc 0084 413f 6a61 853e
00000310: 3732 1c3d 1baf 453d ed7f 3cbf aaf9 513b
00000320: a3cc 693d 3240 673d ddb6 e43c 3fae 85bd
00000330: 3b8e 11be 7d92 053e 1e6e 973f 26da 9dbe
00000340: 4292 c8bc 1ef2 46bc c1db 0bbf 7720 3cbd
00000350: 838c a33e 359c 58bf a642 b5bd 07fb df3d
00000360: f533 ee3d 9a7e a9bd 3651 75be 4c92 bbbd
00000370: 63a5 77bc 46f8 a6bd d17a 943d 5ade 8bbd
00000380: 658f 9fbd 0f4f 36bc 35f1 2d3e 521a f03e
00000390: b906 713e cdf5 e13d 9826 0cbe e95b 063e
000003a0: f7e2 e3bd 3979 95be 8938 bdbd 924e 793d
000003b0: 5149 6bbe d356 0b3e 751c d13c d361 a9bd
000003c0: 3bbe dcbd 4862 87be dfdc 36bd aa8e f9bc
000003d0: 818f 42bf 25f0 fabe 735a 84bd 7141 363d
000003e0: df02 023f 63c6 df3d 89bc cc3d 6648 983d
000003f0: 3164 563d dd65 61be a838 92bf 22c5 f73e
0.14798164 -1.1968158 -0.9225088 0.044500045 -0.05032789 -0.015623874 -0.22703733 -0.017630173
0.037796207 -0.015344336 0.08378527 0.013186874 -0.050920445 -0.12525918 -0.21428894 0.08485936
0.03306631 -0.024106978 0.98072547 -0.16016929 -0.47709867 1.5809121 0.022935007 -0.02719333
-0.02815959 -0.018305484 -1.0576562 -0.13853075 0.011375744 0.08692846 -0.045025192 -0.008726301
-0.14329962 0.0010017052 -0.041059658 0.23848796 0.030282004 0.04239575 -0.03428355 -0.069837786
0.015692582 0.12611137 0.055617735 -0.013020385 -0.04859802 -0.049672216 -0.046089873 0.00640793
-0.04835825 -0.87975824 -0.03716148 -0.04248334 1.4597154 0.13869132 -0.052254472 0.013736699
0.14573419 -0.015293909 0.016367264 0.08764013 -0.01106584 0.035764117 1.6840805 0.30848348
-0.78294307 -0.025804475 -2.2359858 0.0144378515 -0.012186661 0.3568771 -1.2829705 -0.2934952
-0.07282246 0.0268774 0.11631074 0.07582024 -0.5007653 0.001512413 -0.07526585 0.44217554
-0.02175336 0.11904873 -0.94095325 -0.10381956 -0.27438086 0.008522851 2.8824167 0.05286163
0.023182115 0.11437981 0.111472405 0.19888708 -1.2928488 0.039109223 0.044425674 -0.034037642
0.00044407588 -0.13114831 -0.41555527 0.29141173 -0.038735833 -0.13412757 -0.48197624 -0.06613738
0.3840705 -0.019782253 -0.049712982 0.0020998965 0.041642442 -0.36436367 0.053872466 -0.1157767
0.004802585 0.12320103 -0.0355193 0.13719487 0.027044084 0.050924424 0.13114901 -0.10215054
0.2532028 -0.00014577809 -0.08920828 -0.057541028 -0.082183056 -0.42475045 0.110177025 0.0008923882
-0.062837064 -0.2677388 -0.07780385 0.034860358 -0.12551074 -0.09853684 -0.076399475 0.110524096
-0.09800707 0.114496514 -0.03746766 0.04291351 -0.19849466 -0.056329615 -0.19822986 -0.14122298
0.04126777 -0.009602778 -0.07290222 -0.03748445 -0.044604234 -0.054165114 0.0023481029 -0.0671883
-0.16035752 0.023618316 -0.09377017 0.074153475 -0.0075476505 0.093419254 -0.10102955 -0.10612712
0.045295227 -0.017875265 0.077081546 0.034618385 -0.16002917 -0.113732 -0.0111780455 -0.11977767
0.01675569 -0.04493128 -0.013427765 -0.060830966 -0.06623088 -0.06323146 -0.03604839 -0.10716409
0.060248107 -0.124995135 0.05497789 -0.045602936 0.07593718 -0.13891101 -0.13470264 -0.18510178
0.12795034 0.110633016 -0.033691872 -0.107891545 -0.09539328 -0.043356974 -0.058537886 -0.06303136
-0.23237768 -0.015521409 0.7559204 0.26050884 0.038133826 0.048262697 -0.736327 0.003203968
0.057079922 0.056457706 0.027919227 -0.065273754 -0.14214413 0.13044162 1.183048 -0.30830497
-0.024483804 -0.012142686 -0.5463219 -0.0459294 0.3194314 -0.84613353 -0.08850603 0.109365515
0.11631004 -0.082761005 -0.23956761 -0.09158763 -0.015115115 -0.08152823 0.07249988 -0.068295196
-0.07791022 -0.0111272475 0.16986544 0.4689508 0.2353772 0.11033211 -0.13686597 0.13120998
-0.111272745 -0.29194048 -0.09239299 0.060865946 -0.22977187 0.1360734 0.025526265 -0.082706116
-0.10778471 -0.2644217 -0.044644233 -0.030463535 -0.7600022 -0.4901134 -0.06462564 0.044496004
0.5078563 0.10926511 0.09996898 0.07435684 0.052341644 -0.22011514 -1.142354 0.48392588

layer_3.bias f4 [32]
00000000: 6129 acbe 7d7c 8fbf 3a3a 89be d767 4c3f
00000010: 211b 76be 8635 d4bf e1de 1440 d364 4dc0
00000020: 399a fe40 f150 d93d 5af6 c4c0 ed94 343c
00000030: 3dd3 e040 fb8f 82c0 92ad 3940 496a c03f
00000040: 3d22 b940 1962 9cbe 4f6d 9ebe 82ea 31be
00000050: 4535 e63e ed20 9cbe 512a 66c0 90c8 a03f
00000060: 243e ef3e 63e1 0640 f92d 5cbf 7112 733e
00000070: 1d22 babf ce1d aabf 1811 1a40 e704 9dc0
-0.3362532 -1.1209866 -0.26802236 0.7984595 -0.24033786 -1.6578834 2.3261034 -3.2092788
7.956326 0.106111415 -6.155072 0.011021835 7.025786 -4.0800757 2.901219 1.5032436
5.7854295 -0.30543593 -0.3094277 -0.17374614 0.44962516 -0.3049387 -3.5963328 1.2561207
0.46727097 2.1075065 -0.8600765 0.23737504 -1.454166 -1.3290346 2.4072933 -4.9068484

layer_4.weight f4 [32, 32]
00000000: 5775 293f 949a 273e 49db 173d bdc1 9cbc
00000010: 4a11 ff3d b8b0 f23e b6c1 c9bd 0cfb 7dbf
00000020: dd5a 343f ffc3 04bf 6a43 923c 498e 8fbe
00000030: c9ed a7be 4bd1 a43d 509b 3e3d df6e 563e
00000040: 6d73 5a3e b637 8ebe 3679 413d 5110 53bd
00000050: 835f 90bb a0e7 7f3e b290 5f3f 12c6 4cbd
00000060: a0e9 05c0 1dc8 0bbe ab85 aabd eeba ffbd
00000070: ef9c 17bd 4f94 3abe 09f8 9c3e f856 34bf
00000080: 6745 563f a637 3e3d 76c7 d03d 32d7 f33d
00000090: 57ec 753d b27b 343e 43a0 94be debd 34bf
000000a0: bf8a 413f 3c14 64c0 b1b8 213d 855b 42bf
000000b0: 09ae d03d 1dd5 4b3f 117b b1bd 33b1 cc3e
000000c0: f26b ae3d d090 a83c f52a af3d 0fd6 52bd
000000d0: 8a16 583e 147b c3bc 49cd 05bf 37ea e93e
000000e0: f7c4 9abf 8cb0 bc3d 6227 7ebe 7a5c 17c0
000000f0: b798 b4bd 0885 a4be 67e1 4ebf 3691 05be
00000100: 924b 1cbf 5908 6c3c 4464 47be 55ad 98be
00000110: 4f3a 7fbd 10f6 0c3f 1f82 0ebf 7566 96be
00000120: 7cc4 03bd e386 0ebf 8f6e e2bf 01a1 8cbf
00000130: cd94 8ebe 495d d4bd e7f2 2d3f 597f 06bf
00000140: dc47 a43c 3c3b 9fbb fe50 08be cb72 f73c
00000150: 16ae 11c0 621f ab3b d365 293d 0cf0 883d
00000160: bc7c 573e 8784 953f cd30 b6bd 0574 943d
00000170: 8979 1bbf 7d9d f03c d218 7b3e 94af 35bc
00000180: cb95 09bf c902 923e cf3d 32be 7c9e 483d
00000190: 0ffe 743d 2e35 83bf 2478 103f 2798 f2be
000001a0: 5d73 dcbe f70f 9ebf 1186 3fbe c2b5 2ebe
000001b0: 876e 1cc0 db14 d5be 2ec9 32bf 7136 f1be
000001c0: 45fa 35bc 31ab 13bf dd9a a63d dca5 dbbc
000001d0: 551d 9a3f 03ff 54bd 4f9d 94bf 180a d6bd
000001e0: df73 78bf 4e72 4dbe 629d 46bf 6d30 89be
000001f0: fa4d 223d 3088 573e eca4 17bf c54f 2d3e
00000200: 3a31 92bd 7cfa b2bf 5b97 0dbe e4b8 f53c
00000210: 5c35 26be 71c2 e93d ce61 bebd 28a4 073e
00000220: 7c82 793d 4df8 2cbc 476e acbf 6841 e0bd
00000230: e0c5 4ebe 07f0 35be f7a4 523e cd28 083f
00000240: 95df d5be 17a9 b9be 5a92 ed3c 3f03 28bd
00000250: 5a32 ddbe 4593 193d 3e2c 63be e674 0bc0
00000260: 04f1 d8bd 1081 b43d 16ac e3bf e71f 3ebc
00000270: 3074 643e 882a 1ec0 c441 983e fcca 61be
00000280: dca4 08be 35ca 153d db7c 503c 92b7 8cbf
00000290: 0d27 223e 4ea4 36be 05d8 3ebf d62d a93d
000002a0: 9a59 033f f813 debf 7dab 09be 3f00 8fbe
000002b0: 9bc9 01c0 7001 3b3e 410a a6be 85c1 013d
000002c0: c01e b13e 67c4 67bf 97e1 98bd 02d2 be3c
000002d0: 0d44 aaba 066d 4b3e 1e35 2dc0 732d 56be
000002e0: b7d4 5fbf d635 bf3e 2731 29bf d8f4 8f3f
000002f0: 2cb4 ffbf 5c2c 0c3e 67ad edbe 677c 0cbf
00000300: 1184 553e 7f1a 953c ec5c 01be 9f68 d53e
00000310: 59b9 2abd 3ad0 4f3b 8cd6 8ebe 4a66 d13e
00000320: eb9c a83c a8e8 d9bc 36ff 813b 53ad 01bf
00000330: 72d7 2cbd 3c43 64bd c0e9 38bc a362 7abc
00000340: b2e8 9bbe ea89 383d 82fd 263d 76ec 10be
00000350: e8a2 5cbc 8876 e83c d46d 8fbb 9e36 ba3c
00000360: b2b4 963d 64f7 b8bd b03e e53e 4967 923d
00000370: 3940 44bd ec27 c6bd 8421 a7bc 3508 0d3d
00000380: 6ccf 06bd 44aa f5bd bd1f 9c3d a9ef b4bc
00000390: e1c0 1bbe 2f78 473b 1536 bdbd 1700 80bd
000003a0: b598 e6bd 5027 46be d5fb 61bd 7e7e 1abe
000003b0: 5982 4cbe b79a f5bd aca0 c8bc 4e95 38be
000003c0: f87f a53c 0694 41be b2f0 d83d 880e 863c
000003d0: c668 20bd 6007 eabc 4356 c8bd dc4d a4bd
000003e0: 2857 97be 5bad 433d 012f d43c d703 3dbe
000003f0: 73c6 88be 74d5 2dbe 12e4 6ebb f50d 11be
0.6619467 0.1636756 0.03707436 -0.01913535 0.124544695 0.4740045 -0.098514006 -0.9921119
0.70451146 -0.51861566 0.017854411 -0.28038242 -0.32798603 0.08047732 0.046534836 0.20940731
0.21333094 -0.2777688 0.047234736 -0.051529232 -0.004405917 0.24990702 0.8733016 -0.049993582
-2.0923843 -0.13650556 -0.083262764 -0.12486826 -0.037014898 -0.18220638 0.30657986 -0.70445204
0.8369965 0.04643979 0.10194294 0.119062796 0.060039844 0.17625311 -0.2902852 -0.70602214
0.75602335 -3.563735 0.039482776 -0.759209 0.101894446 0.7962206 -0.08666051 0.39978942
0.08516683 0.020576864 0.08553115 -0.051473673 0.21102348 -0.0238624 -0.52266365 0.45686504
-1.2091359 0.09213361 -0.24819711 -2.3650193 -0.088181905 -0.32132745 -0.80812687 -0.13043675
-0.6105281 0.014406287 -0.19471842 -0.29819742 -0.062311467 0.5506296 -0.556673 -0.29375044
-0.032169804 -0.5567457 -1.768999 -1.0986634 -0.278479 -0.10369355 0.67948765 -0.5253807
0.020053796 -0.004859356 -0.13312146 0.030206105 -2.2762504 0.005222247 0.041356873 0.0668641
0.21043676 1.1681069 -0.08896027 0.072486915 -0.6073232 0.029371971 0.24521187 -0.011089224
-0.5374419 0.2851775 -0.1740639 0.048979267 0.0598126 -1.0250604 0.5643332 -0.47381708
-0.43056765 -1.2348622 -0.18703486 -0.17061523 -2.444246 -0.41617474 -0.69838226 -0.47111848
-0.011107032 -0.5768309 0.081350066 -0.026812486 1.2040201 -0.05200101 -1.1610507 -0.10451144
-0.97051805 -0.20063135 -0.775839 -0.26794758 0.039625145 0.21048045 -0.59236026 0.16924961
-0.071382955 -1.3982692 -0.13827269 0.02999539 -0.16231292 0.1141404 -0.092959985 0.13246214
0.060915455 -0.010557246 -1.3471154 -0.10949975 -0.20192671 -0.17767344 0.20570742 0.5318726
-0.41772142 -0.36261818 0.02900045 -0.04101872 -0.43202478 0.037493963 -0.22184846 -2.17901
-0.10592845 0.08813679 -1.7786891 -0.011604286 0.22309947 -2.471346 0.29737675 -0.22050089
-0.13344139 0.036569793 0.01272508 -1.0993521 0.15835209 -0.17836115 -0.7454837 0.08260696
0.51308596 -1.7349844 -0.13444324 -0.27929875 -2.02793 0.18262267 -0.32429698 0.031678695
0.34593773 -0.9053406 -0.07464903 0.023293499 -0.0012990251 0.19865808 -2.706367 -0.20915775
-0.8743395 0.3734576 -0.66090626 1.1246595 -1.9976859 0.13688797 -0.46421358 -0.5487732
0.2085116 0.01820111 -0.12633103 0.41681382 -0.041680668 0.0031709806 -0.2789806 0.40898353
0.020582637 -0.026600197 0.003967191 -0.50655097 -0.042197652 -0.055728182 -0.011286199 -0.015282306
-0.3045097 0.0450534 0.040769108 -0.14152703 -0.013466574 0.028376833 -0.004377106 0.022731122
0.07358684 -0.09031561 0.4477439 0.07148606 -0.04791281 -0.09675583 -0.020401724 0.034431655
-0.032912657 -0.11995366 0.07623241 -0.022086935 -0.15210296 0.0030436625 -0.09238831 -0.06250017
-0.11259595 -0.19350934 -0.055171806 -0.15087315 -0.19971599 -0.119924 -0.024490677 -0.18025705
0.020202622 -0.18904123 0.10592784 0.01636435 -0.03916242 -0.02856797 -0.09782078 -0.08022663
-0.29558682 0.047772747 0.02590132 -0.18458496 -0.26713905 -0.16975957 -0.0036451858 -0.1416548

layer_4.bias f4 [32]
00000000: 1f04 a2bf 813f 753f 0485 81c0 f4a0 1cc0
00000010: 1494 3ebf eb31 8dc0 2538 26c1 bc0d a2be
00000020: 16ab 8140 c8d8 3540 650e 66c0 7769 0440
00000030: b80d 4640 63c3 d1c0 14c2 8dc0 1e24 8740
00000040: b59c 51c0 c1b7 96be ed8b 9440 b417 6f40
00000050: 879a 2ec0 4b5f 28bf 4afa 1b40 b047 86c0
00000060: b545 a840 f01e 40bd 42c1 28c0 a0e8 d4c0
00000070: 2438 83c0 cb76 a040 48bc 56c0 e195 37c0
-1.2657508 0.95800024 -4.0474873 -2.4473238 -0.744447 -4.4123435 -10.388707 -0.31651103
4.0521345 2.8413563 -3.5946286 2.068937 3.0945873 -6.555101 -4.429941 4.223159
-3.2751896 -0.29437068 4.642081 3.7358217 -2.7281816 -0.65770406 2.4371514 -4.196251
5.258509 -0.046904504 -2.6367955 -6.6533966 -4.100603 5.014501 -3.3552418 -2.868523

layer_5.weight f4 [16, 32]
00000000: ae8e c1bd 72d6 903e 9f2b 823d 3bdc 40bf
00000010: 757a debd d77d 76bd c443 10bf 9f61 7abe
00000020: 1ed9 803f a493 ad3c 729d 673e bca9 153f
00000030: 2cd8 84bf a8a5 01bf 4874 04be a173 90be
00000040: a0b3 cf3e 30aa 073e 6621 57bf f7af 6fbe
00000050: 942e 01bd 79c4 1a3f 21df 18bf e0da 68be
00000060: 5080 c2be daf5 083e 7582 003f 2230 5dbf
00000070: 9a73 5b3d 17fa 1e3f f583 be3d 69b8 483f
00000080: 77dd 8b3d d813 863c e50d 393e 6355 093e
00000090: 86af 813d 543e d7c0 42de 9bbe 8d5b cf3d
000000a0: 1c93 cbbd 65be e33b 85e9 a23e 6b59 953e
000000b0: b02c 19bf b300 d2c0 99c8 443e eaee 413c
000000c0: bfb0 f0bc 2140 8dbc 5a14 413e 0baf 943d
000000d0: 78b9 973e d7c4 4b3e dc7a b33e 034c bc3e
000000e0: 02df 963e 038d 9d3e eede b4be cb93 36be
000000f0: f99e 9a3e f20e 243e 8781 443f 0924 34be
00000100: a137 c43e d88d e5be 1401 243e 1ed3 37bf
00000110: efdb 95bd f0d0 a8c0 7dec 25bf 08b6 0a3c
00000120: ec4c 9d3c 2e59 8fbf 3bd3 2c3f 25bd 443b
00000130: f443 093d 226c c4c0 e4d2 303f 3001 bbbd
00000140: b0d7 45bf 11f1 0c3d f96a 20be ec84 b33c
00000150: aa8a 1cbd 5e65 6e3e b2a7 2bbe b41b a5bd
00000160: 4a30 dfbd e677 b7be ff35 ee3d 272e c2be
00000170: 3620 493e c64a 07bf 5d7c 423f 078a 983d
00000180: 6947 6fbe d839 733d 7864 3abd 8a1c d33d
00000190: a4ea 5bbe 7948 6fbd b50d 3bbe ae25 e0bd
000001a0: b7f9 10bd 6470 cebd a16c 40be 39b8 56bd
000001b0: 2bc3 82be f84f b83d 8424 6cbd 2335 cabd
000001c0: 64c5 02be 6b73 283e 8ce5 d9bd d8fa 3ebe
000001d0: 0e94 2bbe b5a8 a2bd aa1c 49be 93c6 33be
000001e0: 5ddf dcbd 7bc0 22be aa3e c3bd 1011 293d
000001f0: 5103 42bd cfc4 e9bd 770d 24be b648 6fbc
00000200: cdf5 193e 8dd9 cc3d b01a 74bd 1f8c 443d
00000210: 4d7f c13e 4990 c2c0 fd34 eb3d ad1c c3bc
00000220: 35fc 6fbf 3f42 24be 2b46 41be cbe1 58bf
00000230: 9796 98bf a6b7 efc0 63ce c1be 974f 30bf
00000240: e642 3ebd b473 b3bd 5fda 6abd d2fc 29bf
00000250: 20d9 5ebe 4863 413b 70f7 4c3e f8d9 ecbe
00000260: dec7 86bd 4a25 cebd 3fb7 e0be e6ca 4c3e
00000270: c8d4 503e f1aa bebe 3ba9 af3f 8d4a d33c
00000280: 2924 80bd 5a54 5f3e cc91 9ebd 89af 933e
00000290: a0a9 0d3e a7e3 cfbd 4fdb 11c0 e5ed 0f3e
000002a0: 4666 873e 19d7 4b3d e6d0 cabe 5308 eabe
000002b0: 09c3 d03e 4f60 debf 3e7a 27bd b9a3 a93e
000002c0: 4530 683d efa7 b03c eb73 09bf 3cd9 eebe
000002d0: adb0 b63d ea23 29bd c047 72bf 8730 423c
000002e0: 8c54 053f 97c1 e2be d01b 02c0 f50f b4be
000002f0: fb71 a3bd e0c3 623e 0dff 01bf 7cab 8cbe
00000300: cf8c e9be e35d 6bbf ca61 8fbe 4562 363f
00000310: 3335 abbd 9cee cbbe 020e abc0 9a97 43bb
00000320: bbe4 2cbe a59d 543f 05fb 39bf 4875 2ebf
00000330: c75d 663f 1846 b83d 613c 03bf 231d cc3d
00000340: 92ec 9cbd 23d7 c3bd cab5 5fc0 3aaa 0ebe
00000350: de3c 5bbc 0a72 223f 8e23 b1be 576a 733d
00000360: e35b 9a3e fe09 c1be 5182 f9bf b242 13bd
00000370: 14fd dbbf c679 8fbf b615 f0bf a947 edbf
00000380: 80fc f2bc c218 17c0 8109 d1bd 0b4f 0abf
00000390: 1a8b 12be 1e90 43c0 3463 19be 30b9 2dbe
000003a0: 0533 2a3e 20e1 39bd 1029 a5bf 12eb b6be
000003b0: 3b71 a33f e94f d83d 06c7 92be 90cd 6ebf
000003c0: b12c 5bbe e178 15bb 97cc a33e 73dc 6abe
000003d0: a3a1 44bd 52db 41be 1dc1 86be 5d98 0fbf
000003e0: dc57 d3bd 07a8 a8bd 1a8d 7ec0 e54c 3bbe
000003f0: e4d1 46be be2e 51be 437c 3ebf 6de3 2e3f
-0.09451042 0.2828861 0.06355976 -0.75336045 -0.108632006 -0.060178604 -0.563534 -0.24451302
1.0066259 0.021188565 0.22618654 0.5846212 -1.037847 -0.50643396 -0.12934983 -0.28213218
0.4056673 0.13248515 -0.84035337 -0.23406969 -0.03153856 0.60456043 -0.5971547 -0.22739744
-0.3798852 0.13375035 0.5019906 -0.8640157 0.053577043 0.62100357 0.093025126 0.7840639
0.068293504 0.016366884 0.18071707 0.13411479 0.063323066 -6.7263584 -0.30443007 0.10124884
-0.09940168 0.006950187 0.31818786 0.29169783 -0.5983381 -6.5625854 0.19217147 0.011836747
-0.029381154 -0.017242493 0.1885542 0.07259949 0.2963369 0.19899307 0.35054672 0.36776742
0.29467016 0.30771646 -0.35326332 -0.17829816 0.30199412 0.16021326 0.76760143 -0.17591871
0.3832369 -0.4483478 0.16016036 -0.71806514 -0.0731734 -5.275505 -0.6481398 0.008466251
0.019201718 -1.119909 0.6750981 0.0030019965 0.03351207 -6.1382 0.69071794 -0.09131086
-0.7728224 0.034409586 -0.15665807 0.021913968 -0.038218178 0.23280856 -0.1676319 -0.080619246
-0.10897882 -0.35833663 0.11631393 -0.37925836 0.19641194 -0.5284847 0.75971013 0.074482016
-0.23367085 0.059381336 -0.04550597 0.10308178 -0.21476227 -0.058418725 -0.18266948 -0.10944687
-0.035394397 -0.100800306 -0.18791439 -0.052421782 -0.25539526 0.08999628 -0.05765201 -0.09873416
-0.12770611 0.16450278 -0.10639486 -0.18650377 -0.16755697 -0.079423346 -0.1963984 -0.17556219
-0.10784791 -0.15893738 -0.095334366 0.041276038 -0.047366444 -0.114144914 -0.16020761 -0.014604738
0.15035172 0.10002432 -0.059595764 0.047985192 0.37792435 -6.080113 0.11484716 -0.023817385
-0.9374421 -0.16040896 -0.18874423 -0.8471953 -1.1920956 -7.491168 -0.37852773 -0.68871444
-0.046450518 -0.08762303 -0.05733716 -0.664014 -0.21762514 0.002950864 0.20016265 -0.46260047
-0.065810904 -0.10065706 -0.43889806 0.19999275 0.2039367 -0.37239793 1.372352 0.025792385
-0.06256897 0.21809521 -0.07742652 0.2884486 0.13834238 -0.10150843 -2.2790105 0.14055593
0.26445216 0.04976568 -0.39612502 -0.45709476 0.407738 -1.7373141 -0.040888064 0.33132723
0.05668666 0.021564452 -0.536925 -0.46650112 0.08920417 -0.041294016 -0.9464073 0.01185239
0.52082133 -0.44288322 -2.0329475 -0.35168424 -0.079807244 0.22145033 -0.507798 -0.27474582
-0.4561524 -0.91940135 -0.28004295 0.712437 -0.08359756 -0.39830482 -5.34546 -0.0029845
-0.16884129 0.83053046 -0.7264865 -0.68147707 0.8998684 0.08997744 -0.51264006 0.09966495
-0.0766231 -0.095625184 -3.4954705 -0.13932124 -0.013381211 0.6345526 -0.3459744 0.059427585
0.3014823 -0.37702936 -1.9492894 -0.035952277 -1.7186608 -1.1209037 -1.8756626 -1.8537494
-0.029661417 -2.360886 -0.10206891 -0.5402686 -0.14310876 -3.0556712 -0.14979249 -0.16965175
0.16621025 -0.04538071 -1.2903156 -0.3572622 1.276893 0.10562117 -0.28667468 -0.93282413
-0.21403767 -0.0022807645 0.31992027 -0.22935657 -0.04800571 -0.1893132 -0.2631921 -0.5609186
-0.10319492 -0.08235174 -3.9773622 -0.18291052 -0.19416004 -0.20427987 -0.7440836 0.68315774

layer_5.bias f4 [16]
00000000: ee91 e03f 9310 4140 16b0 f23e 40b8 65be
00000010: f8ca 0a40 a223 2a40 1f8b 22bf dff7 8e40
00000020: d294 b8c0 a4db ddbd 89fa 29c0 43e1 0a40
00000030: 489d 4540 e79b 1dc0 5a92 2740 8c24 a540
1.7544534 3.0166366 0.47399968 -0.22433567 2.1686382 2.6584249 -0.6349353 4.4677577
-5.7681665 -0.10832909 -2.6559165 2.169999 3.0877247 -2.4626405 2.6183076 5.1607113

layer_est.weight f4 [8, 16]
00000000: 24ef eabd 70e7 973c 96e2 55be 4498 5e3e
00000010: 3289 36be 5079 8b3d 58b3 4b3e 7641 6f3e
00000020: e8a6 793d b086 9b3c c08d abbb de42 723e
00000030: 3e7a 1ebe 9002 3e3e 7ed5 5a3e 30e0 27be
00000040: 14c3 1abe 3a57 3e3e e6c4 543e 6c55 8b3d
00000050: 9447 233e 3c13 b5bd 9c6b 0f3e c462 383e
00000060: ac70 4b3e 0e21 6e3e dc4a 46be acb0 773e
00000070: 08e2 263e 6057 bdbd 28f2 fbbd 283e 443d
00000080: 14b3 dd3d e852 3f3e 6c77 85bd 98f5 27be
00000090: 1220 3cbe 7885 263d da23 1abe b6c2 723e
000000a0: e866 55be 001e 32be 1669 323e 6079 e9bc
000000b0: 9c11 bebd d081 85bc 84f5 703e 081d 2f3d
000000c0: c26e 5c3e a82a febd 68ba 17be e0ca 6dbe
000000d0: 48bc 933d 8c20 58be c023 2bbd e0ff 3cbe
000000e0: 8460 653e 3c8d a1bd b06f fa3d 0073 e2bc
000000f0: 90ea f83c 20ae c63d f8a9 513d a677 063e
00000100: 883c 64be e08e aa3d 0cc4 c7bd 9056 43bd
00000110: 70fc cc3d cc57 4bbe 3211 173e da9d 43be
00000120: 18bf 623d 70f2 363d de25 373e 4cb5 7bbe
00000130: 9c39 f7bd b812 683d 262c 3c3e b899 a6bd
00000140: 5c0f 973d 7809 313d 32ad 1fbe b432 d53d
00000150: 3866 df3d 2c79 d0bd 4878 033e 28cd ebbd
00000160: 3ab4 5f3e 7047 b3bc d058 2cbd 3e82 7dbe
00000170: 84fc 7fbe 907d 783e b614 7c3e 6832 ea3d
00000180: 588c bc3d 9447 7abe 6ab5 083e b04d c6bd
00000190: 88a1 593d 6469 953d 7819 753d ccf6 a43d
000001a0: a263 08be 4ab0 4b3e 10ad ea3d e492 67be
000001b0: bcd8 94bd a081 25bc 4e29 573e e071 253c
000001c0: 0018 eeba f406 793e 2c3f 82bd 5648 023e
000001d0: c021 1abd 4ad4 49be 1ced b63d b0ca 613d
000001e0: 70c1 22be c8a4 0ebe 108a d93c b8f2 de3d
000001f0: 2e02 2f3e 163e 7ebe 1cb1 4f3e 40cb 673e
-0.11471394 0.018542975 -0.20887217 0.21737772 -0.17825773 0.06810248 0.19892633 0.23364815
0.06095019 0.018985122 -0.005235404 0.2365832 -0.15476319 0.18555665 0.21370503 -0.16394114
-0.15113479 0.18587962 0.20778236 0.06803402 0.15945274 -0.08841559 0.14005893 0.18006426
0.198672 0.23254797 -0.19364494 0.24188489 0.16297162 -0.09245181 -0.12302047 0.04791084
0.10825172 0.1868397 -0.065169185 -0.1640228 -0.18371609 0.04065463 -0.15052739 0.23707089
-0.20840037 -0.17394257 0.174229 -0.028500259 -0.092807025 -0.016297251 0.23531157 0.042752296
0.21526626 -0.1241048 -0.14817202 -0.23221922 0.07213646 -0.21106166 -0.04178214 -0.18456984
0.22400099 -0.078882664 0.12228334 -0.027642727 0.030385286 0.097011805 0.051187485 0.1313158
-0.22288716 0.083280325 -0.0975419 -0.047689974 0.10009086 -0.1985771 0.14752653 -0.19103184
0.055358022 0.0446648 0.17885539 -0.24580878 -0.12071535 0.056658477 0.18376216 -0.08134788
0.073759764 0.04322192 -0.15593413 0.104100615 0.109081686 -0.10179362 0.12838852 -0.1151374
0.21846095 -0.02188465 -0.042076886 -0.24756715 -0.24998671 0.24266648 0.24617276 0.114353955
0.09206456 -0.24441367 0.13350454 -0.096827865 0.053132564 0.07295492 0.059838742 0.08054885
-0.13319257 0.19891468 0.1145879 -0.22614628 -0.07267901 -0.010101706 0.2101185 0.010097951
-0.0018165112 0.24319059 -0.06359705 0.12722906 -0.037629843 -0.19709888 0.08931944 0.05512494
-0.15894103 -0.13930047 0.026555091 0.10886139 0.17090675 -0.24828371 0.20282406 0.22636127

layer_est.bias f4 [8]
00000000: f0d7 74bd c4a4 7bbe e02f 0ebe 8ed1 2c3e
00000010: 049f 203e 4078 f63d f4c9 623e b451 ad3d
-0.059776247 -0.24574572 -0.1388545 0.16876814 0.1568566 0.120346546 0.22147352 0.08462849

layer_inf.weight f4 [1, 16]
00000000: 1d2c 85bc 4927 273e a63d de3d 9801 013d
00000010: f653 873d a8ed 05be a2c3 913d 11a6 933d
00000020: 2de2 933d 3a40 573d fee4 4f3d cdde 473d
00000030: 2c70 713d a2a2 4f3d bd23 303d 8220 263e
-0.016256386 0.1632358 0.10851602 0.03149566 0.06607811 -0.1307894 0.07117392 0.07209409
0.07220874 0.052551486 0.050755493 0.048796464 0.058944866 0.050692208 0.043002833 0.16223338
