saved_models/qpsk_HeuristicNet_nt12.pkl (torch, 386463 bytes, 13 tensors)

layer_1.weight f4 [128, 648]
0	0x3cba47f1	0.022739382
1	0xbc570675	-0.013124098
2	0xbc6ef550	-0.014584854
3	0x3cf2e76b	0.029651364
4	0x3c952fa7	0.018211199
5	0xbc0b67ef	-0.008508666
6	0x3bee8221	0.007278696
7	0x3a488e86	0.0007650632
8	0x3d10c7c3	0.035346758
9	0x3c7f008e	0.015564097
10	0x3bbc65eb	0.0057494543
11	0x3bfe5e80	0.00776273
12	0x3c336292	0.010948794
13	0xbb528f5e	-0.003212891
14	0x3c2f8a2c	0.010714095
15	0xbc3ca72b	-0.011514465
16	0xbb032393	-0.0020010218
17	0x3cea14d6	0.028574388
18	0xbc0a56f6	-0.008443585
19	0xbd03cf71	-0.032180253
20	0x3ac5ed5a	0.0015100644
21	0xbb269f18	-0.0025424417
22	0xbc8c165d	-0.017100507
23	0xbba53944	-0.005042227
24	0x3b67f757	0.0035395229
25	0xbcbed846	-0.023296487
26	0x3c56826b	0.0130926175
27	0xbadbfc97	-0.0016783652
28	0xbc69b8ec	-0.01426528
29	0xbc39be68	-0.0113369
30	0xbdcc608e	-0.09979354
31	0x3d4d31b2	0.05009622
32	0x3d2e6ac2	0.04258228
33	0xbd2807be	-0.04102301
34	0xbd37c94d	-0.04486971
35	0x3ba06fb6	0.0048961295
36	0x3cda15f2	0.026621792
37	0xbd103122	-0.035203107
38	0xbc4cf639	-0.012509876
39	0x3de4778b	0.111556135
40	0xbc9d01f6	-0.019165974
41	0x3caa1cf3	0.020765757
42	0x3cf3f42c	0.029779516
43	0x3991ef2f	0.0002783476
44	0x3d9120b2	0.07086314
45	0x3d5d80a6	0.054077767
46	0x3cbbe46e	0.022936072
47	0xbd18b822	-0.037284978
48	0x39683200	0.0002214387
49	0xbb1cd66c	-0.0023931516
50	0xbd04a408	-0.032382995
51	0xbd90aaad	-0.07063804
52	0x3d9887e4	0.07447794
53	0x3d5f1ac3	0.05446888
54	0xbcbb66a3	-0.02287609
55	0x3d52cc21	0.051464204
56	0xbe12d1e4	-0.1433788
57	0x3b37e5e3	0.0028060607
58	0x3c795018	0.01521685
59	0x3ceb2b87	0.028707279
60	0x3d23e5c5	0.040014047
61	0xbe8ba373	-0.2727314
62	0xbd1e8c46	-0.038707994
63	0x3c9b10a8	0.01892884
64	0xbb1ad410	-0.0023624934
65	0x3cae4a2d	0.021275604
66	0xbd4c4eea	-0.049879946
67	0xbdbaf5ac	-0.091288894
68	0xbd7d298f	-0.06180721
69	0x3d066032	0.032806583
70	0x3de0aab8	0.10970062
71	0x3d76a2cd	0.060213853
72	0x3cc3cc32	0.023901079
73	0xbc1b4930	-0.0094778985
74	0xbd040df6	-0.032239877
75	0x3d030b6c	0.031993315
76	0x3d1298e6	0.035790347
77	0xbd238058	-0.03991732
78	0xbb1450b8	-0.002263112
79	0x3c0464bf	0.00808066
80	0xbdb2ec61	-0.08736492
81	0x3c95c4f4	0.018282391
82	0x3ca9766f	0.020686356
83	0x3c280ac4	0.010256473
84	0xbd0b3edf	-0.033995505
85	0x3d58db55	0.052943546
86	0x3dbb2337	0.09137576
87	0xbd24c0a1	-0.040222768
88	0xbc86cdc3	-0.016455537
89	0x3d1c5d6d	0.038175035
90	0x3955b8d7	0.00020382121
91	0x3d4549ef	0.04816621
92	0xbc9f2ed2	-0.019431505
93	0x3ce19cdb	0.027540615
94	0xbc1b1bdb	-0.0094670905
95	0xbb1b002a	-0.002365122
96	0xbd0bcdc2	-0.034131773
97	0xbcf4303a	-0.029808152
98	0x3c803364	0.015649505
99	0x3d16374c	0.03667383
100	0xbd28c4e6	-0.041203402
101	0x3b81b239	0.0039580134
102	0xbcdcd289	-0.02695586
103	0xbdab527e	-0.083653435
104	0x3d15da12	0.03658492
105	0xbd311970	-0.04323715
106	0xbd268d74	-0.040662244
107	0xbd63cfdf	-0.055618163
108	0x3d139070	0.03602642
109	0x3d3b8581	0.045781616
110	0x3d6ded76	0.05808779
111	0x3dcbbd9f	0.09948277
112	0xbdb93f37	-0.090452604
113	0xbd84c5d9	-0.06483049
114	0xbcbc7b45	-0.023007998
115	0x3c34d2c9	0.011036583
116	0xbb09e103	-0.0021038658
117	0xbcab70a5	-0.020927737
118	0x3bb14361	0.0054096435
119	0xbcba40fa	-0.022736061
120	0xbc569ed4	-0.013099391
121	0x3c9fa7fc	0.01948928
122	0x3d078d4f	0.033093747
123	0x3ce65a52	0.02811924
124	0x3c6093a4	0.013707075
125	0xbd8e6882	-0.06953527
126	0xbd4f9be6	-0.050685786
127	0xbcfe127e	-0.031014677
128	0x3d0f3f25	0.03497233
129	0xbc27329f	-0.01020494
130	0x3cecb10e	0.02889302
131	0xbd2c1467	-0.042011645
132	0xbd6b5ad2	-0.05745966
133	0x3da4afc8	0.0804134
134	0x3d83466a	0.06409915
135	0x3d553c5d	0.05205952
136	0x3d327d62	0.043576606
137	0x3cbfde34	0.023421384
138	0x3d5a4d45	0.053296346
139	0x3d1db75d	0.038504947
140	0xbd0dd30b	-0.034625094
141	0xbce0cd5c	-0.027441673
142	0xbaf1aaf2	-0.0018437786
143	0xbb870008	-0.004119877
144	0xbd114db1	-0.035474483
145	0x3c8fcdce	0.01755419
146	0xbc4acca6	-0.012377894
147	0xbb25cb20	-0.0025298074
148	0x3d06db17	0.032923784
149	0x3ab4097f	0.001373574
150	0x3c5e38da	0.013563359
151	0xbd029392	-0.031879015
152	0xbd2b7ce5	-0.041867156
153	0xbcded8f0	-0.027203053
154	0x3d1f233d	0.038851965
155	0x3b5b3bfa	0.0033452497
156	0xbcdb3793	-0.026759898
157	0x3c91eefe	0.017814156
158	0xbd3cda7a	-0.046106793
159	0x3d060677	0.03272101
160	0x3cb043e9	0.021516757
161	0xbd857a62	-0.06517483
162	0xbc8cc7a2	-0.017185036
163	0x3c4d0450	0.012513235
164	0x3cb04ae6	0.02152009
165	0xbd709e2e	-0.058744602
166	0x3cbc66d0	0.022998244
167	0xbcbfac53	-0.0233976
168	0x3c739f00	0.0148694515
169	0x3b4e29d0	0.0031458028
170	0x3cdb0ab2	0.026738498
171	0x3d189a89	0.03725675
172	0xbcf41a38	-0.029797658
173	0xbcd4156b	-0.02588912
174	0x3d014669	0.03156129
175	0xbdbf8ddc	-0.093532294
176	0xbd114e25	-0.035474915
177	0xbd889650	-0.06669295
178	0xbd8d12c7	-0.06888347
179	0x3d2da25b	0.042391162
180	0xbca8dc54	-0.020612873
181	0xba0ac88c	-0.0005294166
182	0x3c43e5b4	0.011956621
183	0xbcfac8ec	-0.030613385
184	0x3bf2be8c	0.007407969
185	0x3c3409e8	0.01098869
186	0x3d6735db	0.056447845
187	0x3d14b7b7	0.036308017
188	0x3c538b07	0.012911565
189	0x3c84ecc0	0.016226172
190	0xbd682425	-0.056675095
191	0xbd12122c	-0.03566186
192	0xbaef9380	-0.0018278211
193	0xbcecbb6c	-0.028897963
194	0x3c2c5228	0.010517634
195	0xbc1e64ce	-0.009667588
196	0x3cb90156	0.022583645
197	0x3d1fa9d9	0.03898034
198	0xbd0109fd	-0.031503666
199	0x3be8dc8e	0.0071063703
200	0x3c4d87ea	0.0125446115
201	0xbcafeb5e	-0.021474537
202	0x3d4658f8	0.04842469
203	0xbd116cb2	-0.03550405
204	0xbcb86b77	-0.02251218
205	0x3d277d0a	0.04089073
206	0xbd4be621	-0.049780015
207	0x3be418af	0.0069609503
208	0x3c6efc01	0.01458645
209	0x3be3e46b	0.00695472
210	0x3d76c04e	0.06024199
211	0x3d4a868b	0.049444716
212	0xbb9c3cd7	-0.004767995
213	0xbc474df3	-0.012164581
214	0xbcafebfe	-0.021474835
215	0x3cbf769b	0.023371985
216	0xbc1dee58	-0.009639345
217	0x3d0f8209	0.03503612
218	0x3ba4fee0	0.0050352663
219	0x3caf4116	0.02139334
220	0x3d049193	0.032365393
221	0x3a17ea40	0.0005795099
222	0xbd1d592e	-0.038415127
223	0xbcb7d1c8	-0.022438899
224	0x3c17f60d	0.009274972
225	0xbc39390f	-0.011305108
226	0xbc537eef	-0.012908681
227	0xbc8a5ea2	-0.016890828
228	0xbd12ca9b	-0.03583775
229	0xbc36d524	-0.011159215
230	0xbc949b03	-0.018140322
231	0x3c960ad5	0.018315712
232	0x3d6719d9	0.056421135
233	0xbaae8b54	-0.001331667
234	0xbdfc4e4b	-0.12319621
235	0xbc7f11f0	-0.0155682415
236	0x3d73b8d7	0.05950245
237	0x3c1d6bc6	0.009608215
238	0xba8cd0fa	-0.0010743432
239	0xbbe61f94	-0.0070228074
240	0x3ceedbee	0.029157605
241	0xbb4c9800	-0.0031218529
242	0x3d0d35a9	0.034475002
243	0xbbe2eaa8	-0.006924946
244	0x3ce0de72	0.02744982
245	0xbc3e6bec	-0.01162241
246	0x3c7b96c8	0.015355773
247	0x3b340b50	0.0027472563
248	0x3d1bdc39	0.038051818
249	0x3cc390ac	0.023872696
250	0xbc998e00	-0.018744469
251	0xbcd457e4	-0.025920816
252	0x3d564101	0.052308086
253	0x3cf22dba	0.02956282
254	0xbdf0db6e	-0.11760603
255	0xbd605d08	-0.05477622

layer_1.bias f4 [128]
0	0xc10786f7	-8.47045
1	0xc0e6f2b7	-7.2171283
2	0xc07b194c	-3.923419
3	0xc01f126c	-2.4854994
4	0xc0905957	-4.5109057
5	0xbdd9367b	-0.106060944
6	0xc031c353	-2.7775466
7	0xc0ddab12	-6.9271326
8	0xc086879b	-4.2040534
9	0xc04b69fb	-3.1783435
10	0xc00149da	-2.0201325
11	0xc0e342e3	-7.101915
12	0xc084e381	-4.1527715
13	0xc037536c	-2.8644667
14	0xc0727fd8	-3.789053
15	0xbfceb28c	-1.6148238
16	0xc0054bbf	-2.0827482
17	0xbfc4867b	-1.535354
18	0xc094479b	-4.633741
19	0xc0050ab8	-2.0787792
20	0xc08cb1fb	-4.396726
21	0xc0ce2c92	-6.4429407
22	0xc0629bd9	-3.5407622
23	0xc02c403d	-2.6914208
24	0xbe412a26	-0.18863735
25	0xc0ffd133	-7.994287
26	0xc014a936	-2.3228278
27	0xc016910e	-2.3526034
28	0xc01a6080	-2.41214
29	0xc0b9f4dc	-5.81114
30	0xc13c448e	-11.766737
31	0xc1144b4b	-9.268382
32	0xbe2faf1c	-0.17156643
33	0xc041b679	-3.0267622
34	0xbe081c97	-0.13292156
35	0xbe2cd28a	-0.1687719
36	0xc08ae565	-4.3405023
37	0xc031cb1b	-2.7780216
38	0xc0fd3a19	-7.913342
39	0xc0f83f0b	-7.7576957
40	0xbfddba13	-1.732241
41	0xc068579d	-3.6303475
42	0xc0078042	-2.1172032
43	0xc06f611c	-3.740302
44	0xc0162446	-2.345964
45	0xbf056078	-0.52100325
46	0xc027abee	-2.6198688
47	0xc04b963f	-3.1810453
48	0xc0153890	-2.3315773
49	0xc08b1d0a	-4.347295
50	0xc0c25982	-6.0734262
51	0xbef88190	-0.48536348
52	0xc00dc608	-2.2152119
53	0xc08351e1	-4.103745
54	0xc1050c7b	-8.315547
55	0xc1240ef8	-10.2536545
56	0xc02df9e1	-2.7183764
57	0xc0e075e1	-7.0143895
58	0xc0df86f8	-6.9852257
59	0xc1008ad7	-8.033896
60	0xc0efb010	-7.490242
61	0xc07ffef7	-3.9999368
62	0xbe08cce8	-0.13359416
63	0xc08e91ff	-4.455322
64	0xc08fc9ec	-4.4933987
65	0xc0e2bdc0	-7.085663
66	0xc089dc73	-4.3081603
67	0xc0a3246a	-5.098195
68	0xc0bc68e4	-5.887804
69	0xc0cc641b	-6.38722
70	0xc13e4503	-11.891849
71	0xc0bf5e47	-5.9802585
72	0xbf03fbcf	-0.51556104
73	0xc0bb7e0e	-5.8591375
74	0xc0b1ff14	-5.5623875
75	0xc07c8842	-3.9458165
76	0xbf589e05	-0.8461612
77	0xc093bc0c	-4.616705
78	0xc09a61a7	-4.8244205
79	0xc04706f8	-3.1098003
80	0xc0a1e024	-5.058611
81	0xc0d96ce5	-6.794543
82	0xc0b5af59	-5.6776547
83	0xc048139e	-3.1261973
84	0xc099d46c	-4.8071804
85	0xc02d9655	-2.7123005
86	0xc0402b09	-3.0026267
87	0xc0739232	-3.805798
88	0xc032a9b9	-2.791609
89	0xc0bd1624	-5.9089527
90	0x3d6bad82	0.057538517
91	0xc09ace84	-4.8377094
92	0xc0bce377	-5.9027667
93	0xc02d7141	-2.7100375
94	0xc0fd5240	-7.9162903
95	0xc0f356e1	-7.6043553
96	0x3e07d2ed	0.13264056
97	0xc0b3ca9f	-5.618484
98	0xbfeeaf5a	-1.8647263
99	0x3e3fa9d5	0.1871713
100	0xc0696bf0	-3.647213
101	0xbd7b2f6f	-0.061324533
102	0xc099820e	-4.797126
103	0xc066f96a	-3.608973
104	0xc12aff14	-10.687275
105	0x3df4cc88	0.11953074
106	0xbf0af03d	-0.54272825
107	0xc08c9b5e	-4.3939657
108	0xc01af7ac	-2.4213667
109	0xc0f8dbb4	-7.776819
110	0xc0578336	-3.3673835
111	0xc02cd475	-2.7004673
112	0xc0d3f784	-6.6239643
113	0xc0c71c7f	-6.2222285
114	0xc06a7680	-3.6634827
115	0xc064ead9	-3.576834
116	0xc0bc0990	-5.8761673
117	0xc0b317bb	-5.596647
118	0x3cd4eb65	0.025991151
119	0xc0b146a7	-5.5398746
120	0xc06164dd	-3.5217812
121	0xc0f5f01a	-7.6855593
122	0xbfb7e0db	-1.4365495
123	0xc0dd2476	-6.910701
124	0xc093511f	-4.6036525
125	0xc14d83df	-12.844695
126	0xc0367dea	-2.8514352
127	0xbff91eaf	-1.9462489

layer_2.weight f4 [64, 128]
0	0xbe8d88a2	-0.27643305
1	0xbce1470e	-0.027499702
2	0x3d02bde4	0.031919375
3	0xbe86db35	-0.26339117
4	0xbd1c19b4	-0.03811045
5	0x3d7244f2	0.059147783
6	0x3df0e438	0.11762279
7	0xbc2bb4dc	-0.010480132
8	0x3c5d4918	0.013506196
9	0xbc47b0b8	-0.012188129
10	0xbe66222e	-0.22473976
11	0xbd5a06aa	-0.05322901
12	0x3dcb5aea	0.0992945
13	0xbed44622	-0.41459757
14	0xbc970fbb	-0.018440118
15	0xbe8ffd02	-0.28122717
16	0xbee87710	-0.45403337
17	0xbdb80683	-0.08985617
18	0xbebdaa50	-0.37044
19	0xbf0f0fe2	-0.5588361
20	0x3c37efdb	0.01122662
21	0xbd230a8e	-0.039804988
22	0x3e33376b	0.17501609
23	0x3dc30566	0.09522514
24	0xbd259378	-0.04042384
25	0x3d7fc68e	0.062445216
26	0xbea6c9ab	-0.32575735
27	0xbe98fc2e	-0.29879898
28	0xbd854c29	-0.06508667
29	0xbfb03a88	-1.3767862
30	0xbe95eb3b	-0.2928103
31	0x3de04a3a	0.109516576
32	0xbce48d0b	-0.027899286
33	0x3cfeebb6	0.031118255
34	0x3d6918e5	0.056908507
35	0x3d777f89	0.06042436
36	0x3c26e6e3	0.010186884
37	0xbcee7150	-0.029106766
38	0xbee3e3d8	-0.44509768
39	0x3ce663ff	0.028123854
40	0xbd42b224	-0.04753317
41	0x3cc440f0	0.023956746
42	0xbd84e498	-0.06488913
43	0x3cfe0e98	0.031012818
44	0xbcb5b2ea	-0.02218004
45	0xbc14528d	-0.009052885
46	0xbcdb1ca7	-0.026747061
47	0xbd0c95d5	-0.03432258
48	0xbe893725	-0.26799884
49	0x3d4b3ed6	0.049620472
50	0x3de7fa3b	0.113270245
51	0xbc946f06	-0.018119346
52	0xbea6a973	-0.32551154
53	0xbd9dddd4	-0.07708326
54	0xbd182691	-0.037146155
55	0x3d84755f	0.06467699
56	0x3dae7e66	0.08520202
57	0xbcc2b76a	-0.0237691
58	0xbe393223	-0.18085532
59	0xbf0da01c	-0.5532243
60	0xbcfa1391	-0.030526908
61	0x3c850736	0.01623879
62	0x3d4299bb	0.04750989
63	0x3d0aa42c	0.033847973
64	0x3e4b29d7	0.1984018
65	0xbe0bf414	-0.13667327
66	0xbd7c67c6	-0.061622404
67	0xbed80304	-0.421898
68	0x3f961f85	1.1728369
69	0xbed98799	-0.42486265
70	0xbeb2dd81	-0.3493462
71	0x3d35ae57	0.044355717
72	0xbc226f72	-0.009914266
73	0x3d26b1db	0.04069696
74	0xbcacfc53	-0.021116411
75	0xbd148e74	-0.036268666
76	0xbeddbf2e	-0.4330992
77	0x3e75f0b3	0.240176
78	0xbb6c3cb9	-0.0036046936
79	0x3d44b169	0.048020754
80	0x3c1b75e9	0.009488561
81	0x3dafcafb	0.08583637
82	0xbd245d05	-0.040127773
83	0xbddbe1a8	-0.107364
84	0xbb202128	-0.0024433825
85	0x3d448f88	0.047988445
86	0xbb92acf1	-0.0044761826
87	0xbde40146	-0.111330554
88	0x3d7960df	0.0608834
89	0x3f9dca74	1.2327409
90	0xbd0e66cd	-0.034766007
91	0xbeab3670	-0.3343997
92	0xbc2aa0cb	-0.010414313
93	0x3d794242	0.060854204
94	0x3b370456	0.0027926168
95	0xbe1ad6e5	-0.15121038
96	0x3eae507a	0.34045774
97	0xc09b1f1c	-4.8475475
98	0x3d496408	0.049167663
99	0xbd4e1cba	-0.050320365
100	0x3d2404fd	0.04004382
101	0x3fbeca11	1.4905416
102	0xc105a7ec	-8.353497
103	0xbcdb6f84	-0.026786573
104	0x3da7dd44	0.081965
105	0x3faf6629	1.3703052
106	0x3becd722	0.0072277943
107	0x3dfaabcd	0.122398
108	0xbe91be61	-0.2846556
109	0x3d5ec212	0.0543843
110	0xbe211cdd	-0.15733667
111	0xbcc04ffe	-0.023475643
112	0xbcf04c96	-0.029333394
113	0xbed32ae5	-0.41243663
114	0xbc89254d	-0.01674142
115	0xbd779c8d	-0.060452033
116	0xbef55bb8	-0.47921538
117	0xbc83a70d	-0.016070867
118	0x3eaf6eaf	0.34264132
119	0xbc6649a6	-0.014055645
120	0xbe19b8d1	-0.15011908
121	0x3e66cc78	0.22538936
122	0xbdf89a2b	-0.1213878
123	0xbe39bc8c	-0.18138331
124	0x3e0388d3	0.12845163
125	0xbd8eccc1	-0.069726475
126	0xbece0c23	-0.40243635
127	0xbc22f2cd	-0.0099455835
128	0xbd85dcd0	-0.06536257
129	0xbf4e391e	-0.80555904
130	0xbd76db33	-0.06026764
131	0x3ca09c75	0.019605855
132	0xbdec78ec	-0.115465015
133	0x3b567b29	0.0032727218
134	0x3d5b8f0c	0.053603217
135	0xbe85c9a4	-0.26130402
136	0x3c3a51a8	0.011372007
137	0x3e11cb07	0.14237605
138	0x3d010c98	0.03150615
139	0x3e871c21	0.26388648
140	0xbf53f747	-0.8279919
141	0x3a97ef40	0.0011591688
142	0xbd18d35c	-0.037310943
143	0x3b87b7f5	0.0041418024
144	0x3ba478de	0.0050192913
145	0x3d69a666	0.057043456
146	0xbf2da180	-0.67824554
147	0x3c8113ed	0.015756572
148	0xbd708974	-0.058724836
149	0x3d2fdfcc	0.04293804
150	0xbd58ed6c	-0.0529608
151	0xbcd75cdf	-0.026289402
152	0x3cd76905	0.026295194
153	0xbe1680d1	-0.14697577
154	0x3d12d421	0.035846833
155	0xbc7f7c28	-0.015593566
156	0x3da1cb3a	0.079000905
157	0xbe515f82	-0.2044659
158	0x3eadae8b	0.33922228
159	0xbd2b6312	-0.041842528
160	0xbbd1f342	-0.0064071724
161	0x3b6d8e22	0.0036248048
162	0x3c2ae688	0.0104309395
163	0xbc0a1826	-0.008428609
164	0xbfa4749e	-1.2848089
165	0x3ca909b2	0.020634506
166	0xbc7c3cc1	-0.015395344
167	0xc013d38e	-2.3097873
168	0x3b9ae2d1	0.0047267457
169	0x3b6e5e14	0.0036371993
170	0x3932bb72	0.00017045232
171	0x3bbd32f4	0.0057738964
172	0x3d16b375	0.036792237
173	0xbbcde1d9	-0.0062830267
174	0xbd1bf97e	-0.03807973
175	0x3e1c3f32	0.15258482
176	0xbc87e810	-0.016590148
177	0x3fb63c7e	1.4237211
178	0xbcc2e12e	-0.023789015
179	0x3cd3490f	0.025791673
180	0x3d2c9225	0.04213156
181	0x3eea5b5a	0.4577282
182	0xbe10d03b	-0.14141934
183	0xbd8e3347	-0.06943374
184	0x3d0da7ca	0.034583844
185	0xbe4a7c7d	-0.19774051
186	0xbd7c2b75	-0.06156488
187	0xbdceb4ce	-0.100930795
188	0xc075ee73	-3.8426788
189	0x3c219b00	0.009863615
190	0xbca4b77a	-0.02010702
191	0x3fb660eb	1.4248327
192	0xbc08f2fe	-0.008358715
193	0x3da0fe23	0.07860973
194	0xbcd5ceb5	-0.026099542
195	0x3c2e21fb	0.010628219
196	0xbe61f001	-0.2206421
197	0x3fb85dfd	1.4403683
198	0x3e8edcea	0.2790292
199	0xbfe03104	-1.7514958
200	0x3b1ddc4b	0.0024087604
201	0xbec45485	-0.38345733
202	0x3bf41a38	0.0074494146
203	0xbf95b41d	-1.1695591
204	0x3d0541f9	0.03253362
205	0xbd5339dd	-0.051568855
206	0xbd109d8e	-0.035306506
207	0x3d2611c1	0.040544275
208	0x3c37bb0f	0.011214032
209	0xbd8a49c3	-0.0675235
210	0xbd7b82f2	-0.061404176
211	0x3d8ec81d	0.06971762
212	0x3cd05599	0.025431441
213	0xbb500d50	-0.0031746216
214	0x3b87eb49	0.004147921
215	0x3e35ced7	0.17754684
216	0x3c63984c	0.013891291
217	0xbe547441	-0.20747472
218	0xbfa059f0	-1.2527447
219	0xbea6a63e	-0.32548708
220	0xbe15b95e	-0.14621493
221	0xbd6a9cf3	-0.057278585
222	0xc0f62392	-7.691842
223	0x3e89604b	0.26831278
224	0xbfc34e19	-1.5258209
225	0xbdc09f0e	-0.09405337
226	0xbca3f8fb	-0.020016184
227	0xbf95184b	-1.1648039
228	0xbc858027	-0.01629646
229	0x3e78aca1	0.24284603
230	0xbe396854	-0.18106204
231	0xbdda1c66	-0.10649948
232	0xbeb4719d	-0.3524293
233	0x3e5b7048	0.2142955
234	0x3d1d68eb	0.038430136
235	0xbe3ed103	-0.18634419
236	0x3c017c4a	0.007903168
237	0xc0f846fb	-7.7586646
238	0x3ce919b3	0.028454637
239	0xbd547a92	-0.051874705
240	0x3db18c34	0.0866932
241	0x3fdcc720	1.7248268
242	0xbd883802	-0.06651308
243	0x3f4353ba	0.7629963
244	0xbdc4b6df	-0.096051924
245	0xbdb3ff1d	-0.08788893
246	0xbfc4fbc3	-1.5389332
247	0x3d1697f4	0.036766008
248	0x3ce5da20	0.028058112
249	0xc0048519	-2.0706236
250	0x3dd75463	0.10514142
251	0xbe0c9760	-0.1372962
252	0xbe18120e	-0.14850637
253	0x3cc588cf	0.024113087
254	0xbc105c6d	-0.0088110985
255	0x3eff66f4	0.49883235

layer_2.bias f4 [64]
0	0xc08fe71c	-4.4969616
1	0x401871cf	2.3819463
2	0x40659d44	3.5877237
3	0x4081a46d	4.0513215
4	0x3ea615ba	0.3243845
5	0x3f1a81cf	0.6035432
6	0xbfce949f	-1.6139106
7	0xc07f343b	-3.987563
8	0xc0191000	-2.3916016
9	0x3fa113dc	1.2584186
10	0xc00bfaa8	-2.1871738
11	0x3ee39d08	0.44455743
12	0xbda7b7ce	-0.08189355
13	0xbf453c95	-0.77045566
14	0xc056e540	-3.3577423
15	0xbe1f634f	-0.15565227
16	0xc01b84fb	-2.4299915
17	0xbf28004d	-0.6562546
18	0x3d8f1bdc	0.06987736
19	0x3f751a7c	0.95743537
20	0x3f170b25	0.5900138
21	0xc0d68d65	-6.70476
22	0xbf9281d5	-1.1445872
23	0x3f49486c	0.7862613
24	0x3f24305c	0.6413629
25	0xbf650fa4	-0.8947699
26	0x3f1f2ee8	0.6218095
27	0x3ed29a74	0.41133463
28	0x3ff1c343	1.8887714
29	0x3f9dcf7c	1.2328944
30	0x3fb36790	1.401598
31	0xbf721c40	-0.94574356
32	0x411a6777	9.65026
33	0x4099cce3	4.8062606
34	0x4020533e	2.5050807
35	0x3f41b4c7	0.7566647
36	0xbf37f4bb	-0.71857804
37	0xc0799e53	-3.9002883
38	0xbfb8e909	-1.4446117
39	0xc09d8795	-4.9228005
40	0xbe55ab18	-0.20866048
41	0x40785f57	3.880819
42	0xc09147d0	-4.540016
43	0xbe993d59	-0.29929617
44	0xbdd19551	-0.10233558
45	0xbf725440	-0.94659805
46	0xbe2633fb	-0.16230766
47	0xbf432877	-0.7623362
48	0x3fa7b689	1.310258
49	0xc007c710	-2.1215248
50	0x409a42c0	4.820648
51	0x4007d887	2.1225908
52	0x4051c3c6	3.277574
53	0xbfac7bda	-1.3475296
54	0x40cd381c	6.4130993
55	0x3f253f11	0.64549357
56	0xbfbeee9a	-1.4916565
57	0xbf9467d9	-1.1594192
58	0xbf00350d	-0.5008095
59	0xbdd51ef2	-0.10406293
60	0xbeaba659	-0.3352535
61	0x41275e55	10.46053
62	0xbe96eefd	-0.2947921
63	0xc06a1d94	-3.6580553

layer_3.weight f4 [32, 64]
0	0x3c838934	0.016056634
1	0xbc7f4cac	-0.015582245
2	0x3e59c6ff	0.21267317
3	0x3e973878	0.2953527
4	0x3b526c31	0.0032107944
5	0x3beba24b	0.0071909777
6	0x3c9ad75b	0.018901518
7	0xbccbff18	-0.024901912
8	0x3d80ed81	0.062953
9	0x3e423321	0.18964817
10	0x3b9966b0	0.0046814308
11	0x3cb4fdeb	0.022093734
12	0x3da393b3	0.07987156
13	0x3cace0f6	0.021103363
14	0xbcaddddb	-0.021223953
15	0xbcfcbb62	-0.03085107
16	0x3d0ac44b	0.033878606
17	0x3c4d41f3	0.012527931
18	0x3dd38678	0.10328382
19	0x3def7f71	0.116942294
20	0x3d44d6b3	0.048056316
21	0xbd067262	-0.032823928
22	0xbc52fc08	-0.012877472
23	0x3db80612	0.08985533
24	0x3cd690f0	0.026192158
25	0x3c703adc	0.014662471
26	0xbc8a0cd1	-0.016851814
27	0x3cc43dc4	0.023955233
28	0xbdcebfde	-0.100951895
29	0xbdba0110	-0.09082234
30	0x3dca2ab0	0.09871423
31	0x3c2f9243	0.010716024
32	0xbc8e83f8	-0.017396912
33	0x3d83c7d7	0.06434601
34	0xbc8b5f51	-0.017013224
35	0x3d03aa2b	0.032144707
36	0x3c6382d7	0.013886175
37	0x3ca8b547	0.020594252
38	0xbd962138	-0.07330555
39	0x3e3a1b58	0.18174493
40	0x3c65ff79	0.01403796
41	0x3dfda0b9	0.12384171
42	0x3e42ba5e	0.19016406
43	0x3da05b34	0.078298956
44	0x3d814b83	0.06313231
45	0x3af929c5	0.0019009641
46	0xbcb1e985	-0.021717796
47	0xbb3cae6b	-0.0028790485
48	0x3a8122f6	0.0009852338
49	0xbe27c0c9	-0.16382135
50	0x3d8ef86a	0.06980975
51	0x3b39e27f	0.0028363762
52	0xbc15e024	-0.009147678
53	0x3c311ea0	0.010810524
54	0xbb25dff1	-0.0025310481
55	0xbcde8d78	-0.027167067
56	0xbd376cbe	-0.04478144
57	0x3c45a936	0.012064269
58	0x3b676eb3	0.0035313785
59	0xbd444f7a	-0.047927357
60	0x3ccf9b0c	0.025342487
61	0x3c398198	0.011322401
62	0xbca16169	-0.01969977
63	0xbd923248	-0.07138497
64	0xbd49be48	-0.049253732
65	0x3d0da645	0.034582395
66	0x3e19bf9b	0.15014498
67	0x3ebdf4ec	0.37100923
68	0x3c87fb05	0.016599188
69	0xbd571fe2	-0.05252064
70	0xbd38193e	-0.044945948
71	0xbe82a73b	-0.25518212
72	0x3de816d3	0.113324784
73	0xbd103ee8	-0.035216242
74	0xbe0af1f9	-0.13568868
75	0xbd9bf871	-0.07615746
76	0x3d85abb6	0.06526892
77	0xbd1a9c5f	-0.037746783
78	0x3e125b20	0.14292574
79	0xbd21dda0	-0.039518
80	0x3d05345b	0.032520633
81	0xbdbc6dbf	-0.0920062
82	0x3e25142f	0.1612098
83	0x3dabfbb9	0.08397622
84	0x3d8e5be0	0.069511175
85	0xbf702184	-0.9380114
86	0xbe2cf7d4	-0.16891414
87	0x3ca098a6	0.019604038
88	0x3e148cc6	0.14506826
89	0xbd1de12f	-0.03854483
90	0xbda6ed43	-0.08150723
91	0xbb98c765	-0.0046624416
92	0x3d3b24e8	0.045689493
93	0xbd992cbc	-0.074792355
94	0x3cd22aa6	0.025655102
95	0xbd288b59	-0.041148517
96	0x3d89418b	0.067019545
97	0x3c7d1b48	0.015448399
98	0xbe513150	-0.20428967
99	0x3e14e7df	0.14541577
100	0xbddc6124	-0.107607156
101	0x3e0f7c20	0.14012194
102	0x3d669aab	0.056299847
103	0x3e4e2511	0.20131327
104	0xbd9e907b	-0.07742401
105	0x3d1c775e	0.038199775
106	0x3e5496d6	0.20760664
107	0x3dcfdb22	0.10149218
108	0x3d5c5f30	0.053801715
109	0xbdbfb6b7	-0.09361022
110	0xbbe51064	-0.0069904793
111	0xbe02cd4a	-0.12773624
112	0x3d714803	0.058906566
113	0xbf1c6a68	-0.61099863
114	0x3d391137	0.045182433
115	0xbd53670b	-0.05161194
116	0x3c0f4ec3	0.008746806
117	0xbdb011f6	-0.08597176
118	0x3d3f790f	0.04674631
119	0xbc8057ad	-0.015666807
120	0x3e1f354d	0.15547676
121	0xba78dab6	-0.00094930397
122	0xbdef1b9f	-0.1167519
123	0x3db9897f	0.090594284
124	0xbca5174a	-0.020152707
125	0x3eb2a061	0.34887984
126	0xbdb7ee08	-0.08980948
127	0xbeb93833	-0.3617569
128	0x3d8d2b57	0.06893032
129	0xbbc2b1ff	-0.005941629
130	0xbd080937	-0.033211913
131	0xbc9ae435	-0.018907646
132	0x3d41bb76	0.047297917
133	0xbd880cca	-0.06643064
134	0xbd9e690c	-0.0773488
135	0x3e1a18df	0.1504855
136	0xbd19a0e8	-0.037506968
137	0xbe330234	-0.17481309
138	0xbd2c9382	-0.042132862
139	0xbd83209b	-0.064027034
140	0xbd33cd34	-0.04389687
141	0xbd8ee048	-0.06976372
142	0x3dac3b36	0.08409731
143	0x3c25d69b	0.010121967
144	0xbefaf70a	-0.490166
145	0xbd1f1e26	-0.03884711
146	0xbecb5ba0	-0.39718342
147	0xbd51f4fa	-0.05125902
148	0xbcdb2b84	-0.026754148
149	0xbdc35498	-0.09537619
150	0xbd07328f	-0.0330072
151	0xbd188b39	-0.037242148
152	0x3d8f214d	0.069887735
153	0xbda1e9d9	-0.07905931
154	0xbc97d838	-0.018535718
155	0xbddd59a6	-0.10808115
156	0xbcbdbeaa	-0.023162205
157	0x3e20c4a5	0.15700014
158	0xbd112462	-0.035435088
159	0xbd780805	-0.060554523
160	0xbd098c9c	-0.03358136
161	0x3d18d8da	0.03731618
162	0xbd27b4ee	-0.040944032
163	0x3da8dcd9	0.08245248
164	0xbdd61c2f	-0.10454594
165	0x3d4631ed	0.048387457
166	0x3e0c7d95	0.1371978
167	0xbd40d974	-0.04708238
168	0xbda9ae7c	-0.082852334
169	0xbd36e532	-0.04465217
170	0xbd5a3189	-0.053269897
171	0xbd57c4ee	-0.05267804
172	0xbe1668f2	-0.14688471
173	0xbd3f4edb	-0.04670606
174	0x3e269b63	0.16270213
175	0xbd20e399	-0.039279554
176	0xbcf93ba3	-0.030423945
177	0xbe8b12df	-0.27162835
178	0x3ce76abb	0.028249135
179	0xbcdaf57a	-0.02672838
180	0xb72da962	-1.0351041e-05
181	0xbdc508cf	-0.09620821
182	0xbce7d3c6	-0.028299224
183	0xbd3225d4	-0.043493107
184	0xbee0faa6	-0.4394123
185	0xbdc48521	-0.09595705
186	0xbdb0db62	-0.08635594
187	0x3dccb99b	0.09996339
188	0xbdb433b3	-0.08798923
189	0x3d97f014	0.07418838
190	0xbf4471b6	-0.7673601
191	0xbc286243	-0.010277334
192	0x3dc2adc3	0.09505799
193	0xbf5b007f	-0.8554763
194	0xbf0592f9	-0.5217739
195	0xbf124ce1	-0.5714856
196	0xc03026b6	-2.7523627
197	0xbea28a72	-0.3174625
198	0x3b6e599b	0.0036369327
199	0xbfa8cff7	-1.3188466
200	0x3e90e095	0.28296342
201	0xbe8487d9	-0.25884894
202	0x3e363c20	0.17796373
203	0xbb18e89e	-0.002333201
204	0x3de59b26	0.11211233
205	0xbf02f3c2	-0.51153195
206	0x3d9c1450	0.07621062
207	0x3cffa014	0.03120426
208	0xbfa548be	-1.2912824
209	0xbeb800ce	-0.35938114
210	0xbe90a349	-0.28249577
211	0xbf4ca035	-0.79931957
212	0x3da8ae6e	0.08236395
213	0xbf7ab8fe	-0.97938526
214	0xbcf18f2f	-0.02948722
215	0xbd8c1b81	-0.068411835
216	0xbda44ab8	-0.08022064
217	0x3df17942	0.11790706
218	0x3e113373	0.14179783
219	0x3dfec19e	0.12439273
220	0xbf09285a	-0.53577197
221	0xbe3a9025	-0.1821905
222	0xbed382a4	-0.41310608
223	0xbec8a725	-0.3919002
224	0xbfff1e93	-1.9931206
225	0xbf0ee44f	-0.5581712
226	0xbf711b2d	-0.9418209
227	0x3dea5921	0.11442781
228	0xbf8e36ef	-1.1110514
229	0xbe17d70f	-0.14828132
230	0xbf7d3fcb	-0.98925465
231	0xbecdf8c9	-0.4022887
232	0xbe13273a	-0.14370432
233	0x3e008bed	0.12553377
234	0xbcb04c39	-0.02152072
235	0x3dd28703	0.10279658
236	0x3d4c8eb3	0.049940776
237	0xbf1345f0	-0.5752859
238	0xbdced283	-0.10098746
239	0x3f610c90	0.87909794
240	0xbd23e2a3	-0.04001106
241	0xbf1a4216	-0.6025709
242	0xbeba842e	-0.3642897
243	0xc01f0a22	-2.4849935
244	0xbf6c2755	-0.92247516
245	0xbf209c58	-0.6273856
246	0xbf508cf1	-0.8146506
247	0xbe57880d	-0.21047993
248	0xbdabbe4d	-0.08385906
249	0xbe879045	-0.26477256
250	0xbf229972	-0.6351539
251	0x3ddf4081	0.10900975
252	0xbe709a5d	-0.23496385
253	0xbe59c436	-0.21266255
254	0xbe17ff1d	-0.14843412
255	0x3d4f7243	0.050646078

layer_3.bias f4 [32]
0	0x3fc6123c	1.5474315
1	0x409502ee	4.6566076
2	0x40dbab30	6.864647
3	0xbf14a717	-0.5806746
4	0xbffed852	-1.9909766
5	0x40cb4750	6.352455
6	0xbf5d9082	-0.86548626
7	0xbfc6ae3d	-1.5521923
8	0xbe824974	-0.25446665
9	0x401e2554	2.4710283
10	0x40730f68	3.7978153
11	0x3e638e17	0.22222172
12	0x40465939	3.0991957
13	0x40947e1d	4.6403947
14	0xbfd85719	-1.690158
15	0xc017736e	-2.3664203
16	0xbf0223c2	-0.5083581
17	0xbeaffaba	-0.34370977
18	0x40b93bf4	5.7885685
19	0x407103b3	3.7658508
20	0x3f91080c	1.1330581
21	0xbeadb989	-0.33930615
22	0xbfed4c3d	-1.8538891
23	0x3fe581ef	1.7930278
24	0xbe29e988	-0.16592991
25	0xbf330c28	-0.69940424
26	0xc09acd6f	-4.8375773
27	0xc0365285	-2.8487866
28	0xbe896d94	-0.26841414
29	0xbef3deae	-0.4763083
30	0x40843c28	4.1323433
31	0x3d0cc811	0.034370486

layer_4.weight f4 [32, 32]
0	0xbcc137d4	-0.023586191
1	0x3d81be90	0.06335175
2	0x3e00e547	0.12587462
3	0xbc747ff4	-0.0149230845
4	0x3df6e2d0	0.1205498
5	0xbdf6ac4b	-0.12044581
6	0x3d08871e	0.033331983
7	0x3def03e9	0.11670668
8	0xbdbc9530	-0.09208143
9	0xbc4e0a1e	-0.012575654
10	0x3bd647f1	0.006539338
11	0x3e71294b	0.23550908
12	0xbf0b5aeb	-0.54435605
13	0xbd886162	-0.06659199
14	0xbf86d3fc	-1.0533442
15	0xbe977387	-0.29580328
16	0x3d1944d1	0.037419144
17	0x3e82e1c7	0.2556288
18	0xbdb0ce98	-0.08633155
19	0xbe8f3566	-0.27970427
20	0xb9ae0966	-0.0003319487
21	0xbf425ec5	-0.75925857
22	0xbe555dfc	-0.20836633
23	0x3d545546	0.051839136
24	0xbec20bbb	-0.37899575
25	0xbcb95368	-0.022622779
26	0xbe684c1e	-0.22685286
27	0x3f1017de	0.5628642
28	0xbd582f1f	-0.052779313
29	0x3c63c781	0.013902546
30	0x3e073c71	0.1320665
31	0x3c9c6147	0.019089354
32	0x3d242d33	0.040082168
33	0xbdede002	-0.11614992
34	0xbd73e930	-0.059548557
35	0x3e017c0a	0.12644973
36	0xbe90882d	-0.28228894
37	0x3e17c8ce	0.14822695
38	0xbdc8732b	-0.097875915
39	0x3d8d266c	0.06892094
40	0xbd681cc6	-0.056668065
41	0xbe7b3cac	-0.24534863
42	0x3e24d273	0.16095905
43	0x3d307e0f	0.04308897
44	0xbbe9b258	-0.007131856
45	0xbcc6b85c	-0.024257831
46	0xbb0064a8	-0.0019591246
47	0x3dc1eaf7	0.09468644
48	0xbcb53e7f	-0.022124527
49	0xbeb6884f	-0.3565087
50	0xbea91a59	-0.33027914
51	0x3b096ac7	0.0020968185
52	0xbf9453ce	-1.1588075
53	0xbef6cb32	-0.482019
54	0x3e406a43	0.18790536
55	0x3d8f12f0	0.06986034
56	0x3d73f7a5	0.059562344
57	0xbe12427e	-0.14283177
58	0xbdd26a2e	-0.102741584
59	0xbcfdc93f	-0.03097975
60	0x3cbe467a	0.023226965
61	0x3d8052e4	0.0626581
62	0xbe7d535c	-0.2473883
63	0x3ecd389a	0.40082246
64	0x3c3b754d	0.011441541
65	0xbe2b1ab6	-0.16709408
66	0x3e411fc6	0.18859777
67	0x3d99eaf2	0.075155154
68	0x3e0367cc	0.12832564
69	0xbd86cbcb	-0.06581839
70	0x3cedf00a	0.029045124
71	0xbdbc5ff6	-0.091979906
72	0xbd8613ba	-0.06546731
73	0xbdf07ba3	-0.11742332
74	0xbcc55869	-0.024090009
75	0xbe18b44a	-0.14912525
76	0x3d90b377	0.0706548
77	0x3d2fb4a5	0.042896885
78	0x3e581dff	0.21105193
79	0xbd8c6c9f	-0.06856655
80	0xbd07bad6	-0.033137165
81	0x3e47bb1d	0.19504972
82	0x3e8fdc00	0.28097534
83	0xbd81faf9	-0.06346697
84	0x3d24d2ec	0.040240213
85	0x3d05efd2	0.032699414
86	0x3ea2ae78	0.31773734
87	0xbcfe5287	-0.031045211
88	0x3d130639	0.035894606
89	0x3d29f6f5	0.041495282
90	0xbd3b2667	-0.04569092
91	0x3e6beb7b	0.23039047
92	0xbe09a605	-0.13442238
93	0x3ebfc8a4	0.37457764
94	0x3d7f868a	0.062384166
95	0x3eb421ae	0.35181946
96	0xbdaa5c6f	-0.083184116
97	0x3b2f8bee	0.0026786285
98	0xbdcb748e	-0.099343404
99	0x3d5c1d85	0.05373909
100	0x3d804a0c	0.06264123
101	0xbe125617	-0.14290653
102	0x3e0e3f77	0.13891397
103	0xbc8725c8	-0.016497508
104	0x3e00beeb	0.1257283
105	0xbf3194d3	-0.6936771
106	0x3d55ba20	0.052179456
107	0xbd9e14af	-0.07718789
108	0xc0fb902f	-7.8613505
109	0xbeba65cf	-0.364058
110	0x3d51cac8	0.051218778
111	0xbfccd173	-1.6001419
112	0xbe2f7968	-0.17136157
113	0x3eaedf81	0.34154895
114	0xbf8d3b3b	-1.1033701
115	0xbea58968	-0.32331395
116	0xbe23c612	-0.15993527
117	0xc03fdfa5	-2.9980252
118	0x3d2403e2	0.040042765
119	0x3dee40d7	0.11633461
120	0x3e27ee96	0.16399607
121	0xbe996e58	-0.29966998
122	0x3cdc0d30	0.026861757
123	0x3d7b6985	0.06137993
124	0xbe5ece0e	-0.21758291
125	0x3d204c97	0.03913554
126	0x3c465f02	0.012107613
127	0xbd90b430	-0.07065618
128	0x3d3cf82b	0.04613511
129	0x3d12a011	0.035797182
130	0xbc152a2f	-0.009104296
131	0x3d95590a	0.072923735
132	0xbd89e4d1	-0.067330964
133	0xbe699596	-0.22810969
134	0x3daef350	0.08542502
135	0xbd25d4d6	-0.04048618
136	0xbe2b1c39	-0.16709985
137	0xbf374c49	-0.71600777
138	0xbd936047	-0.07196098
139	0x3c6d0b84	0.014468078
140	0xbff9835b	-1.9493212
141	0xbc99411d	-0.018707806
142	0x3e03fe73	0.12890033
143	0xbe576061	-0.2103286
144	0x3bc3aea2	0.0059717456
145	0xbf912886	-1.1340492
146	0xbe6f20ae	-0.2335231
147	0xbf544304	-0.8291476
148	0xc08b3cf2	-4.3511896
149	0x3cca9997	0.02473144
150	0x3c05f35d	0.008175698
151	0xbc01ec7e	-0.007929919
152	0xbe085bb3	-0.1331623
153	0xbcd0056c	-0.02539321
154	0xbd7c84d6	-0.06165012
155	0xbe2404d0	-0.16017461
156	0xbe112412	-0.14173916
157	0xbceaa441	-0.028642775
158	0xbe3eb35e	-0.1862311
159	0xbd4f1884	-0.05056049
160	0xbeb5a5b3	-0.3547798
161	0xbdfaba8c	-0.12242612
162	0xbd909cff	-0.07061195
163	0x3dc175a7	0.094462685
164	0x3e7672a0	0.24067163
165	0x3cccc25c	0.024995022
166	0x3e5f4f2d	0.21807547
167	0xbed0201d	-0.406495
168	0x3dcbf5ab	0.09958967
169	0xbde2a0f7	-0.11065858
170	0xbe23305e	-0.1593642
171	0xbe9016ec	-0.28142488
172	0xbd611eb9	-0.05496094
173	0xbe65ca37	-0.2244042
174	0xbea98e40	-0.3311634
175	0xbe409457	-0.18806587
176	0x3ec2a615	0.38017336
177	0x3d33cfd3	0.04389937
178	0x3daad27c	0.08340928
179	0x3e08adde	0.13347575
180	0x3d2cbda6	0.04217305
181	0x3dacae72	0.0843171
182	0x3d3f366d	0.046682764
183	0x3dbbfecc	0.09179458
184	0xbc9cc839	-0.019138442
185	0xbdd9a35d	-0.10626862
186	0xbdb29f87	-0.08721834
187	0x3db0d925	0.08635167
188	0xbe0fbd19	-0.14036979
189	0xbccb2912	-0.024799857
190	0x3b9db61e	0.00481297
191	0x3d45d83c	0.04830192
192	0xbf3c47c2	-0.73546994
193	0xbe18a011	-0.1490481
194	0xbd9051cc	-0.070468515
195	0x3e1c8e12	0.1528857
196	0xbdf0e4f3	-0.117624186
197	0xbec70c9e	-0.38876814
198	0xbf71099f	-0.94155306
199	0x3e22440b	0.15846269
200	0xbe1cccf2	-0.15312555
201	0xbe360fe8	-0.17779505
202	0xbeb884f4	-0.36038935
203	0x3ea14410	0.3149724
204	0xbc032c28	-0.008006133
205	0x3eb24ea6	0.3482563
206	0x3eed0427	0.4629223
207	0x3daab132	0.083345786
208	0x3e54be38	0.20775688
209	0xbea32cb6	-0.3187005
210	0x3e2cf714	0.16891128
211	0xbe2df9bc	-0.16989797
212	0xc052d24a	-3.294085
213	0x3ed58cba	0.41708928
214	0xbe46583f	-0.193696
215	0xbd93d445	-0.072182216
216	0xbf578056	-0.841802
217	0x3ddde340	0.1083436
218	0xbf2e1fb9	-0.68017155
219	0xbe8fd661	-0.28093246
220	0xbd9a8c38	-0.07546276
221	0x3e16c609	0.14723982
222	0x3e9598e7	0.29218218
223	0x3db5d142	0.088778034
224	0x3e5bf26c	0.21479195
225	0xbe932db0	-0.28745794
226	0xbf09fa7b	-0.5389783
227	0xbe5ee202	-0.21765903
228	0xbebfa59f	-0.37431046
229	0xbf8d5ffc	-1.1044917
230	0xbb0ad637	-0.002118481
231	0x3b35b39d	0.0027725466
232	0xbe07a9c1	-0.1324835
233	0xbe98ea1c	-0.2986611
234	0xbcc8d3dd	-0.024515087
235	0x3da64ff2	0.08120717
236	0xbe461c8c	-0.19346827
237	0xbfd5f360	-1.6714897
238	0x3c47e36a	0.012200216
239	0xbee6dfa7	-0.45092508
240	0x3ca31eaf	0.019912092
241	0xbeff7874	-0.49896586
242	0xbf33b30a	-0.70195067
243	0xbf972608	-1.1808481
244	0xbf153257	-0.5827994
245	0xbf329275	-0.69754726
246	0x3c8598fa	0.016308296
247	0x3d927481	0.071511276
248	0x3e342498	0.17592084
249	0x3d24a6dd	0.040198196
250	0xbd2760ed	-0.04086392
251	0x3dbd98da	0.0925767
252	0x3e1c4836	0.15261921
253	0xbeb03675	-0.34416547
254	0xbe880592	-0.2656675
255	0xbc2618c6	-0.010137742

layer_4.bias f4 [32]
0	0x3fe1454e	1.7599275
1	0x401de379	2.4670088
2	0x401c56dc	2.4428015
3	0x400c79c8	2.194933
4	0x40518f37	3.2743661
5	0x400d9292	2.212071
6	0xbe987f74	-0.2978474
7	0xc099efa0	-4.810501
8	0x3f0a34f4	0.5398705
9	0xc01da57d	-2.4632256
10	0xbe7cd2e2	-0.2468982
11	0x3fdcc760	1.7248344
12	0x3ffe77bf	1.9880294
13	0x3fc3008d	1.5234543
14	0xc06a7c0b	-3.663821
15	0x4044882c	3.0708113
16	0x404e8615	3.2269337
17	0x4048641d	3.1311104
18	0xbffeece2	-1.9916041
19	0xc05a9807	-3.415529
20	0xc0036682	-2.0531316
21	0x3f0b6799	0.5445495
22	0x3f6741ec	0.90334964
23	0xbff91cd2	-1.946192
24	0x404d07fb	3.203612
25	0xc03adf60	-2.9198837
26	0xc012d68f	-2.2943456
27	0x403b174f	2.9232976
28	0x40075796	2.1147208
29	0x3ffc1ae4	1.9695706
30	0xc032068f	-2.7816503
31	0x3fc57807	1.5427254

layer_5.weight f4 [16, 32]
0	0xbc8710d8	-0.016487524
1	0x3db82099	0.089905925
2	0x3e8a957a	0.27067167
3	0xbdfd3552	-0.12363686
4	0x3ec4c65c	0.38432586
5	0xbe2974f3	-0.16548519
6	0xbdb260a6	-0.087098405
7	0xbdb4fede	-0.088376746
8	0xbe9d763f	-0.30754277
9	0xbd38c0a4	-0.04510559
10	0x3e62158b	0.2207853
11	0x3d43c7e4	0.047798052
12	0x3dbf4a1f	0.09340309
13	0xbe09b57f	-0.13448142
14	0xbe8ea7ea	-0.27862483
15	0x3bc1d12f	0.005914829
16	0x3ed3bacb	0.4135345
17	0x3e1c0974	0.15237981
18	0xbf18bc5b	-0.5966241
19	0xbdaef1a3	-0.08542182
20	0xbd294392	-0.041324206
21	0xbed69749	-0.41912296
22	0x3d2b9670	0.041891515
23	0xbdeb0940	-0.11476374
24	0x3d9e0f94	0.07717815
25	0xbd32816f	-0.04358047
26	0x3eddd089	0.43323162
27	0x3e237d7a	0.15965834
28	0xbd22aaa1	-0.039713506
29	0x3ce3eac2	0.027821902
30	0xbeb3adfe	-0.35093683
31	0xbe4b2c8b	-0.1984121
32	0x3f316147	0.6928906
33	0xbcbee561	-0.023302736
34	0x3e02dfdc	0.12780708
35	0x3f950339	1.1641608
36	0xbed48585	-0.41508117
37	0xbe3288d2	-0.17435005
38	0x3e484b94	0.19560081
39	0xbf348004	-0.70507836
40	0xbf1d9d6b	-0.61568326
41	0xbeed4d96	-0.46348256
42	0xbf61d8a6	-0.88221204
43	0x3e533639	0.20626153
44	0xbcde3d95	-0.027128974
45	0x3e265a60	0.16245413
46	0xbdf9c857	-0.12196415
47	0x3e4d5675	0.20052512
48	0xbd71c3b6	-0.059024535
49	0xbf26fbea	-0.6522814
50	0x3ea226fd	0.3167037
51	0x3da8b3f2	0.08237447
52	0xbdb5cb87	-0.088767104
53	0xbe95997e	-0.29218668
54	0xc02028e2	-2.5024953
55	0x3d5e0253	0.054201435
56	0xbfab9fd2	-1.3408148
57	0xbe8d7d65	-0.2763473
58	0xbe15944a	-0.14607349
59	0xc1386422	-11.5244465
60	0x3aac4a5c	0.0013144719
61	0xbe4756c4	-0.19466692
62	0x3efded2d	0.49595013
63	0x3f2b8cab	0.6701152
64	0x3e08c09a	0.13354722
65	0x3d190818	0.037361234
66	0x3e05a56d	0.13051386
67	0xbf84ffdc	-1.0390582
68	0x3f2b087a	0.6680981
69	0xc089fdf9	-4.3122525
70	0xbf098350	-0.5371599
71	0xbeb19321	-0.34682563
72	0xc0a8f006	-5.2792997
73	0xbf278083	-0.6543047
74	0xbe9a0cd1	-0.30087903
75	0xbda661bd	-0.08124111
76	0x3e6d17bd	0.23153587
77	0xc0178369	-2.3673956
78	0xbe225922	-0.15854314
79	0x3ec725c4	0.38896
80	0x3f0fb332	0.56132805
81	0xbfa5fe14	-1.2968163
82	0xbf070a22	-0.52749836
83	0xbe3c91a9	-0.1841494
84	0xbf1647e8	-0.5870347
85	0xc0838752	-4.1102686
86	0xbc16d828	-0.009206809
87	0x3d8b1845	0.067917384
88	0xc08b9430	-4.3618393
89	0xbfca8325	-1.5821272
90	0xbe44971b	-0.19198267
91	0xbfb5e96a	-1.4211857
92	0xbd5fa0f0	-0.05459684
93	0x3e8219ac	0.2541021
94	0xbebefd68	-0.3730271
95	0xc0a47869	-5.1396985
96	0xbdc04590	-0.09388268
97	0xbe2d548e	-0.16926786
98	0xbe66af2e	-0.22527763
99	0x3ccf2991	0.025288375
100	0x3e090298	0.13379896
101	0xbe417795	-0.18893273
102	0xbe21ef83	-0.15814023
103	0x3dfd1a5b	0.123585425
104	0xbeb07522	-0.34464365
105	0xbd060578	-0.03272006
106	0xbe436037	-0.19079672
107	0xbdee4d5a	-0.116358474
108	0xbe43e756	-0.19131216
109	0xbd38d6f6	-0.045126878
110	0xbe6d2106	-0.23157129
111	0xbe8c358e	-0.2738461
112	0xbdb67add	-0.08910153
113	0xbbd5ecc7	-0.00652847
114	0xbe2ebb5f	-0.17063664
115	0xbe02d89d	-0.12777944
116	0xbbfeda04	-0.0077774543
117	0xbdbb7535	-0.09153215
118	0x3d2a0e69	0.04151765
119	0xbe8e1401	-0.27749637
120	0xbdc961db	-0.098331176
121	0x3df455cb	0.11930426
122	0x3cab375c	0.02090042
123	0xbe000b75	-0.1250437
124	0xbe4353ee	-0.19074985
125	0xbb4bf6bf	-0.0031122414
126	0xbd80d945	-0.06291441
127	0xbe8edd34	-0.2790314
128	0xbca88ca1	-0.02057487
129	0x3f4be316	0.7964338
130	0x3e586ce8	0.21135294
131	0x3e4af108	0.19818509
132	0x3f362e8a	0.7116476
133	0xbe1f6ab8	-0.15568054
134	0xbf55bfc5	-0.8349574
135	0x3e01fd74	0.12694341
136	0x3eaa323c	0.3324145
137	0xbee0eb42	-0.43929487
138	0x3e22f027	0.15911923
139	0x3d7a7e5f	0.061155673
140	0xbe684ddf	-0.22685955
141	0xbfb2ad56	-1.3959148
142	0xbecaaa9e	-0.39583296
143	0xbf61ffdd	-0.8828104
144	0x3e60f114	0.21966964
145	0xbf6e13f5	-0.929992
146	0x3eae3144	0.34021962
147	0xbe005b2c	-0.1253478
148	0xbeacdca2	-0.3376208
149	0x3ec48b3a	0.3838747
150	0xbe0d4b20	-0.13798189
151	0xbdcd1c70	-0.1001519
152	0xbfe8459b	-1.8146242
153	0xbfce9ba7	-1.6141251
154	0xbe987909	-0.29779842
155	0xc043db4a	-3.0602593
156	0xbd1b014f	-0.037843045
157	0xbe863b61	-0.26217178
158	0xbeaf8882	-0.34283835
159	0x3e176bd0	0.14787221
160	0x3ef575af	0.47941348
161	0x3e2be901	0.16788103
162	0xbf094bc2	-0.5363122
163	0xbf2d2a67	-0.67642826
164	0xc020890c	-2.5083647
165	0x3e0ca815	0.13735993
166	0x3ea4959e	0.321454
167	0x3db59b8a	0.08867557
168	0xbdfc1215	-0.123081364
169	0x3f2764c8	0.65388155
170	0x3dfac77b	0.12245079
171	0xbd3a5f06	-0.045500778
172	0xbec6f633	-0.3885971
173	0xbd10efef	-0.03538507
174	0x3eac3a39	0.3363817
175	0x3e4fd63c	0.20296568
176	0xbfd7cbe1	-1.6859094
177	0x3e8f554f	0.27994773
178	0xbe204f75	-0.1565531
179	0xbce59b23	-0.028028077
180	0xbf419b0f	-0.75627226
181	0xbcc6c20e	-0.024262454
182	0xbfb5a39f	-1.4190558
183	0xbf0d4643	-0.55185336
184	0xbdde87b9	-0.10865731
185	0xc00375c2	-2.0540624
186	0x3f4f1bff	0.80902094
187	0xbe2197ed	-0.15780611
188	0x3de97cb0	0.114007354
189	0x3eb9217a	0.36158353
190	0x3f5322ec	0.8247516
191	0x3d9897d5	0.07450835
192	0xbdd95113	-0.10611167
193	0x3c2cc68e	0.010545386
194	0xbc9b7b64	-0.018979736
195	0x3b0f7be0	0.0021893904
196	0x3eae54d6	0.340491
197	0x3e3fe104	0.1873818
198	0xbe0220fa	-0.12707892
199	0xbe9d639a	-0.30740052
200	0xbe9bb5c5	-0.30412117
201	0xbd04c792	-0.032416888
202	0xbe000d87	-0.1250516
203	0xbee90c6f	-0.455173
204	0xbd82b5c8	-0.06382328
205	0xbe238615	-0.15969117
206	0xbe16a7a9	-0.14712395
207	0x3c9794c0	0.018503547
208	0x3e6f5772	0.23373201
209	0x3e82d4c3	0.2555295
210	0x3c82ed6e	0.015982356
211	0xbde0a211	-0.10968412
212	0x3e1745c8	0.14772713
213	0x3d5abf28	0.053404957
214	0x3df658f2	0.12028684
215	0x3d97dd72	0.07415284
216	0xbd3bbb06	-0.045832656
217	0xbe5b43f6	-0.21412644
218	0xbc1be2d6	-0.009514531
219	0xbd341435	-0.043964583
220	0x3d46b46f	0.04851192
221	0xbc00f866	-0.007871723
222	0xbea3e5bb	-0.32011208
223	0xbe6f0ba4	-0.23344284
224	0x3a8382d0	0.0010033492
225	0x3e022125	0.12707956
226	0x3d1843d4	0.03717406
227	0x3dbb6a1c	0.09151098
228	0x3edb9316	0.42885655
229	0x3c4752ef	0.012165769
230	0x3e173006	0.14764413
231	0xbe6f3c73	-0.23362903
232	0x3ef1d1ad	0.47230282
233	0xbdeb5935	-0.11491624
234	0x3e0af774	0.13570958
235	0xb9db1c2f	-0.00041791933
236	0x3c13d4a7	0.009022868
237	0xbdfe056c	-0.12403378
238	0xbe4c9e78	-0.19982326
239	0x3e1ca768	0.15298235
240	0x3eb76056	0.35815686
241	0x3e6273c6	0.22114477
242	0xbed0156d	-0.40641347
243	0xbd84bc58	-0.06481236
244	0xbd226aca	-0.039652623
245	0xbe330dee	-0.17485783
246	0x3d3df892	0.046379633
247	0xbdfa284c	-0.12214717
248	0x3de13456	0.109963104
249	0xbe47ef57	-0.19524895
250	0x3daebf1f	0.08532547
251	0x3c683093	0.014171737
252	0x3cb0ca41	0.021580817
253	0x3dd53ecd	0.10412369
254	0xbe90a676	-0.28252
255	0x3cea28ca	0.028583903

layer_5.bias f4 [16]
0	0x402902d9	2.6407988
1	0x401d3702	2.4564824
2	0x402d3257	2.7061975
3	0xbe988b4b	-0.29793772
4	0x4007dae3	2.1227348
5	0x3f025846	0.50915945
6	0x40229d5d	2.5408547
7	0x40155209	2.333132
8	0xbea1f448	-0.31631684
9	0x40349bb0	2.8220024
10	0x402f1f77	2.7362955
11	0x4025e956	2.5923667
12	0xbef944af	-0.48685214
13	0x400ea043	2.2285316
14	0x40094292	2.1446881
15	0x40278d5f	2.6180036

layer_est.weight f4 [24, 16]
0	0xbc610240	-0.013733447
1	0xbe7d3192	-0.24725941
2	0xbe7f1d86	-0.24913606
3	0x3e455a08	0.19272625
4	0x3e0efc7c	0.13963503
5	0x3ccd7e10	0.025084525
6	0xbc6b08a0	-0.014345318
7	0x3d80b8f0	0.06285274
8	0x3d078ff8	0.033096284
9	0x3e518ffa	0.20465079
10	0x3dd9ce24	0.10635021
11	0x3e27ac52	0.16374329
12	0x3e5fb7ac	0.21847409
13	0x3e420c76	0.18950066
14	0x3e3b4e60	0.18291616
15	0xbe4c957e	-0.19978902
16	0xbe14bb44	-0.14524561
17	0xbe655d78	-0.22398937
18	0xbe41ac28	-0.18913329
19	0xbe3386da	-0.1753191
20	0x3e26a4fe	0.16273877
21	0x3c6613c0	0.014042795
22	0x3da07adc	0.078359336
23	0xbdf85b48	-0.121267855
24	0xbe5c66fc	-0.2152366
25	0x3beab400	0.007162571
26	0xbca00e90	-0.019538194
27	0xbd8bad38	-0.06820148
28	0xbe2a83cc	-0.16651839
29	0x3dbf793c	0.093492955
30	0xbe6e7042	-0.2328501
31	0xbe1d9588	-0.15389073
32	0x3e787166	0.24262008
33	0x3e6472b2	0.22309378
34	0xbe3b845a	-0.18312207
35	0x3e460abc	0.19340032
36	0x3db5eb30	0.08882749
37	0xbe541332	-0.20710447
38	0x3e6ca5f6	0.23110184
39	0xbe173f96	-0.1477035
40	0xbe031916	-0.12802538
41	0x3e0f8350	0.14014935
42	0xbd797740	-0.06090474
43	0x3e147334	0.14497072
44	0xbd2df548	-0.042470247
45	0xbe5cb32e	-0.21552727
46	0x3e5089a2	0.20365003
47	0x3d68b958	0.056817383
48	0x3e5412e8	0.20710337
49	0x3d82055c	0.063486785
50	0xbda8a704	-0.08234981
51	0xbdcdeba4	-0.100547105
52	0x3dc8cabc	0.098042935
53	0x3e6329f2	0.2218397
54	0xbe4e5e86	-0.20153245
55	0xbdc66ce8	-0.09688741
56	0xbd20ff18	-0.039305776
57	0x3d428be0	0.047496676
58	0x3d82a0ac	0.06378302
59	0x3e3e484a	0.18582264
60	0x3e52c842	0.20584205
61	0x3e00f66a	0.12594
62	0xbe035d22	-0.12828496
63	0x3e2d9c38	0.16954124
64	0x3e6a53de	0.22883555
65	0xbdd2c238	-0.102909505
66	0x3e2eae68	0.17058718
67	0xbcf39730	-0.029735178
68	0xbdfacd4c	-0.122461885
69	0xbdb24e48	-0.08706337
70	0x3e506a2e	0.20353004
71	0xbd7cadc0	-0.06168914
72	0x3dbaa998	0.09114379
73	0xbdd685c8	-0.104747355
74	0x3e65bbc0	0.22434902
75	0xbe701e2e	-0.23449013
76	0xbc9ff670	-0.01952669
77	0xbd9066f4	-0.07050887
78	0x3deb301c	0.114837855
79	0x3e54513e	0.20734116
80	0xbe65fc22	-0.22459462
81	0x3e469454	0.1939252
82	0xbe6abb06	-0.22922906
83	0x3c836010	0.016037017
84	0x3d37fd00	0.044919014
85	0xbe7d1ed4	-0.24718791
86	0xbe39c680	-0.18142128
87	0xbdde6fe8	-0.10861188
88	0x3e0249f6	0.12723526
89	0xbde30e1c	-0.110866755
90	0x3dd4d0b0	0.103913665
91	0xbde2c594	-0.11072841
92	0x3d9a2900	0.075273514
93	0x3e0e27b2	0.1388233
94	0x3dc12c14	0.09432235
95	0x3e2162de	0.15760371
96	0x3e4f45e4	0.20241505
97	0xbda067d0	-0.07832301
98	0xbc1f56a0	-0.009725243
99	0x3d346888	0.044045
100	0x3d2bf580	0.041982174
101	0x3d320890	0.043465197
102	0x3c397340	0.011318982
103	0xbe12160e	-0.14266226
104	0xbe75e574	-0.2401331
105	0x3d4725d8	0.048620075
106	0xbe65c600	-0.22438812
107	0xbe076118	-0.13220632
108	0xbe319a8c	-0.17344111
109	0x3dee5e44	0.116390735
110	0x3dad8154	0.08471933
111	0x3e52feee	0.2060506
112	0xbe6d4960	-0.23172522
113	0x3d4043f8	0.04693982
114	0xbe64f95e	-0.22360751
115	0xbe0b0378	-0.13575542
116	0xbe248e58	-0.16069925
117	0xbe478b48	-0.19486725
118	0x3e5a2d4a	0.21306339
119	0xbe491552	-0.1963704
120	0xbe517b60	-0.2045722
121	0xbe3969a0	-0.18106699
122	0x3da93314	0.082616955
123	0x3df23e20	0.11828256
124	0x3e05908e	0.13043424
125	0xbe41d2e4	-0.18928105
126	0xbe147120	-0.14496279
127	0x3d18fe20	0.037351727
128	0xbe2da4a4	-0.16957337
129	0x3e6499e8	0.22324336
130	0xbe5a2102	-0.21301654
131	0xbe15ee50	-0.1464169
132	0xbc080740	-0.00830251
133	0x3e229a52	0.15879181
134	0x3da3d458	0.07999486
135	0x3d800d5c	0.06252548
136	0xbdfcc864	-0.12342909
137	0x3e2ba444	0.16761881
138	0x3e739b78	0.23789775
139	0x3e6e2f84	0.23260313
140	0xbe58720a	-0.21137252
141	0x3d92c5b0	0.07166612
142	0x3e31966a	0.17342535
143	0xbe4d8cd8	-0.20073259
144	0x3e6e2d08	0.23259366
145	0x3e2c6bec	0.16838044
146	0xbe7c873e	-0.24660966
147	0x3de4e4cc	0.11176452
148	0x3e22e538	0.15907753
149	0xb9f6c400	-0.00047066808
150	0xbd5f6d58	-0.054547638
151	0x3d957cb8	0.07299179
152	0xbe486ce4	-0.19572788
153	0xbd65fbc8	-0.05614832
154	0xbb0eea00	-0.0021806955
155	0xbe3fa848	-0.18716538
156	0x3df60ba0	0.12013936
157	0xbc8336d0	-0.016017348
158	0xbe085908	-0.13315213
159	0x3e52d2f6	0.20588288
160	0xbd377fb0	-0.044799507
161	0xbe5cb13a	-0.21551982
162	0xbe31430c	-0.17310733
163	0x3dc1b6b8	0.09458679
164	0xbe0969ca	-0.13419262
165	0xbd9c9ec4	-0.0764747
166	0x3e6de3e0	0.23231459
167	0xbdf4a7ec	-0.11946091
168	0xbe29d7d4	-0.16586238
169	0x3e6deb46	0.23234281
170	0x3cdf8750	0.027286202
171	0xbe685878	-0.22689998
172	0x3d5cf1a8	0.0539414
173	0x3e0c61be	0.1370916
174	0xbd69af00	-0.05705166
175	0xbdeff878	-0.117173135
176	0xbe3631ec	-0.17792481
177	0xbd731938	-0.059350222
178	0xbe00f3fc	-0.12593073
179	0xbd8a9fa8	-0.06768733
180	0xbdb81728	-0.08988792
181	0x3e4657cc	0.1936943
182	0xbe35388e	-0.17697355
183	0x3e57fb12	0.2109187
184	0xbe51d15a	-0.20490018
185	0x3e24f238	0.16108024
186	0x3e36be9a	0.17846146
187	0x3cfe6a50	0.031056553
188	0xbd8f5858	-0.06999272
189	0x3e237230	0.15961528
190	0x3d9d4250	0.07678664
191	0x3de86838	0.11348003
192	0x3e14ae1a	0.1451954
193	0xbe38c8c8	-0.18045342
194	0x3e27a0ba	0.16369906
195	0x3e70f870	0.23532271
196	0x3d967ad8	0.07347649
197	0xbe6aef2c	-0.229428
198	0x3dfab338	0.122412145
199	0xbdbbc154	-0.09167734
200	0x3e044f54	0.12920886
201	0x3c9892a0	0.018624604
202	0xbe47a15a	-0.19495144
203	0x3d58c698	0.05292377
204	0xbe6cd33e	-0.23127457
205	0x3e2f0df8	0.17095172
206	0x3e4f1faa	0.20226923
207	0xbe0aa660	-0.1354003
208	0xbd9e6ec0	-0.07735968
209	0x3e16d69a	0.14730301
210	0x3e5b4cd6	0.2141603
211	0xbe10e108	-0.14148343
212	0xbd5cef00	-0.053938866
213	0xbc5813a0	-0.013188273
214	0xbdd30c04	-0.10305026
215	0x3e4f1788	0.2022382
216	0x3d545360	0.051837325
217	0x3bb74c80	0.0055938363
218	0x3e6d11fc	0.23151392
219	0xbd81c590	-0.0633651
220	0xbe3fb5d8	-0.18721712
221	0xbe3ef5ac	-0.18648404
222	0xbe3f122c	-0.18659276
223	0x3e443c30	0.19163585
224	0xbe0cca86	-0.13749132
225	0x3e35d4a4	0.17756897
226	0x3e678f2a	0.22613207
227	0xbdb35718	-0.08756846
228	0xbd8e2964	-0.069414884
229	0xbcef79a0	-0.0292328
230	0xbdc754e8	-0.097329915
231	0x3e0a7e2c	0.13524693
232	0xbe4212de	-0.1895251
233	0x3dc22490	0.0947963
234	0xbe374742	-0.17898276
235	0xbce80b50	-0.028325707
236	0xbe3ca38c	-0.18421763
237	0x3d8c4de4	0.06850794
238	0x3d6a3148	0.057175905
239	0x3d873e84	0.06603721
240	0x3e3ede20	0.18639421
241	0xbe4a8834	-0.1977852
242	0xbdb9e71c	-0.09077284
243	0xbdb155cc	-0.086589426
244	0xbe34a140	-0.17639637
245	0x3e74127a	0.23835173
246	0xbcb99c20	-0.022657454
247	0x3e33dfca	0.17565838
248	0xbe6b31a6	-0.22968158
249	0xbe2877d0	-0.16451955
250	0x3d26c148	0.04071167
251	0x3e1f168a	0.15535942
252	0x3d83c2e8	0.0643366
253	0xbe6fbac8	-0.23411095
254	0x3e312a18	0.17301214
255	0xbd102910	-0.03519541

layer_est.bias f4 [24]
0	0x3e06718c	0.13129252
1	0x3e126eea	0.14300123
2	0x3dda7530	0.10666883
3	0xbce03360	-0.027368248
4	0xbd96e860	-0.07368541
5	0x3d48f740	0.04906392
6	0x3e6e5694	0.23275214
7	0x3d72d408	0.05928424
8	0x3e1dfd52	0.15428665
9	0x3bc24880	0.005929053
10	0xbda58ae0	-0.08083129
11	0xbdf59320	-0.119909525
12	0x3e766f70	0.24065948
13	0xbc0d7100	-0.008632898
14	0xbe57af58	-0.21062982
15	0x3e5e0a10	0.21683526
16	0xbe3d51f4	-0.18488294
17	0xbe20160c	-0.1563341
18	0xbd2b37c0	-0.041801214
19	0xbbf80780	-0.0075692534
20	0xbcb2d790	-0.021831304
21	0xbe0e7038	-0.13909996
22	0xbdca7c7c	-0.09887025
23	0x3d8a09d0	0.06740153

layer_inf.weight f4 [1, 16]
0	0x3e95cd90	0.29258394
1	0xbe880dea	-0.26573116
2	0xbf874d4c	-1.0570464
3	0xbcd37341	-0.025811793
4	0xbe95a61e	-0.292283
5	0x3e763c5d	0.24046464
6	0x3e23657e	0.15956685
7	0x3e6d8ec3	0.2319899
8	0xbc943d91	-0.018095763
9	0x3ed537af	0.41644046
10	0x3ee98ef0	0.45616865
11	0x3e624fc9	0.22100748
12	0x3c565fb6	0.013084343
13	0x3e23002f	0.15918039
14	0xbde20c13	-0.11037459
15	0x3e6b2993	0.22965078
