saved_models/qpsk_HeuristicNet_nt16.pkl (torch_old, 626076 bytes, 13 tensors)

layer_1.weight f4 [128, 1120]
0	0x3d50f982	0.0510192
1	0xbae26cb9	-0.0017274834
2	0xbd935413	-0.0719377
3	0xbbee37d3	-0.0072698384
4	0x3cbe437b	0.023225537
5	0x3cfdaae9	0.030965285
6	0xbd9e1d3d	-0.077204205
7	0x3a88deb3	0.0010442346
8	0xbd3a7988	-0.045526057
9	0x3c515f88	0.012779124
10	0x3d278825	0.040901322
11	0x3ccbd15f	0.02488011
12	0xbd3668e1	-0.044533614
13	0xbd541666	-0.051779173
14	0xbd9ecbe5	-0.077537335
15	0x3cac466b	0.021029672
16	0xbc40dff5	-0.0117721455
17	0x3bc5c8a0	0.0060358793
18	0x3d2d17aa	0.042258896
19	0xbddcd2b8	-0.10782379
20	0x3cb2fc0a	0.021848697
21	0xbe33a5f8	-0.17543781
22	0xbddea07d	-0.108704545
23	0x3df108b7	0.1176924
24	0x3c697fbc	0.014251646
25	0xbdd4db13	-0.103933476
26	0xbd9b38ff	-0.075792305
27	0xbd70f967	-0.0588316
28	0x3e16f883	0.14743237
29	0xbe84b71d	-0.25920954
30	0x3dda2d18	0.10653132
31	0x3deb7377	0.114966325
32	0xbe457c7a	-0.19285765
33	0x3ee759ff	0.4518585
34	0x3f038fac	0.513911
35	0x3ea34c25	0.3189403
36	0xbe374d49	-0.17900576
37	0x3dedb60f	0.116069905
38	0x3d958597	0.07300871
39	0x3eaa421a	0.33253556
40	0xbe7af6c7	-0.245082
41	0x3dd3eab7	0.10347503
42	0x3d7bb713	0.06145389
43	0x3db5d8ef	0.088792674
44	0x3d8f86a1	0.070081
45	0x3dbd69b9	0.092486806
46	0x3ee49c1b	0.4465035
47	0xbdafff6e	-0.08593641
48	0xbbd4a608	-0.006489519
49	0xbd791f2e	-0.06082075
50	0xbd8fe7de	-0.07026647
51	0xbe98e978	-0.29865623
52	0xbd92640a	-0.07147987
53	0xbddeeb93	-0.10884776
54	0xbe2ddbba	-0.1697835
55	0x3df4212f	0.11920392
56	0x3e9694c4	0.29410374
57	0xbe0c7b8b	-0.13719003
58	0x3eb3c86a	0.3511384
59	0x3ea4819a	0.32130128
60	0xbe444c46	-0.19169721
61	0xbdfd7528	-0.123758614
62	0x3f03515f	0.5129604
63	0x3d113864	0.03545417
64	0x3cf002d7	0.02929823
65	0xbda7a827	-0.081863694
66	0xbd8bf57f	-0.06833934
67	0xbe809311	-0.25112203
68	0xbe6af7d0	-0.22946095
69	0xbded19c8	-0.11577183
70	0x3e5a1bad	0.2129962
71	0xbe49fa67	-0.19724427
72	0xbb0c8701	-0.0021442773
73	0xbe329b2a	-0.17442003
74	0x3c8264b6	0.015917163
75	0xbdf17b2e	-0.11791073
76	0x3e063d98	0.13109434
77	0xbe23d2b3	-0.15998344
78	0x3eac8371	0.33694032
79	0x3d4d0e7d	0.050062645
80	0xbdc4947d	-0.095986344
81	0xbe83c959	-0.25739554
82	0xbde959d2	-0.11394085
83	0x3d6f2fd1	0.05839521
84	0xbeb702b8	-0.35744262
85	0x3e81fcda	0.25388223
86	0xbe3c1049	-0.18365587
87	0xbe6525b2	-0.22377661
88	0x3e4bc4e4	0.19899327
89	0x3e5c318c	0.21503276
90	0x3e3c8af2	0.18412378
91	0xbe2e59c3	-0.17026429
92	0x3e127d6a	0.14305654
93	0x3b990b68	0.004670549
94	0x3e45a921	0.19302799
95	0x3e327945	0.17429073
96	0x3c9750a3	0.018471068
97	0xbca1c2e2	-0.019746248
98	0x3da52f43	0.08065655
99	0x3ca46402	0.020067219
100	0x3dac2eab	0.08407339
101	0x3e0552cf	0.1301987
102	0x3e08436c	0.1330697
103	0xbf26dae7	-0.6517777
104	0xbd7ca3c6	-0.061679624
105	0xbe659d4f	-0.2242329
106	0xbebeafc5	-0.37243477
107	0xbf00640a	-0.5015265
108	0xbd931a72	-0.071827784
109	0x3de9e526	0.1142066
110	0xbe0eb1b1	-0.13934971
111	0xbe9b14ac	-0.3028921
112	0xbec99752	-0.3937326
113	0xbdf4e735	-0.11958162
114	0x3ec5491d	0.38532344
115	0xbce7c533	-0.028292274
116	0xbea6b4b2	-0.32559735
117	0x3d2a6a51	0.041605297
118	0xbede01e7	-0.43360826
119	0xbdea8b37	-0.114523344
120	0xbe925f85	-0.285885
121	0xbe72a1b9	-0.23694505
122	0xbd1479f8	-0.03624913
123	0x3e6d4510	0.23170877
124	0xbcc005d9	-0.023440288
125	0x3ee5bdfb	0.44871506
126	0xbf0b0ba1	-0.5431462
127	0xbe4c66c3	-0.19961075
128	0x3bd5f0ec	0.0065289643
129	0xbcd26b92	-0.02568606
130	0x3ce42c5f	0.027853189
131	0x3e436a9f	0.19083641
132	0xbcfa6a7d	-0.030568356
133	0xbe5a3774	-0.21310216
134	0x3ebe2558	0.37137866
135	0x3e9771a6	0.29578894
136	0xbe31e9a7	-0.17374288
137	0x3ea038e9	0.3129342
138	0xbe9fb361	-0.31191543
139	0xbec7a319	-0.3899162
140	0xbe18b03f	-0.14910983
141	0x3ea16dd5	0.31529108
142	0x3d47a951	0.048745457
143	0xbf12385d	-0.57117254
144	0x3dd9e554	0.10639444
145	0xbe982c40	-0.2972126
146	0x3e47eb8d	0.19523449
147	0xbce3319f	-0.027733622
148	0xbc583ffa	-0.013198847
149	0x3e5334a8	0.20625556
150	0xbdd72b34	-0.10506287
151	0xbeaf51d7	-0.34242126
152	0xbf126c32	-0.5719634
153	0x3e1fdce9	0.15611614
154	0xbd09802c	-0.0335695
155	0xbe47a0e7	-0.19494973
156	0x3e54688d	0.20743008
157	0x3d6bca35	0.057565887
158	0x3e49cc1d	0.1970677
159	0x3e90ef4c	0.2830757
160	0xbc6653b4	-0.014058042
161	0x3b964264	0.004585551
162	0xbcc3f831	-0.023922058
163	0xbc0e805a	-0.008697594
164	0x3da698c6	0.08134608
165	0xbed87106	-0.4227373
166	0xbeaa9824	-0.333192
167	0xbe2f8b76	-0.17143044
168	0x3e0bb614	0.13643676
169	0x3ec7c6cb	0.39018854
170	0xbe4ad853	-0.19809084
171	0xbe8e3351	-0.27773526
172	0xbdbb147d	-0.09134767
173	0xbdaac6f4	-0.083387285
174	0xbf3f6beb	-0.74774045
175	0x3d5eb9c9	0.054376397
176	0x3e396875	0.18106253
177	0xbd93dbd9	-0.07219667
178	0xbe0f4253	-0.13990144
179	0x3d786d33	0.060651015
180	0x3ce00196	0.027344506
181	0xbd973140	-0.073824406
182	0xbdbca728	-0.0921157
183	0xbebb873b	-0.3662661
184	0xbe355379	-0.17707624
185	0x3d122876	0.035683118
186	0xbe8a3219	-0.26991346
187	0x3e6d9109	0.23199858
188	0xbec80e0c	-0.39073217
189	0xbdb7dcf9	-0.08977694
190	0xbeae577c	-0.3405112
191	0x3ccee183	0.025254017
192	0x3c4d93ce	0.012547446
193	0x3ce83785	0.028346786
194	0xbc9b5aeb	-0.018964252
195	0xbc642090	-0.013923779
196	0xbcca3062	-0.024681274
197	0xbdbc76f5	-0.09202377
198	0x3e81a542	0.25321394
199	0x3e8bec3d	0.27328673
200	0x3e42ee8a	0.19036308
201	0x3e3f0559	0.18654384
202	0x3de564dd	0.11200879
203	0xbd252196	-0.040315233
204	0x3f3b3da2	0.7314092
205	0x3dddeb63	0.10835912
206	0x3dd5d172	0.10440339
207	0x3e438ac1	0.19095899
208	0x3df44886	0.11927895
209	0xbe5d5937	-0.21616064
210	0xbee6d578	-0.4508474
211	0xbd0f3069	-0.034958277
212	0x3ddcdce9	0.10784323
213	0xbebb852b	-0.36625037
214	0x3d60848e	0.054813914
215	0x3d76937e	0.060199253
216	0x3cb7b925	0.022427151
217	0xbea531c8	-0.32264543
218	0xbd3d25ad	-0.04617851
219	0x3e872a45	0.26399437
220	0x3d3b7053	0.045761418
221	0x3ded7344	0.11594251
222	0xbe613f26	-0.21996745
223	0x3ddc93e4	0.107703954
224	0xb701f800	-7.746741e-06
225	0xbc235d80	-0.009971023
226	0xbcdc634c	-0.026902817
227	0x3c76c012	0.015060442
228	0xbcc7e780	-0.02440238
229	0x3c2ac8a6	0.010423815
230	0x3c47c1bc	0.012192186
231	0xbf008ca6	-0.5021461
232	0xbe6c8323	-0.230969
233	0x3d920ad0	0.071309686
234	0x3da95a2b	0.08269151
235	0x3d9c48d5	0.07631079
236	0xbf1098c9	-0.5648313
237	0x3f59d97c	0.8509748
238	0xbe2d856e	-0.1694543
239	0xbde6667a	-0.112500146
240	0x3ea60cb6	0.32431573
241	0xbe070e25	-0.1318899
242	0x3ec6c8f2	0.38825184
243	0x3b8b6b87	0.0042547616
244	0x3d8588bb	0.0652022
245	0xbe689052	-0.22711304
246	0x3ec047a2	0.37554651
247	0xbe91610b	-0.2839435
248	0xbe9b7096	-0.30359334
249	0x3e6b5624	0.22982079
250	0x3ea1263b	0.3147448
251	0x3e699cda	0.2281374
252	0x3e09c1d9	0.13452853
253	0x3e073cc4	0.13206774
254	0x3e20751d	0.15669675
255	0x3d9267a9	0.07148678

layer_1.bias f4 [128]
0	0xc0b4bcc9	-5.648045
1	0xc0be0696	-5.938304
2	0xc0b96ee6	-5.7947874
3	0xc0ba051b	-5.813123
4	0xc0939ee6	-4.613147
5	0xbff8d746	-1.9440696
6	0xc0563246	-3.3468184
7	0xc0cb52f4	-6.353876
8	0xbf00c12e	-0.5029477
9	0xbf0bdf55	-0.5463765
10	0xc0c1844c	-6.0473995
11	0xc0932f60	-4.599533
12	0xc087fffe	-4.249999
13	0xc0bd7b6a	-5.921315
14	0xc0e7dfcd	-7.2460694
15	0xc110d3ad	-9.051679
16	0xc0c67eac	-6.202963
17	0xc01a6890	-2.412632
18	0xc0a572ee	-5.1702795
19	0xbf70c57b	-0.9405133
20	0xc0f856ae	-7.760581
21	0xbf36dfdd	-0.7143534
22	0xbefa5d3f	-0.48899266
23	0xbf6a3f90	-0.9150324
24	0xc048c905	-3.1372693
25	0xbfc226aa	-1.5168049
26	0xbfb3faad	-1.4060875
27	0xc039d69b	-2.9037235
28	0xbfdcc953	-1.7248939
29	0xc0dd7456	-6.920451
30	0xc0828fcf	-4.0800548
31	0xc0087e35	-2.132703
32	0xc0f3bca0	-7.6167755
33	0xc0fc7a73	-7.8899474
34	0xc099e7fe	-4.8095694
35	0xc022e1c8	-2.5450306
36	0xc06fc04d	-3.746112
37	0xc112595f	-9.146819
38	0xc10478db	-8.279506
39	0xc026c123	-2.6055381
40	0xc0432859	-3.0493376
41	0xc0e64ad5	-7.196635
42	0xc091a5c3	-4.5514846
43	0xbfdf90d7	-1.7466077
44	0xbff08f9b	-1.8793825
45	0xc0fcc0ac	-7.8985195
46	0xc0714007	-3.769533
47	0xbf0ff207	-0.5622868
48	0xc0032c56	-2.049581
49	0xc0e4cd72	-7.150079
50	0xc0a69922	-5.206193
51	0xbf532ba4	-0.82488465
52	0xc09c6d10	-4.8883133
53	0xc07c7a98	-3.9449825
54	0xc1140f74	-9.253773
55	0xc0a36c44	-5.106966
56	0xc0a7cb39	-5.2435575
57	0xc04319ff	-3.0484617
58	0xbfb24a4c	-1.3928924
59	0xc0115ee5	-2.271417
60	0xbfb16458	-1.3858747
61	0xc09a4729	-4.8211865
62	0xc0a59668	-5.17461
63	0xc0760034	-3.8437624
64	0xc07e500c	-3.9736357
65	0xc0705793	-3.755345
66	0xbfe84d68	-1.8148623
67	0xc086fe4c	-4.218542
68	0xbfbdb404	-1.4820561
69	0xc08eb6d6	-4.459819
70	0xbfd87b13	-1.6912559
71	0xc0c09731	-6.018456
72	0xc037430c	-2.8634672
73	0xc1039b6f	-8.225448
74	0xc0368219	-2.8516905
75	0xbff016ef	-1.8756999
76	0xc0838487	-4.1099277
77	0xc07753b2	-3.8644834
78	0xc08f153a	-4.471341
79	0xc065e261	-3.591942
80	0xbfa66c77	-1.3001851
81	0xc0fa7b15	-7.8275247
82	0xc028000a	-2.6250024
83	0xc066ba19	-3.6051085
84	0xbef63073	-0.4808384
85	0xc05f0878	-3.484892
86	0xc0b1e261	-5.558884
87	0xbfb78a51	-1.4339086
88	0xc0c43e22	-6.1325846
89	0xbfb14b8c	-1.385118
90	0xc02d4bac	-2.7077436
91	0xbf65217f	-0.89504236
92	0xbe95bde4	-0.29246438
93	0xc0a79e49	-5.238072
94	0xc046d311	-3.1066325
95	0xc064e38e	-3.5763888
96	0xc0cd6827	-6.418964
97	0xc09e00e7	-4.93761
98	0xc0fe257d	-7.942076
99	0xbefec356	-0.49758404
100	0xc1268f8b	-10.410045
101	0xc093151f	-4.5963283
102	0xbff45a39	-1.9090034
103	0xc0673cd1	-3.613087
104	0xc0d6192f	-6.690574
105	0xc069c22d	-3.6524765
106	0xc01c0fd3	-2.4384658
107	0xc050fcd2	-3.265431
108	0xc0a5bfee	-5.179679
109	0xc0b7f4d3	-5.748636
110	0xc0d11b70	-6.5345993
111	0xc02289f8	-2.539671
112	0xc03c017f	-2.9375913
113	0xc0fa1bba	-7.8158846
114	0xc031c948	-2.7779102
115	0xc0e07081	-7.0137334
116	0xc0e30b95	-7.095164
117	0xc012e556	-2.2952476
118	0xc04dfa1b	-3.2183902
119	0xc0825e49	-4.0740094
120	0xbf8af4db	-1.0855974
121	0xc011f660	-2.2806625
122	0xbeb1e4fe	-0.3474502
123	0xbf29e526	-0.6636528
124	0xbf90802e	-1.1289117
125	0xbf9fe76d	-1.24925
126	0xc015fa89	-2.3434165
127	0xbf015eba	-0.50535166

layer_2.weight f4 [64, 128]
0	0x3c861452	0.016367111
1	0xbd410698	-0.04712543
2	0x3ac8014d	0.0015259177
3	0xbe878713	-0.2647024
4	0x3f004b93	0.5011532
5	0xbce53dfc	-0.027983658
6	0xbc19b697	-0.009381912
7	0x3c7ebe27	0.015548266
8	0x3c885509	0.01664211
9	0xbc38dad3	-0.0112826405
10	0xbcded889	-0.027202861
11	0x3d09d5a9	0.033651028
12	0x3bf51ba5	0.007480102
13	0x3ed4d413	0.4156805
14	0xbdc46dc5	-0.095912494
15	0xbdb1c32c	-0.08679804
16	0xbe9d9d5a	-0.30784112
17	0x3cb5794c	0.022152565
18	0x3c1cf748	0.009580441
19	0xbcb642b8	-0.02224861
20	0x3e68d7cd	0.22738571
21	0x3bdfe047	0.006832156
22	0xbd019d60	-0.031644225
23	0x3e07e662	0.13271478
24	0xbc8263ca	-0.015916724
25	0xbe129d4f	-0.14317821
26	0xbda615da	-0.081096366
27	0x3c1d85e6	0.009614443
28	0xbe087174	-0.13324529
29	0xbd5aeb5e	-0.05344712
30	0xbb1c40e1	-0.0023842382
31	0xbe429b3e	-0.19004533
32	0xbe09c8bc	-0.1345548
33	0x3e197e75	0.14989646
34	0xbbd32537	-0.0064436453
35	0xbce1e210	-0.027573615
36	0x3d08467a	0.033270337
37	0xbde3e309	-0.11127288
38	0x3c9adf92	0.018905435
39	0xbcabf8b6	-0.020992618
40	0x3d492378	0.04910609
41	0xbda39aa5	-0.079884805
42	0x3cf95cc9	0.030439751
43	0xbc40a1de	-0.011757342
44	0xbc9944bd	-0.018709535
45	0xbd8b073c	-0.06788489
46	0xbbd881cf	-0.0066072713
47	0xbb9c0789	-0.0047616404
48	0x3dc049ef	0.09389102
49	0xbdda9ce7	-0.10674458
50	0x3f0cba88	0.54972124
51	0xbcae1407	-0.021249784
52	0xbbd7fc76	-0.006591375
53	0xbe34cdaa	-0.1765658
54	0x3caa12c5	0.020760903
55	0x3cbe9883	0.023266083
56	0xbd6c86fc	-0.05774592
57	0x3c662b4f	0.0140484115
58	0xbbc535e0	-0.0060183853
59	0xbe2ede25	-0.17076929
60	0xbeb80415	-0.35940614
61	0xbed0fa0b	-0.40815768
62	0xbc09a5e1	-0.008401365
63	0xbc370b45	-0.01117212
64	0xbc874b88	-0.016515508
65	0xbb95698c	-0.0045597013
66	0x3ad8f262	0.0016551728
67	0x3d1a9c17	0.037746515
68	0x3d64dc10	0.05587393
69	0x3b99e36f	0.0046963017
70	0xbc17c2b4	-0.009262729
71	0x3eeb49d4	0.45954764
72	0xba0ccdf4	-0.00053712656
73	0xbc7fe405	-0.015618329
74	0xbc3033ac	-0.010754507
75	0xbe52b35e	-0.20576236
76	0xbe463cf0	-0.19359183
77	0x3c09a479	0.00840103
78	0xbcbe97b4	-0.023265697
79	0xbe77e597	-0.24208675
80	0x3abbb343	0.0014320392
81	0xbf571d4a	-0.84029067
82	0xbc03b2a5	-0.008038198
83	0xba865283	-0.0010247979
84	0xbc650e44	-0.013980452
85	0x3c8c2358	0.017106697
86	0xbc37b67e	-0.011212943
87	0x3d01fab6	0.031733237
88	0x3fa4b00d	1.2866226
89	0xbe0faf76	-0.14031777
90	0x3b5a065d	0.0033267953
91	0xbb7b6980	-0.0038362443
92	0x3d1a2aaf	0.037638362
93	0x3c91a542	0.017778996
94	0x3c584460	0.013199896
95	0x3f3e2b3b	0.74284714
96	0xbd682e68	-0.05668488
97	0x3f822042	1.0166094
98	0x3e043f8e	0.12914869
99	0xbc14d3a8	-0.009083666
100	0xbdaf520f	-0.08560573
101	0x3b3b009d	0.00285343
102	0xbd14abfd	-0.036296833
103	0xbca7c055	-0.020477453
104	0x3ede04d4	0.4336306
105	0xbda2eb15	-0.079549946
106	0xbdee6c4a	-0.11641748
107	0x3b6e8031	0.0036392326
108	0xbeb21a86	-0.3478586
109	0xbcc43c0b	-0.023954412
110	0xbb683124	-0.003542968
111	0x3cf721f9	0.030167567
112	0x3c7ee202	0.015556814
113	0xbdd386c7	-0.10328441
114	0xbb07d91d	-0.0020728775
115	0xbd0f6907	-0.03501227
116	0x3bddf0db	0.006773097
117	0x3b4e52ec	0.003148253
118	0x3c290323	0.010315689
119	0xbdcdb9e0	-0.100452185
120	0xbd723246	-0.059129976
121	0x3f48c1f8	0.7842097
122	0xbd9e8083	-0.077393554
123	0x3cbb40cb	0.022858044
124	0xbd19494f	-0.03742343
125	0x3a749060	0.0009329375
126	0xbe355587	-0.17708407
127	0x3c8a1608	0.016856208
128	0x3c997e8e	0.018737104
129	0xbd4aed21	-0.04954255
130	0xbc375be7	-0.011191345
131	0xbf4853bb	-0.7825276
132	0x3e01196a	0.12607351
133	0x3e1938e5	0.1496311
134	0x3cb6aa2e	0.022297945
135	0xb987c960	-0.00025899243
136	0xbc9d5872	-0.019207213
137	0x3c313813	0.010816592
138	0xbd5b8a79	-0.053598855
139	0x3da8764d	0.08225689
140	0x3b0c55c2	0.002141342
141	0x3dcff60b	0.10154351
142	0xbdce1aea	-0.10063727
143	0xbdc784eb	-0.09742149
144	0xbe8e324f	-0.27772757
145	0xbe327dff	-0.17430876
146	0x3c8b6d73	0.017019963
147	0x3d1bb393	0.038013052
148	0x3dce3c07	0.10070043
149	0x3d08078b	0.03321032
150	0xbd46589b	-0.048424345
151	0xbd860a61	-0.06544948
152	0x3d100db3	0.035169315
153	0xbda79036	-0.08181803
154	0xbcda1531	-0.026621433
155	0xbe131756	-0.1436437
156	0x3f262033	0.6489288
157	0xbf8c39b4	-1.095511
158	0xbc562979	-0.013071411
159	0xbce2df0c	-0.027694248
160	0xbda92c98	-0.08260459
161	0x3d7e056f	0.0620169
162	0xbe8dd773	-0.27703437
163	0x36f146d8	7.190607e-06
164	0x3fad702f	1.3549861
165	0xbd45451b	-0.048161607
166	0x3d83d757	0.06437557
167	0x3e60d5d8	0.21956575
168	0x3fa8e033	1.319342
169	0x3e9204ae	0.28519195
170	0xbfb15292	-1.3853323
171	0x3d6ff024	0.058578625
172	0xbddc11db	-0.10745593
173	0xbd6654cd	-0.056233216
174	0xbe71d3d4	-0.23615962
175	0x3b623c8c	0.0034520952
176	0xbc00aa16	-0.007853052
177	0xbe15b4c7	-0.14619742
178	0xbe40a064	-0.18811184
179	0x3d74c4ee	0.05975812
180	0xbf016397	-0.5054259
181	0x3caeb76e	0.0213277
182	0x3c22bd85	0.00993288
183	0x3ca94b4c	0.020665787
184	0xbdca21ea	-0.0986975
185	0x3d62b6ec	0.05535023
186	0x3a825ae7	0.0009945304
187	0xbccd7c7a	-0.02508377
188	0xbb633b4a	-0.003467279
189	0xbf9a57b5	-1.2058016
190	0x3d302122	0.043000348
191	0xbb476fad	-0.0030431554
192	0xbf135c15	-0.5756238
193	0xbc149101	-0.009067775
194	0xbc97b970	-0.01852104
195	0x3d17f9cd	0.037103463
196	0xbeb55ec6	-0.3542387
197	0x3d32593f	0.043542143
198	0x3d57c279	0.052675698
199	0xbdd8d7a2	-0.10588004
200	0x3dd87bdd	0.105705
201	0x3ceee22f	0.029160587
202	0x3cb427ad	0.021991575
203	0x3eb6319e	0.3558473
204	0x3d6bd83d	0.057579268
205	0xbce241dc	-0.027619295
206	0xbd0b7383	-0.034045707
207	0xbf1c31da	-0.6101357
208	0xbe759913	-0.23984174
209	0xbfe9fca2	-1.8280222
210	0x3dc9be95	0.09850804
211	0xbed46fd7	-0.41491577
212	0x3cfe00b8	0.031006202
213	0x3d481f4c	0.048857972
214	0x3bab1621	0.005221144
215	0xbdf2673d	-0.118360974
216	0xbf5c91d3	-0.8616001
217	0xbd479390	-0.04872471
218	0x3b4128da	0.0029473812
219	0x3d653aa5	0.05596413
220	0xbd723846	-0.059135698
221	0x3b29baca	0.0025898688
222	0xbb0e2d88	-0.002169462
223	0xbea231cf	-0.31678626
224	0xbd16d9de	-0.036828868
225	0xbf961c5c	-1.1727405
226	0x3c2494b7	0.010045222
227	0xbe8cccbb	-0.27499947
228	0xbf956e6a	-1.1674321
229	0x3d89de67	0.06731873
230	0x3e041e69	0.12902226
231	0xbe4cc320	-0.1999631
232	0xbd831749	-0.06400926
233	0xbdfb0add	-0.122579314
234	0xbdff32c6	-0.12460856
235	0x3d592138	0.053010195
236	0xbde79f44	-0.113096744
237	0xbd7db503	-0.061940204
238	0x3c7e1699	0.015508317
239	0xc014c74e	-2.3246646
240	0x3ca11785	0.019664535
241	0xbd582906	-0.052773498
242	0xbdb22e20	-0.08700204
243	0x3db4e712	0.08833136
244	0x3d005a61	0.031336192
245	0xbe075f59	-0.13219966
246	0x3bf56f83	0.0074901
247	0x3c8bd0c9	0.01706733
248	0x3e6cab03	0.23112111
249	0x3e4b5044	0.19854838
250	0xbdfc3434	-0.123146445
251	0xbda6b330	-0.08139646
252	0xbe0cb72b	-0.13741748
253	0xbd046e91	-0.032332007
254	0x3ac17c3b	0.0014761755
255	0x3c111f47	0.008857555

layer_2.bias f4 [64]
0	0xc0186038	-2.3808727
1	0x3fb51bf4	1.4149156
2	0xc08c476f	-4.38372
3	0xbe0bd26d	-0.1365449
4	0x3f52c455	0.8233083
5	0x3f9d9021	1.230961
6	0x40608834	3.5083132
7	0xbf08a4da	-0.53376544
8	0xbc10f026	-0.008846318
9	0xbf2fd6f9	-0.686874
10	0x3f1d3ce4	0.61421037
11	0xbea5db49	-0.32393864
12	0xbfe5e8d2	-1.7961676
13	0xc06dbd42	-3.7146764
14	0x4067aa46	3.6197677
15	0x3c9db62d	0.019251907
16	0x400af9be	2.171493
17	0xbd54928b	-0.051897567
18	0xc0807b67	-4.015064
19	0x40031486	2.0481277
20	0x3f9e2a0f	1.2356585
21	0xbf9a93c0	-1.207634
22	0xbee7187e	-0.45135874
23	0xc0053b28	-2.0817356
24	0x412a6ef4	10.652088
25	0x3fc2a880	1.5207672
26	0x3e84891c	0.25885856
27	0xbd9b2cd2	-0.07576908
28	0xc004b124	-2.0733118
29	0xc0982dd2	-4.7555933
30	0x3f7ca920	0.98695564
31	0x408a615e	4.3243856
32	0xbfdac228	-1.7090502
33	0x4100b845	8.044988
34	0x4080214e	4.0040655
35	0xbfda5017	-1.7055691
36	0xbc87acf7	-0.016561968
37	0xbda0bad3	-0.07848134
38	0x3e659edf	0.22423886
39	0xbc246d92	-0.010035889
40	0x41050b46	8.315252
41	0x3fd81818	1.6882353
42	0x40cd012c	6.406393
43	0x3fa038e2	1.2517359
44	0x3deccb06	0.11562161
45	0x3fe22253	1.7666725
46	0xbfb619b2	-1.4226592
47	0x3ececf56	0.4039256
48	0x40759054	3.836934
49	0x3c8cbff6	0.017181378
50	0x3f362f2c	0.7116573
51	0xc0c16028	-6.042988
52	0x3fb1f8de	1.3904073
53	0x3f6715d7	0.902677
54	0x403b41d1	2.925892
55	0x3ea91b4c	0.33028638
56	0xbfabc364	-1.3419003
57	0x3fe3b06b	1.7788213
58	0x3f8819c5	1.0632864
59	0x3f3ca877	0.73694557
60	0x40508d8e	3.2586398
61	0x404b804d	3.1797059
62	0xbe7c6754	-0.24648792
63	0xc06d8635	-3.7113163

layer_3.weight f4 [32, 64]
0	0xbe024dfa	-0.12725058
1	0xbf078da1	-0.52950484
2	0xbf010b79	-0.5040813
3	0xbde689ee	-0.11256777
4	0x3ca2879e	0.019840058
5	0x3d0730d6	0.033005558
6	0xbc1749de	-0.00923392
7	0xbeb1290b	-0.34601626
8	0xbd54d42a	-0.051960148
9	0x3ce7bfd6	0.028289717
10	0xbd1cb049	-0.038254056
11	0xbd0c063d	-0.034185637
12	0xbe3701ad	-0.17871733
13	0xbec7d786	-0.3903162
14	0xbef5cd43	-0.48008165
15	0x3db632e5	0.08896426
16	0x3dbcd363	0.09220006
17	0x3d6e7f4a	0.05822686
18	0xbeb2a426	-0.3489086
19	0xbe02a45a	-0.12758008
20	0xbf33e545	-0.7027171
21	0xbda88891	-0.08229173
22	0xbe4d6f84	-0.20062071
23	0xbea03bec	-0.31295717
24	0xbde39f86	-0.11114411
25	0x3dde0c9b	0.10842248
26	0xbdb42d51	-0.08797706
27	0xbd8d7af8	-0.0690822
28	0x3e00b0ab	0.12567393
29	0xbc7ac177	-0.015304915
30	0x3d01f7e4	0.031730548
31	0xbe202bdc	-0.15641731
32	0xbe9acad8	-0.30232882
33	0xbdeb2b2c	-0.11482844
34	0xbd350cdb	-0.044201713
35	0xbe151c59	-0.14561595
36	0x3e26cae6	0.16288337
37	0xbc13d913	-0.0090239225
38	0xbd8755c9	-0.06608159
39	0xba198479	-0.0005856227
40	0xbe14256e	-0.14467403
41	0xbe2c53fd	-0.16828914
42	0xbcd17aca	-0.025571246
43	0xbc47ba08	-0.012190349
44	0x3e2e0ae5	0.16996343
45	0xbe1e08eb	-0.1543309
46	0xbcd68af7	-0.02618931
47	0xbc8015be	-0.015635367
48	0xbe7b8da9	-0.24565758
49	0x3d901990	0.07036126
50	0x3cca2efc	0.024680607
51	0x3cb87490	0.022516519
52	0x3d7e7905	0.062127132
53	0x3c815915	0.015789548
54	0xbcd3253d	-0.025774593
55	0x3cfd925b	0.030953577
56	0x3ce4bcc3	0.02792204
57	0xbdcd303e	-0.10018967
58	0xbe296308	-0.16541684
59	0xbd28aadc	-0.04117857
60	0xbe421542	-0.18953422
61	0xbe796fa9	-0.24359001
62	0x3d54f61d	0.051992524
63	0xbe39c453	-0.18141298
64	0x3e97e08e	0.2966351
65	0x3d2ced13	0.04221828
66	0x3caff978	0.02148126
67	0x3d1e3816	0.038627706
68	0xbc507087	-0.012722141
69	0x3c52f7c9	0.012876459
70	0x3d3f93d5	0.046771843
71	0xbb86a8e4	-0.004109489
72	0xbc3bd648	-0.011464663
73	0x3cd3fe85	0.0258782
74	0x3ce91b19	0.028455304
75	0x3d9f1bec	0.077689976
76	0xbcb0c0fa	-0.021576393
77	0x3b4e3582	0.0031464999
78	0x3d5398e1	0.05165947
79	0x3ccd4577	0.025057537
80	0x3d6cf028	0.05784622
81	0x3d667f9f	0.056274053
82	0xbd842f5d	-0.06454346
83	0xbf7cac8f	-0.98700804
84	0xbe1b825a	-0.15186444
85	0x3c811aad	0.01575979
86	0x3d00d874	0.031456426
87	0xbe8c7fd5	-0.27441278
88	0xbe17734f	-0.1479008
89	0xbcc320d9	-0.023819374
90	0xbdd0e465	-0.10199813
91	0xbcf0990c	-0.029369853
92	0xbf3396ee	-0.70152175
93	0x3e12a4b2	0.14320639
94	0x3e125a1a	0.14292184
95	0x3cfcb080	0.03084588
96	0xbcd415fd	-0.025889391
97	0x3e7131f2	0.23554209
98	0xb5377597	-6.834393e-07
99	0x3d9f77f7	0.07786553
100	0x3cd8b62e	0.026454058
101	0x3d858c7d	0.06520937
102	0x3d1dc316	0.038516127
103	0xbe173999	-0.14768066
104	0xbcb8c558	-0.022555038
105	0xbd8ef7d7	-0.069808654
106	0x3d95c79d	0.07313464
107	0x3e6655a3	0.22493605
108	0x3cdd040e	0.026979472
109	0x3d53289e	0.051552407
110	0xbdff81ab	-0.12475904
111	0x3d836874	0.06416407
112	0x3e971877	0.29510853
113	0x3d557643	0.052114736
114	0xbc8fbdb5	-0.017546514
115	0xbec356c0	-0.38152122
116	0x3dd39c88	0.1033259
117	0x3e2484ae	0.16066238
118	0xbc9eb746	-0.019374501
119	0x3d9dd5a6	0.07706766
120	0x3d99537d	0.07486627
121	0xbdf5858f	-0.11988365
122	0x3d52af0b	0.051436465
123	0x3e716666	0.23574218
124	0x3e9f3c72	0.31100804
125	0x3d8eed16	0.06978814
126	0xbcfb9cc9	-0.03071441
127	0x3dfd56f8	0.123701036
128	0x3dfe24b1	0.12409342
129	0xbd30a3ac	-0.04312484
130	0xbe94b34a	-0.29043037
131	0xbc9b8d4a	-0.01898827
132	0x3e2ee9f7	0.17081438
133	0xbd8d40eb	-0.06897148
134	0x3d9c3f8f	0.0762931
135	0xbdb1c634	-0.08680382
136	0x3dea8c14	0.11452499
137	0xbe470dea	-0.19438902
138	0xbd364c28	-0.044506222
139	0xbbcf5c21	-0.0063281213
140	0xbe8d0abc	-0.27547252
141	0xbe6ff987	-0.23435031
142	0xbd68298d	-0.05668025
143	0xbe25c133	-0.16186981
144	0x3e262cd3	0.16228037
145	0xbd84d1b1	-0.06485308
146	0x3d04a6fc	0.03238581
147	0x3dc7601f	0.097351305
148	0x3dddf26e	0.108372554
149	0xbe4b10d1	-0.19830634
150	0x3d845690	0.06461823
151	0xbdb7659d	-0.08954928
152	0xbd0755ee	-0.033040933
153	0xbcae64d8	-0.02128832
154	0x3dae7d60	0.08520007
155	0xbb1d2b0a	-0.0023981952
156	0xbe09463c	-0.13405699
157	0xbe8b2e6f	-0.27183864
158	0x3dadbc4c	0.084831804
159	0xbc4112d3	-0.011784273
160	0xbdc2eb8a	-0.09517582
161	0xbe09c4be	-0.13453957
162	0xbe1a98ce	-0.15097353
163	0x3cc87b34	0.02447281
164	0x3d0ca0e0	0.03433311
165	0xbd5937e3	-0.053031813
166	0x3db431e9	0.08798582
167	0xbd9afc06	-0.07567601
168	0xbe9b72b0	-0.30360937
169	0xb93133bd	-0.0001689931
170	0xbd62e8de	-0.05539786
171	0xbdf69df6	-0.120418474
172	0x3d2e2395	0.042514402
173	0x3f063e91	0.5243922
174	0xbdb2db80	-0.087332726
175	0xbe190cf9	-0.14946355
176	0xbf2503b6	-0.6445879
177	0xbdf2c4aa	-0.11853917
178	0x3ca02d0d	0.019552732
179	0xbebf3bc1	-0.37350276
180	0xbd6f4aa4	-0.058420792
181	0xbd9e30bb	-0.07724138
182	0xbe8f2ffe	-0.27966303
183	0x3d5bca32	0.053659625
184	0xbe1f58e4	-0.15561253
185	0xbe1b10cd	-0.15143128
186	0x3ed775c8	0.42082047
187	0xbcef7674	-0.029231288
188	0xbd7a3536	-0.061085902
189	0x3dd86d94	0.10567775
190	0x3d651c41	0.05593515
191	0xbe6413e8	-0.22273219
192	0xbd6da7ce	-0.05802136
193	0xbc6e07f3	-0.014528262
194	0xbb4d497b	-0.0031324315
195	0xbcbcaf07	-0.023032678
196	0x3d4771d0	0.048692524
197	0x3ec111fa	0.37709028
198	0x3c4afa57	0.012388787
199	0xbb50c5c1	-0.0031856152
200	0x3c999016	0.018745463
201	0xbde7b15d	-0.11313126
202	0xbb887ad4	-0.004165033
203	0x3bdfeeb6	0.0068338765
204	0x3c5d36b1	0.013501809
205	0x3de3b4ac	0.11118445
206	0x3e82b75a	0.2553051
207	0xbd00f1ea	-0.031480707
208	0xbe04b6e0	-0.12960386
209	0xbc844fb1	-0.016151281
210	0x3f9e0792	1.234606
211	0xbd9d89e8	-0.07692319
212	0xbe2a0322	-0.16602758
213	0xbbfffa20	-0.0078117996
214	0xbdb6937e	-0.08914851
215	0x3d705020	0.058670163
216	0xbe81f22d	-0.25380078
217	0x3cdb0dd3	0.02673999
218	0xbbecc284	-0.0072253365
219	0xbd7e615b	-0.062104564
220	0x3d6dd81a	0.05806742
221	0xbd455d42	-0.04818464
222	0x3cbdce1d	0.023169572
223	0xbe598eb9	-0.2124585
224	0xbd1ded23	-0.03855623
225	0xbe07ca7e	-0.13260838
226	0x3ab65da4	0.0013913405
227	0xbce77a53	-0.02825657
228	0xbd7d3c06	-0.06182482
229	0xbd6cd541	-0.057820562
230	0xbd8f90b4	-0.07010022
231	0xbcc2c095	-0.02377347
232	0xbe1376c7	-0.14400779
233	0x3d637d5d	0.055539478
234	0xbd855bb1	-0.065116294
235	0x3e372399	0.17884673
236	0x3d3f4439	0.04669592
237	0xbddfb6aa	-0.10923512
238	0x3d979e87	0.074032836
239	0xbd473b9f	-0.048640843
240	0xbd7d3477	-0.061817612
241	0x3d06dcbe	0.03292536
242	0x3d5926e5	0.05301561
243	0xbe840e01	-0.25791934
244	0x3d6bf10b	0.057602923
245	0xbdbdee53	-0.09273972
246	0xbd836691	-0.06416047
247	0x3c183d71	0.0092919925
248	0x3c92b0a0	0.017906487
249	0x3c333d08	0.010939844
250	0xbb0f8ee0	-0.0021905228
251	0xbd7d12a0	-0.06178534
252	0x3bcd5bb2	0.0062670344
253	0x3e847cbf	0.25876424
254	0x3d874fde	0.0660703
255	0x3fbd8ebc	1.4809184

layer_3.bias f4 [32]
0	0xc0415512	-3.0208173
1	0x3da5f70c	0.08103761
2	0x3f7ff6a9	0.9998575
3	0x3f4c5e47	0.79831356
4	0xbe4347ba	-0.1907033
5	0x3e43323b	0.1906213
6	0xbe8a22a0	-0.26979542
7	0x4078c52e	3.887035
8	0xbf2ad2b2	-0.66727746
9	0xbe2eebeb	-0.17082183
10	0x4034d14e	2.825275
11	0xbea48ea5	-0.3214008
12	0x40407bcf	3.0075567
13	0xbfd8a64a	-1.6925747
14	0x40873ede	4.226424
15	0x4087c3ae	4.2426367
16	0x3edb56c6	0.4283964
17	0x3e9363ce	0.28787082
18	0xc089c015	-4.3046975
19	0xbe043cf6	-0.1291388
20	0xc02eaa27	-2.7291353
21	0xc02f0796	-2.734838
22	0x3f2cce73	0.67502517
23	0xbf52023b	-0.82034653
24	0xbfdb00a2	-1.7109568
25	0xbf59f8ff	-0.8514556
26	0xc0349b98	-2.8219967
27	0x40707fbc	3.7577963
28	0x401c087b	2.4380176
29	0xbfe088a9	-1.7541705
30	0x3fd23643	1.6422809
31	0xbe62fc0c	-0.22166461

layer_4.weight f4 [32, 32]
0	0xbdbec292	-0.09314455
1	0xbc906b76	-0.017629366
2	0x3d612b88	0.054973155
3	0xbc92c847	-0.017917765
4	0x3e204a32	0.15653303
5	0xbc0b5d7b	-0.008506174
6	0x3e1f7790	0.15572953
7	0xbe4c3a35	-0.19944079
8	0xbcaa2670	-0.020770282
9	0xbccc2495	-0.024919787
10	0x3d2e18e7	0.042504217
11	0x3e44fa5d	0.19236131
12	0xbc17e6db	-0.009271349
13	0xbccd0727	-0.025027825
14	0x3e12eb21	0.14347507
15	0xbe087919	-0.13327445
16	0x3d240dc1	0.04005218
17	0xbd2f3f2a	-0.042784847
18	0xbe34b1fb	-0.17646019
19	0x3c4a80c1	0.012359799
20	0xbe5160b5	-0.20447047
21	0xbc58becb	-0.013229082
22	0x3ea8f054	0.32995856
23	0xbde3fc81	-0.11132146
24	0xbdcd16d0	-0.10014117
25	0x3e08e4fd	0.13368602
26	0xbda890cd	-0.082307436
27	0x3d038af3	0.032114934
28	0x3e49e754	0.19717151
29	0x3c096147	0.008385009
30	0xb9e021fa	-0.00042749924
31	0x3e228bd7	0.15873657
32	0xbdbe3985	-0.09288315
33	0x3dbc24ee	0.09186731
34	0xbdd409cb	-0.1035343
35	0x3e9cec83	0.30649194
36	0xbc1569cb	-0.009119461
37	0x3e0b3680	0.13595009
38	0x3e306b38	0.172284
39	0xbd1bfafb	-0.03808115
40	0x3d3c4fec	0.045974657
41	0x3e74aa73	0.23893146
42	0x3bf8ce76	0.0075929714
43	0x3d7c6db9	0.061628077
44	0x3e638fcf	0.22222827
45	0x3deae6f6	0.114698336
46	0xbf14089a	-0.57825625
47	0x3d8ca678	0.06867689
48	0xbd15d347	-0.036578443
49	0x3d38a4dd	0.0450791
50	0xbf0e94f4	-0.55696034
51	0x3dc0ed3e	0.0942025
52	0xbd340f1a	-0.043959714
53	0xbd9c4fe0	-0.076324224
54	0x3e7e39da	0.24826756
55	0xbe55b082	-0.20868114
56	0x3e1dc57b	0.15407364
57	0x3d482a9e	0.048868768
58	0x3db14a97	0.08656805
59	0x3dd5c34c	0.104376405
60	0x3e873935	0.26410833
61	0xbd48a790	-0.048987925
62	0xbe4bca17	-0.1990131
63	0xbd665001	-0.05622864
64	0xb9bebd55	-0.00036380687
65	0xbe792668	-0.24331057
66	0xbc95d07f	-0.018287895
67	0x3deaefdb	0.1147153
68	0xbe355013	-0.17706327
69	0x3e1ca6a2	0.1529794
70	0x3dfe04a2	0.124032274
71	0x3d721361	0.059100512
72	0x3e2f8880	0.17141914
73	0x3c42918d	0.011875522
74	0xbd6ef999	-0.058343504
75	0xbded6146	-0.11590819
76	0x3dd767ca	0.10517843
77	0xbe16c0a3	-0.14721923
78	0x3e218ce4	0.15776402
79	0x3ba9d127	0.0051824036
80	0xbd9ef601	-0.07761765
81	0xbd17855e	-0.036992423
82	0x3bca0820	0.0061655194
83	0x3e0a106b	0.13482825
84	0x3cbbbb27	0.02291639
85	0x3e9ce649	0.30644444
86	0x3d96ab5b	0.07356902
87	0x3cf1bc09	0.029508607
88	0x3dae4831	0.08509863
89	0x3d9175c3	0.071025394
90	0xbce98290	-0.02850464
91	0x3c7c9287	0.015415794
92	0x3b2f2df4	0.002673027
93	0xba636b63	-0.00086753647
94	0xbc1ce531	-0.009576128
95	0xbd0b5276	-0.034014188
96	0xbe7a2528	-0.24428236
97	0x3dde0de0	0.1084249
98	0xbd9eece2	-0.077600256
99	0xbd560a30	-0.05225581
100	0xbdebc56b	-0.11512264
101	0xbe34537e	-0.17609975
102	0xbda38cce	-0.07985841
103	0xbd0634d4	-0.032765225
104	0xbc623ed5	-0.013808926
105	0x3d1fbd4b	0.038998883
106	0xbe52a004	-0.20568854
107	0xbf303ed5	-0.68845874
108	0xbd640a83	-0.055674087
109	0xbdd08879	-0.1018228
110	0xbd89ef18	-0.06735057
111	0xbd8f0aa3	-0.06984451
112	0xbdcf978c	-0.10136327
113	0xbb893790	-0.004187532
114	0x3c653c4a	0.013991425
115	0x3c66b935	0.014082243
116	0xc00d92c9	-2.212084
117	0xbdd3239d	-0.10309527
118	0x3b5a62e5	0.0033323106
119	0xbe10ee93	-0.14153509
120	0x3e99e99b	0.3006104
121	0xbe8adc82	-0.2712136
122	0xbd8e3767	-0.06944161
123	0xbe15509d	-0.14581533
124	0x3dfd4cf2	0.12368192
125	0xbd06400d	-0.032775927
126	0xbdbd51eb	-0.0924414
127	0xbd340366	-0.043948554
128	0xbdcbf249	-0.099583216
129	0xbd579bfb	-0.05263899
130	0x3aa8c92f	0.001287734
131	0xbd371ef5	-0.044707257
132	0x3d38e652	0.045141526
133	0xbcd1c37d	-0.025605911
134	0xbea009ff	-0.31257626
135	0xbe016bf4	-0.12638837
136	0xbdf8c1ee	-0.12146364
137	0xbe8c7cdc	-0.2743901
138	0xbe20f7c5	-0.15719517
139	0xbceb8e6e	-0.02875444
140	0x3b466974	0.0030275257
141	0xbea4e62c	-0.32206857
142	0xbc5aa754	-0.013345558
143	0xbe49c0d5	-0.19702466
144	0xbde197dc	-0.11015293
145	0xbe64185c	-0.22274917
146	0xbd979e1f	-0.07403206
147	0xbe043fa5	-0.12914903
148	0xbe3c598e	-0.18393537
149	0x3da4d5de	0.080486044
150	0x3d040ce4	0.032238856
151	0x3c49a8fa	0.012308354
152	0xbe483cb0	-0.195544
153	0xbec444df	-0.38333794
154	0xbe537842	-0.20651343
155	0xbe7f4d21	-0.24931766
156	0xbe483039	-0.19549645
157	0xbd95637b	-0.07294365
158	0xbbe6bee2	-0.007041798
159	0x3d85fd55	0.0654246
160	0xc0d383eb	-6.6098533
161	0xbe774442	-0.24147132
162	0xbda80bec	-0.08205399
163	0xbe5e859e	-0.21730658
164	0xbd494b96	-0.04914435
165	0xbf1f657d	-0.62264234
166	0x3dcff946	0.10154967
167	0xbe095d52	-0.13414505
168	0x3dce9eea	0.10088904
169	0x3dd028dd	0.10164044
170	0x3efef63e	0.49797243
171	0x3e08386b	0.13302772
172	0x3eab8af2	0.33504444
173	0xbdabaa39	-0.08382077
174	0xbf172391	-0.59038645
175	0xbdc351cc	-0.09537086
176	0x3e246d18	0.16057241
177	0xbf026eec	-0.50950503
178	0xbf08a1c8	-0.5337186
179	0xbed206de	-0.41020864
180	0x3efecf45	0.4976751
181	0xbeddd4f7	-0.43326542
182	0xbced535d	-0.028970415
183	0x3db19b4c	0.08672199
184	0xbf1f7ff6	-0.6230463
185	0xbe724e89	-0.23662771
186	0xbe8ef70b	-0.27922854
187	0xbd0237e0	-0.031791568
188	0xbefd11e8	-0.49427724
189	0xbd092332	-0.03348083
190	0xbcf8921f	-0.030343113
191	0xbde3306c	-0.1109322
192	0xbd8ca4c6	-0.068673655
193	0xbd95e47a	-0.07318969
194	0xbe066807	-0.13125621
195	0x3d1b0055	0.037842114
196	0x3da93add	0.082631804
197	0xbde3000b	-0.110839926
198	0xbe496bd3	-0.19670038
199	0x3c31cc17	0.0108518815
200	0x3df4960c	0.11942682
201	0xbf0b6594	-0.5445187
202	0x3d444e93	0.047926497
203	0x3df5c040	0.119995594
204	0x3e5c3750	0.21505475
205	0xbe503363	-0.20332102
206	0x3bcd0626	0.0062568365
207	0xbdecddbb	-0.11565729
208	0xbdd39f3e	-0.103331074
209	0xbdfb03bc	-0.12256572
210	0xc0ab9b2a	-5.362691
211	0x3ed908d1	0.4238954
212	0x3ddff811	0.10935987
213	0xc0409785	-3.009248
214	0xbe1dbbf4	-0.1540373
215	0xbdb3ac32	-0.08773078
216	0xbde037cf	-0.10948145
217	0xbb0e3826	-0.0021700948
218	0x3cf219bf	0.029553292
219	0x3eda1dee	0.4260096
220	0xbe319b72	-0.17344454
221	0xbcb69623	-0.022288388
222	0xbe64fd37	-0.22362219
223	0x3cb1069d	0.021609599
224	0x3e723234	0.23651963
225	0xbd151369	-0.036395464
226	0xbe067357	-0.13129936
227	0x3e3a3991	0.18186022
228	0x3d334388	0.043765575
229	0x3eb18839	0.34674242
230	0x3e94c9a4	0.2906009
231	0xbd50a1db	-0.050935607
232	0x3d810fb6	0.06301825
233	0xbd40f97d	-0.04711293
234	0x3e0770bb	0.13226597
235	0x3ec536b8	0.3851831
236	0x3e609be9	0.21934475
237	0xbf0245dd	-0.5088785
238	0x3eaf2e59	0.34215048
239	0x3e823c73	0.25436744
240	0x3cb299f6	0.02180193
241	0x3c96ead3	0.01842252
242	0x3eb15fc1	0.34643367
243	0x3e531772	0.20614412
244	0xbe70518c	-0.23468608
245	0xbe027d13	-0.12743025
246	0xbc0f1103	-0.008732083
247	0xbe401807	-0.18759166
248	0xbe8c838f	-0.2744412
249	0xbe070dc4	-0.13188845
250	0xbdfe4fa4	-0.12417534
251	0x3d74e8b8	0.05979225
252	0x3dd6482d	0.10462985
253	0xbb6a7f8d	-0.0035781593
254	0xbcce77cf	-0.025203614
255	0x3d9a7a07	0.07542806

layer_4.bias f4 [32]
0	0x3fe2bc24	1.7713666
1	0xc0021ad5	-2.0328877
2	0x400d4054	2.2070513
3	0x3ff1a970	1.8879833
4	0xbee9311b	-0.45545277
5	0x3fa4669b	1.2843813
6	0x3f929b7e	1.1453702
7	0xbfca8c2a	-1.5824025
8	0x4009cc16	2.1530814
9	0xbfc1330a	-1.5093701
10	0x3f382f9b	0.7194764
11	0xbeff09ec	-0.49812257
12	0x3fd5caa9	1.6702472
13	0x3f96979d	1.1765019
14	0x3f87105c	1.0551867
15	0xbcb72357	-0.022355719
16	0x3fec3f25	1.845677
17	0xbfa5c03c	-1.294929
18	0x3fc40716	1.5314662
19	0x3f90057c	1.1251674
20	0x40121248	2.2823658
21	0xbf2bf4bb	-0.67170304
22	0x3e0ad255	0.13556798
23	0x3ff8f3d3	1.9449409
24	0x40210ab1	2.5162776
25	0xc0097ce1	-2.148247
26	0xc0051bf4	-2.0798311
27	0x3fff7b6a	1.9959538
28	0x40017836	2.022962
29	0x3fa163ad	1.2608544
30	0xbf097d61	-0.5370694
31	0x4011fe0a	2.2811303

layer_5.weight f4 [16, 32]
0	0x3e85b9df	0.2611837
1	0xbe3f57e2	-0.18685868
2	0x3cd12712	0.025531325
3	0x3dbbf890	0.09178269
4	0x3da5d100	0.08096504
5	0x3e77c1e6	0.2419506
6	0xbeec3c00	-0.46139526
7	0xbec8258b	-0.39091143
8	0xbed663a9	-0.4187291
9	0x3da80937	0.082048826
10	0x3ed05127	0.40686914
11	0x3ec28032	0.3798843
12	0x3cc5bfb5	0.024139265
13	0xbf405fb9	-0.7514606
14	0x3d14f4de	0.036366336
15	0x3e60a0d2	0.21936348
16	0x3d845edf	0.06463408
17	0xbf063d9e	-0.5243777
18	0x3e224774	0.1584757
19	0xbe4e2f04	-0.20135123
20	0x3e497f06	0.19677362
21	0x3ec7fd9b	0.39060673
22	0x3e9a0fcf	0.30090186
23	0x3e345a3d	0.17612548
24	0x3f287aca	0.6581236
25	0xbcd3cf47	-0.025855673
26	0xbedb93a3	-0.42886075
27	0x3e51483d	0.20437713
28	0xbc0fc0b1	-0.008773969
29	0x3d78af93	0.060714316
30	0x3da5aa83	0.08089163
31	0xbcca4a35	-0.024693588
32	0xbd95adb3	-0.07308521
33	0xbdaf9380	-0.08573055
34	0x3cab8cd2	0.020941172
35	0xbe67f849	-0.22653307
36	0xbdc58ba6	-0.096457765
37	0x3e31864d	0.17336388
38	0xbee677b7	-0.4501321
39	0xbf127068	-0.5720277
40	0xbec9194c	-0.39277112
41	0xbb93963e	-0.0045039942
42	0x3ebedd2d	0.3727812
43	0x3e95e1a8	0.29273725
44	0x3d07a49e	0.033115976
45	0xbeb6f84c	-0.3573631
46	0x3dcef2db	0.10104915
47	0xbea43d35	-0.32077947
48	0xba9147b7	-0.0011083995
49	0xbf7c655d	-0.9859217
50	0xbd5839af	-0.052789386
51	0xbd70ced4	-0.058790997
52	0x3d18319d	0.03715669
53	0x3e0dd60b	0.13851182
54	0x3d5a51d0	0.05330068
55	0x3dc37d6a	0.09545405
56	0x3edd8ef7	0.43273136
57	0xbd74516e	-0.05964797
58	0xbecad5bd	-0.39616194
59	0x3d33fb93	0.04394109
60	0x3da5ed60	0.08101916
61	0x3e6a0eb2	0.22857168
62	0xbe221922	-0.158299
63	0x3d93a1f9	0.07208628
64	0xc0566d8f	-3.350437
65	0xbf7d3173	-0.9890358
66	0xbd84441a	-0.06458302
67	0xbf87dc6d	-1.0614144
68	0x3dfc0ca5	0.12307099
69	0x3e141fb4	0.14465219
70	0x3e8e6470	0.27811003
71	0xbed02ad0	-0.40657663
72	0x3ebd15f0	0.369308
73	0x3bdaa092	0.0066719735
74	0x3f26449e	0.6494845
75	0xbe5bbbae	-0.21458313
76	0xbeba7ea8	-0.36424756
77	0xbd9d068c	-0.07667264
78	0xbe5c35d4	-0.21504909
79	0xbf2dbe57	-0.6786856
80	0x3eb67eab	0.35643515
81	0xbef2ba37	-0.47407696
82	0xc02145f4	-2.5198946
83	0xbf0775de	-0.52914226
84	0x3d7cd7ab	0.061729115
85	0xbf2f30e6	-0.6843399
86	0xbe2699a2	-0.16269544
87	0x3dc5bde7	0.096553616
88	0xbf6674fd	-0.9002226
89	0x3eaf3e76	0.3422734
90	0xbf80d896	-1.0066097
91	0x3ebbac1d	0.3665475
92	0x3e8be07e	0.2731971
93	0xbd2bb7b8	-0.041923255
94	0x3ec86a0f	0.39143416
95	0x3f4401e7	0.765654
96	0x3ea6bd88	0.32566476
97	0x3e140388	0.14454472
98	0xbedfd1f1	-0.4371486
99	0x3e2fd610	0.17171502
100	0x3e1e619f	0.15466927
101	0xbdfddb2e	-0.12395321
102	0xbd9f32ed	-0.07773385
103	0x3e1a901e	0.15094039
104	0xbe8f2b5e	-0.27962774
105	0x3e1345a3	0.14382033
106	0xbe45c282	-0.1931248
107	0x3ea1d453	0.31607303
108	0xbe06f49e	-0.13179252
109	0xbfab2c77	-1.3372945
110	0x3f0605d5	0.5235265
111	0x3d8319dd	0.064014174
112	0x3de9aa1a	0.114093974
113	0xbeb00038	-0.34375167
114	0x3f052667	0.5201172
115	0xbf0c7ca1	-0.5487767
116	0x3e8b8af5	0.27254453
117	0xbe205421	-0.15657093
118	0x3e281c87	0.16417132
119	0x3f013b17	0.5048079
120	0xbf2c6174	-0.673362
121	0x3eceefa3	0.40417203
122	0x3f654db2	0.8957168
123	0x3c50082b	0.01269726
124	0xbb1fc996	-0.002438163
125	0x3e0c6acc	0.13712615
126	0x3c6678c6	0.014066881
127	0x3e098244	0.13428599
128	0xbc2aad10	-0.010417238
129	0x3ca3711a	0.019951392
130	0x3e8661c8	0.26246476
131	0x3d655024	0.05598463
132	0xbe28c2ab	-0.1648051
133	0x3db177ad	0.086654045
134	0xbe9cfed3	-0.30663165
135	0x3e486409	0.1956941
136	0xbe921f72	-0.28539616
137	0x3d3f1d33	0.046658706
138	0xbe49b4a3	-0.19697814
139	0x3ec1ae8c	0.3782848
140	0x3d0df262	0.034654982
141	0x3e5f6289	0.21814932
142	0x3e2d1c93	0.16905431
143	0xbe65f3ee	-0.22456333
144	0x3d568b98	0.05237922
145	0xbeb65c1d	-0.35617152
146	0xbd1ca49b	-0.038242918
147	0x3dba12a1	0.090855844
148	0x3e1683b7	0.14698683
149	0x3e6f5228	0.23371184
150	0x3d2207e1	0.039558295
151	0x3e9283c4	0.28616154
152	0x3f0f1a05	0.5589908
153	0x3e163190	0.14667344
154	0xbf0d4ac9	-0.5519224
155	0x3e8dc417	0.27688667
156	0x3bf03e91	0.0073316772
157	0xbde4f483	-0.111794494
158	0x3e1c15c4	0.15242678
159	0x3e036051	0.1282971
160	0x3e17f199	0.14838256
161	0xbe2eee3b	-0.17083065
162	0x3c3224b1	0.010873006
163	0x3e8f462b	0.2798322
164	0xbc450ee5	-0.012027477
165	0x3e3a110c	0.18170565
166	0xbe0e2c73	-0.13884144
167	0xbd480928	-0.048836857
168	0x3e070402	0.13185123
169	0xbcb243db	-0.021760872
170	0x3e1cb49a	0.15303269
171	0xbd8ca53d	-0.06867454
172	0xb9c9a32e	-0.00038459286
173	0x3dea8096	0.11450307
174	0x3dc52105	0.096254386
175	0xbe90292d	-0.28156415
176	0x3e9b0520	0.30277348
177	0x3e07be5f	0.13256215
178	0x3dc69846	0.096970126
179	0xbdaae021	-0.083435304
180	0x3ebb331d	0.36562434
181	0xbe6560db	-0.22400229
182	0xbd82df30	-0.06390226
183	0x3e6a51f2	0.22882822
184	0x3f0afd47	0.5429272
185	0x3dc2e1e7	0.09515744
186	0x3efe0efd	0.4962081
187	0x3e1ef785	0.15524109
188	0x3eb0ec6c	0.34555376
189	0x3df64918	0.1202566
190	0x3ca4f09f	0.020134268
191	0x3e8c456e	0.2739672
192	0x3e9f938d	0.3116726
193	0x3daa3f0a	0.08312805
194	0x3e07cce8	0.1326176
195	0x3eb79f02	0.358635
196	0x3dcc2aa6	0.09969072
197	0xbe12ede0	-0.14348555
198	0x3e406111	0.18787028
199	0xbddafbb5	-0.106925406
200	0x3e4dd539	0.20100869
201	0xbd3068c1	-0.04306865
202	0x3d2a79bf	0.041620012
203	0xbd494178	-0.0491347
204	0x3e308ab6	0.17240414
205	0xbea93230	-0.33046103
206	0xbdbd78b3	-0.09251537
207	0x3e11afdf	0.14227246
208	0x3e0d4f51	0.13799788
209	0xbd87dff0	-0.066345096
210	0x3d921581	0.07133008
211	0xbda9071e	-0.082533106
212	0x3e697f79	0.22802533
213	0xbe93da35	-0.28877416
214	0x3e9a7f7b	0.30175385
215	0x3ca68025	0.020324776
216	0x3ef09152	0.4698587
217	0xbc185b61	-0.00929913
218	0xbe20c5ce	-0.15700457
219	0x3e5e4ffc	0.21710199
220	0xbe002b4e	-0.1251652
221	0xbcbbb5dd	-0.022913868
222	0x3d8f32ed	0.06992135
223	0x3f0f48cb	0.5597045
224	0x3f56a52d	0.8384579
225	0x3d3af7e4	0.045646563
226	0x3e4a99f4	0.19785291
227	0xbfa8fde3	-1.320248
228	0xbdd4b2d0	-0.10385668
229	0xbef87bcf	-0.48531958
230	0xbfcc4269	-1.5957767
231	0xbfaf0e77	-1.3676289
232	0xbe269963	-0.1626945
233	0x3d8469b4	0.06465474
234	0x3ea5833b	0.32326683
235	0xbf055122	-0.52076924
236	0xc00be739	-2.1859877
237	0x3defe253	0.1171309
238	0xbe1a31b0	-0.15058017
239	0xbe340489	-0.17579855
240	0x3f2d5754	0.6771138
241	0xbf1a583e	-0.60290897
242	0xbef023a7	-0.469022
243	0xbfb12fd8	-1.3842726
244	0xc147cf13	-12.488055
245	0x3d7e614c	0.06210451
246	0x3d05a970	0.03263229
247	0x3ed05b20	0.40694523
248	0x3fa54551	1.2911779
249	0xbf9b4de1	-1.2133142
250	0xbf1ed490	-0.62043095
251	0x3eebc4af	0.46048495
252	0x3dcd2667	0.1001709
253	0xbc2e51f1	-0.010639654
254	0x3e18117b	0.14850418
255	0xbf34b815	-0.70593387

layer_5.bias f4 [16]
0	0x400f6064	2.2402582
1	0x3fe59ce5	1.7938505
2	0xbf732cd5	-0.94990283
3	0xc02766ab	-2.6156414
4	0x400d2376	2.2052894
5	0x400ef785	2.2338574
6	0x3ffe295d	1.9856373
7	0xbf346773	-0.7047035
8	0x3f177f93	0.5917904
9	0x4011b907	2.2769182
10	0xbfe3b278	-1.7788839
11	0x401dc909	2.4653952
12	0xc01acbd6	-2.4186912
13	0x4001400f	2.0195348
14	0xbf7ce574	-0.9878762
15	0xbea1e20d	-0.31617776

layer_est.weight f4 [32, 16]
0	0x3ceb3610	0.028712302
1	0x3d3d8d08	0.046277076
2	0xbe4c93cc	-0.19978255
3	0xbe7f37aa	-0.24923578
4	0xbd048be8	-0.032359987
5	0xbe1d4df2	-0.15361765
6	0xbded82e4	-0.11597231
7	0x3b945a80	0.00452739
8	0xbd126630	-0.035741985
9	0xbdfee3c0	-0.124457836
10	0x3e324ef4	0.1741293
11	0xbdaa79fc	-0.08324048
12	0xbd2c7d80	-0.042111874
13	0x3db46774	0.088087946
14	0x3e1f4662	0.15554193
15	0x3e3ee9ee	0.18643925
16	0xbc2819c0	-0.0102600455
17	0xbdebad58	-0.11507672
18	0xbe37f602	-0.17964938
19	0x3d1126a0	0.035437226
20	0xbe4b045e	-0.19825885
21	0x3d574fa0	0.05256617
22	0x3e194302	0.14966968
23	0xbe47e00e	-0.19519064
24	0xbda960b8	-0.08270401
25	0xbcfe6630	-0.031054586
26	0x3cc54070	0.024078578
27	0x3dbbb7a8	0.09165889
28	0xbda28e24	-0.079372674
29	0xbe2b7c3e	-0.16746613
30	0x3e5efb50	0.21775556
31	0xbe2dbfc6	-0.16967687
32	0x3e05014c	0.12988776
33	0x3e73f640	0.23824406
34	0xbe00274a	-0.12514988
35	0x3e04cb6c	0.12968224
36	0xbe354586	-0.17702302
37	0x3e61f876	0.22067437
38	0xbdf9a78c	-0.1219016
39	0xbe6c2d58	-0.23064172
40	0xbe66347a	-0.22480956
41	0xbddb85c0	-0.1071887
42	0x3e7681c2	0.24072936
43	0x3e255fca	0.16149822
44	0x3e5836a2	0.21114591
45	0x3e71e08c	0.23620814
46	0x3d30d3c0	0.04317069
47	0xbd56f4f8	-0.052479714
48	0x3a568a00	0.0008184016
49	0x3d9d736c	0.076880306
50	0xbe570856	-0.20999274
51	0xbba51840	-0.005038291
52	0x3cda0410	0.026613265
53	0x3e272d5e	0.163259
54	0xbe51faf8	-0.20505893
55	0xbe28c8fa	-0.16482916
56	0x3e22a05c	0.15881485
57	0x3e13560e	0.14388296
58	0x3d1323a8	0.035922676
59	0x3da92404	0.082588226
60	0x3de78018	0.11303729
61	0xbe174f38	-0.14776313
62	0xbc43f540	-0.011960328
63	0x3ce0b440	0.0274297
64	0xbe520336	-0.20509037
65	0x3e7785ea	0.24172178
66	0x3e224c62	0.1584945
67	0x3d10e048	0.03537014
68	0x3e480e8c	0.19536799
69	0x3d59e118	0.05319318
70	0x3e256a36	0.16153798
71	0x3da2aaa4	0.07942703
72	0xbe61a798	-0.22036588
73	0xbd88b218	-0.06674594
74	0xbe753928	-0.23947585
75	0x3dd2bfac	0.10290465
76	0x3cc99d50	0.024611145
77	0x3e21ad8a	0.15788856
78	0x3d6a06d8	0.057135433
79	0x3e0654e0	0.13118315
80	0x3dea2db8	0.114345014
81	0x3e188984	0.14896208
82	0xbd53fe20	-0.051756024
83	0xbd95189c	-0.072800845
84	0xbdffafd8	-0.124847114
85	0x3dd407d8	0.103530586
86	0x3e09abbe	0.1344442
87	0x3da00ddc	0.078151435
88	0x3e589d94	0.21153861
89	0x3e769278	0.24079311
90	0x3e4d71f0	0.20062995
91	0x3e4b6fa0	0.198668
92	0xbd826204	-0.06366351
93	0x3e62aed8	0.2213701
94	0x3e03bcce	0.12864992
95	0x3e362f74	0.1779154
96	0xbd2f1e70	-0.042753637
97	0x3e3e1b50	0.18565106
98	0xbe4fde72	-0.202997
99	0x3e2179aa	0.15769067
100	0xbd1f4680	-0.038885593
101	0x3e13793e	0.14401719
102	0xbdf08db8	-0.11745781
103	0xbe50cc5a	-0.20390454
104	0xbe11b49c	-0.14229053
105	0xbda89e84	-0.082333595
106	0xbd955024	-0.07290676
107	0x3e6403fe	0.22267148
108	0xbd0f5e60	-0.035002112
109	0x3e0a8a9e	0.13529441
110	0xbd2364d0	-0.039891064
111	0x3dc13740	0.09434366
112	0xbe558936	-0.20853123
113	0x3db8b09c	0.090180606
114	0x3e457b2e	0.1928527
115	0x3dd68764	0.104750425
116	0x3d89abe4	0.06722239
117	0xbe652a64	-0.22379452
118	0xbe4125a4	-0.18862015
119	0xbb9b9340	-0.004747778
120	0x3e52b050	0.2057507
121	0xbde90d28	-0.113794625
122	0xbd8494f8	-0.06473726
123	0xbdff8e6c	-0.12478337
124	0x3e5a3362	0.21308663
125	0x3cdebcf0	0.027189702
126	0xbe280468	-0.16407931
127	0xbe075f2e	-0.13219902
128	0xbe6ee948	-0.23331177
129	0x3e51ec56	0.20500311
130	0x3e69865c	0.2280516
131	0x3dc4b244	0.09604314
132	0xbe7f61fa	-0.24939719
133	0x3ca717b0	0.020397037
134	0x3d88a784	0.06672576
135	0xbdc04008	-0.09387213
136	0x3e5e4d66	0.21709213
137	0x3c93b8b0	0.018032402
138	0x3d66b610	0.056325972
139	0x3d85f8d0	0.06541598
140	0x3def0394	0.11670604
141	0x3d8e07b4	0.06935063
142	0x3d4959e8	0.049158007
143	0x3dae6fd0	0.0851742
144	0x3de1160c	0.10990533
145	0xbe38b64e	-0.18038294
146	0x3e5696d0	0.20955968
147	0x3e373ce4	0.17894322
148	0x3d6d71c0	0.05796981
149	0xbd91c954	-0.071184784
150	0x3dd275f0	0.10276401
151	0x3e73db2c	0.23814076
152	0x3e75ebf8	0.24015796
153	0xbe584458	-0.21119821
154	0x3e7ced4a	0.24699894
155	0x3e43c150	0.19116712
156	0xbe13de86	-0.14440355
157	0x3d8029d4	0.06257978
158	0x3e5bb200	0.2145462
159	0xbd8e5e34	-0.069515616
160	0x3dd7c198	0.10534972
161	0x3d3e34a8	0.046436936
162	0xbe413062	-0.18866113
163	0x3e328a8a	0.17435661
164	0xbd163dd0	-0.036680043
165	0xbd5b8690	-0.053595126
166	0x3e171c02	0.14756778
167	0x3dcd9b0c	0.100393385
168	0xbde5f1b4	-0.11227742
169	0x3e160ef6	0.14654145
170	0x3e336c16	0.175217
171	0xbe123990	-0.14279771
172	0x3d5dc108	0.054139167
173	0xbd36b018	-0.04460153
174	0x3caa87e0	0.020816743
175	0xbda56bbc	-0.08077189
176	0xbe4e9b54	-0.2017644
177	0xbe44278a	-0.19155708
178	0x3d13c4b8	0.036076277
179	0xbd34a968	-0.04410687
180	0x3e288804	0.16458136
181	0xbde10c38	-0.10988659
182	0x3dba2964	0.09089926
183	0x3e4d95de	0.20076701
184	0xbe72a9a0	-0.2369752
185	0x3d193490	0.037403643
186	0x3d992f68	0.07479745
187	0xbe02a872	-0.1275957
188	0x3e796b18	0.2435726
189	0xbd47e7d0	-0.048805058
190	0x3e754ac6	0.23954305
191	0xbdba58e4	-0.09098986
192	0xbcf02870	-0.029316157
193	0xbd92ddf8	-0.071712434
194	0x3c778c80	0.015109181
195	0xbdcf1cb4	-0.101128966
196	0x3da59ef4	0.080869585
197	0x3d8ee7b0	0.06977785
198	0x3e374384	0.17896849
199	0xbe660046	-0.22461042
200	0xbe39dc1a	-0.18150368
201	0x3d7d3ae0	0.061823726
202	0x3e7ab43c	0.24482816
203	0xbdad6330	-0.08466184
204	0x3d062100	0.032746315
205	0xbd0aa928	-0.033852726
206	0x3e1319da	0.1436533
207	0xbd0ff2e0	-0.035143733
208	0xbe5b8d26	-0.21440563
209	0x3d495a80	0.049158573
210	0xbd7652f8	-0.06013772
211	0xbd71d5e8	-0.059041888
212	0xbe5b82f0	-0.21436667
213	0xbd8a9fcc	-0.0676876
214	0x3d16b7a8	0.036796242
215	0x3e45271e	0.19253203
216	0xbcfa9ad0	-0.030591398
217	0xbc189180	-0.009312034
218	0x3c910be0	0.017705858
219	0xbe787ebe	-0.24267098
220	0x3d15bcc8	0.03655699
221	0x3e07ff94	0.13281089
222	0x3da64d90	0.081202626
223	0xbdc81c60	-0.09771037
224	0xbd0540b8	-0.032532424
225	0xbd593ac0	-0.053034544
226	0x3d70db00	0.058802605
227	0xbcf8d000	-0.03037262
228	0x3df45a8c	0.11931333
229	0x3db914c8	0.09037167
230	0x3dde8d0c	0.10866746
231	0xbdcc8fc0	-0.09988356
232	0xbe671ada	-0.22568837
233	0x3de5c42c	0.112190574
234	0x3e6a9d72	0.22911623
235	0x3d8b59bc	0.06804225
236	0xbd3ef3e0	-0.046619296
237	0xbe7decf4	-0.24797422
238	0x3e542ac2	0.20719436
239	0x3e763cde	0.24046656
240	0x3d1b1828	0.037864834
241	0x3d246db8	0.0401437
242	0x3e53bc66	0.20677337
243	0xbe634c6c	-0.22197121
244	0xbe497f48	-0.1967746
245	0x3ca73620	0.020411551
246	0xbe16dcc2	-0.1473265
247	0xbd0b2e78	-0.033979863
248	0x3c89bf20	0.016814768
249	0xbe44fb0a	-0.19236389
250	0x3cb39bf0	0.021924943
251	0xbe065d82	-0.13121608
252	0x3d8e4288	0.069462836
253	0x3e14a004	0.14514166
254	0x3d5dd068	0.05415383
255	0xbe513368	-0.20429766

layer_est.bias f4 [32]
0	0x3ddf1a60	0.108937025
1	0x3d403430	0.04692477
2	0x3d5e2eb0	0.054243743
3	0x3ddde680	0.1083498
4	0x3db03f34	0.08605805
5	0x3cfba840	0.030719876
6	0x3ce3caa0	0.02780658
7	0xbe24eb88	-0.16105473
8	0x3d5a2ec8	0.05326727
9	0xbe3839fa	-0.17990866
10	0xbde3e0d0	-0.11126864
11	0xbe4c5c92	-0.19957188
12	0x3d0ea8f0	0.03482908
13	0xbda43cc8	-0.080194056
14	0x3e5f61e0	0.2181468
15	0xbe5f5a3a	-0.21811762
16	0xbd893a70	-0.06700599
17	0x3e6467c6	0.22305211
18	0x3d65e6f0	0.056128442
19	0xbe6a99c4	-0.2291022
20	0xbe1c6e60	-0.1527648
21	0x3e22eee4	0.15911442
22	0xbe7b0bd2	-0.24516228
23	0xbe2b11ee	-0.16706058
24	0x3d30ad10	0.043133795
25	0x3e28678e	0.16445753
26	0x3e54b8c2	0.20773605
27	0x3e0699d2	0.13144615
28	0xbe1f8fbc	-0.15582174
29	0x3e60d586	0.21956453
30	0xbd30f088	-0.04319814
31	0xbe010d98	-0.12602842

layer_inf.weight f4 [1, 16]
0	0x3e98d6a8	0.2985127
1	0x3e020e7e	0.12700841
2	0xbf04efb8	-0.5192828
3	0xbeea4476	-0.45755357
4	0x3e8bdfb1	0.273191
5	0x3ed5e1c4	0.41773808
6	0x3f223d76	0.6337503
7	0xbf2a3252	-0.6648303
8	0xbe560014	-0.20898467
9	0x3ed5dfff	0.41772458
10	0xbef9b1e4	-0.48768532
11	0x3ea7ed78	0.32798362
12	0xbeba3e3b	-0.36375603
13	0x3ecbd1b1	0.3980842
14	0xbe1460ae	-0.14490005
15	0xbcb66080	-0.022262812
