saved_models/qpsk_HeuristicNet_nt20.pkl (torch, 936415 bytes, 13 tensors)

layer_1.weight f4 [128, 1720]
-0.018397726 -0.022840029 0.01267376 0.021705808 0.012895396 0.025623519 0.008733408 0.0059642815
0.012672203 0.007209653 0.005220661 0.012305955 -0.023060638 -0.041466482 -0.008330097 0.031424418
-0.060444098 0.029720478 -0.016196553 -0.0026048215 -0.0028982824 -0.040444598 -0.004003578 0.007403166
-0.0010890929 0.2095709 0.014289885 0.033938933 0.01673362 -0.025303675 -0.051508483 -0.031239513
-0.07031369 -0.0035032963 0.034644406 -0.099430986 -0.016031645 0.04337808 -0.0376006 -0.034845494
-0.05400155 0.09779612 0.1718106 -0.0302963 0.0018404382 0.00019040241 -0.16035394 -0.054664705
0.07903699 -0.02913196 -0.05261661 -0.051918298 0.0030932932 -0.0717575 -0.12376246 0.0706852
-0.035014667 0.087067164 -0.023989826 0.03113136 0.013763702 0.052480694 0.058847155 0.03934047
-0.118974395 -0.014291104 -0.0521168 -0.020797893 -0.13009559 0.17358285 0.051985346 0.07071926
0.061403517 0.028029963 -0.01961844 0.025931668 0.03989739 -0.05997879 0.0021642244 -0.05297985
0.015933821 0.016716495 0.032639448 0.03921798 -0.016631901 0.013253337 -0.18058719 -0.1626233
-0.017618956 0.07894574 0.024895826 -0.029624319 -0.13099505 0.033147458 -0.048499502 -0.022300733
-0.1740936 -0.048305325 0.10294971 -0.019841133 -0.028344883 0.26581973 -0.029705772 -0.07253114
0.04153647 -0.014020406 -0.0995167 0.09681847 -0.05669759 0.035337485 -0.09896529 -0.04554644
0.16791183 0.047731474 0.012419796 0.008785327 -0.032481678 0.08854341 0.08942129 0.006200184
0.020332238 -0.017820802 -0.004568074 -0.08735894 -0.020440204 0.018812494 0.019615848 0.059276074
0.079175726 0.0775134 0.0062588076 0.033480138 -0.117866546 -0.03595546 0.12613752 -0.009596786
0.19410805 -0.022173116 0.04299787 -0.046515297 0.12972067 0.025642624 0.08778583 0.1515912
-0.010995859 -0.1380672 0.05286147 0.010382779 -0.014681826 -0.08140122 -0.031412892 0.041819002
-0.04692167 0.090413205 -0.10333267 -0.028072102 0.00637008 0.1583976 -0.0047172024 0.062496305
0.006370973 -0.013242093 0.019887319 -0.012876744 0.048748173 -0.09291972 -0.008671478 -0.1624086
-0.021048764 -0.25323024 -0.040052645 0.17710109 -0.041648123 -0.062696084 0.079604276 0.020975722
0.06913168 0.06367161 -0.027250666 -0.051247224 -0.073679715 -0.08855228 0.12729625 0.15659916
-0.038846634 0.03446279 0.0035716763 -0.095814005 0.07783871 -0.07117928 -0.09308374 -0.09070357
0.052823238 0.0103485035 -0.16316114 0.11594779 0.080909416 -0.02322542 -0.062280025 -0.036008853
-0.009314252 0.014385534 0.013006864 -0.013462772 0.025241904 -0.0946023 0.05356276 -0.13992208
-0.009931772 -0.011315237 0.118183516 -0.12995437 0.07542262 -0.012666892 -0.054327685 -0.060841292
0.025355918 -0.13394323 0.013506501 -0.19982651 -0.0043119295 0.14300245 -0.048504237 0.036188036
0.008925999 0.011150239 -0.07031011 0.0023964494 0.09062329 0.14496465 -0.14806816 0.024513049
0.098762594 -0.08824664 -0.055040155 0.029492836 0.04269461 0.033786148 0.09718054 0.10485442
-0.014267762 0.002632752 -0.012391063 -0.011776033 -0.0042885114 -0.056777313 0.10586795 0.055688646
0.0564627 -0.013967972 0.05942796 -0.0144543825 -0.061822202 -0.04572046 -0.029040294 0.10169759
00000000: d4b6 96bc 031b bbbc 9aa5 4f3c 61d0 b13c
00000010: 3647 533c 6ae8 d13c 9116 0f3c 0570 c33b
00000020: 129f 4f3c f43e ec3b 1412 ab3b eb9e 493c
00000030: aae9 bcbc c2d8 29bd f67a 08bc e4b6 003d
00000040: 3b94 77bd 5c78 f33c a2ae 84bc a7b5 2abb
00000050: 1cf1 3dbb 3ca9 25bd 7230 83bb 4296 f23b
00000060: e5bf 8eba c199 563e 1f20 6a3c 8d03 0b3d
00000070: f214 893c a749 cfbc 8ffa 52bd 02ea ffbc
00000080: a000 90bd 8f97 65bb 4be7 0d3d 79a2 cbbd
00000090: cc54 83bc 37ad 313d 1603 1abd 26ba 0ebd
000000a0: bb30 5dbd 5549 c83d 1eef 2f3e f22f f8bc
000000b0: dc3a f13a c2a6 4739 d333 24be 19e8 5fbd
000000c0: 25de a13d 26a6 eebc 8484 57bd 48a8 54bd
000000d0: d9b8 4a3b 99f5 92bd 2c77 fdbd 67c3 903d
000000e0: 8a6b 0fbd 4550 b23d 5086 c4bc 3207 ff3c
000000f0: 2681 613c fff5 563d b709 713d 7923 213d
00000100: d9a8 f3bd 3c25 6abc 6d78 55bd 5860 aabc
00000110: c737 05be b4bf 313e 96ee 543d 42d5 903d
00000120: 4182 7b3d 189f e53c dab6 a0bc a66e d43c
00000130: 726b 233d 52ac 75bd a9d5 0d3b 6601 59bd
00000140: a587 823c 08f1 883c f1b0 053d 08a3 203d
00000150: a03f 88bc 8624 593c d9eb 38be b986 26be
00000160: a155 90bc 4eae a13d 55f2 cb3c b3ae f2bc
00000170: 9123 06be a1c5 073d 6aa7 46bd 07b0 b6bc
00000180: 9845 32be cedb 45bd 4cd7 d23d df89 a2bc
00000190: 8733 e8bc 8619 883e 8559 f3bc 358b 94bd
000001a0: 2522 2a3d d8b5 65bc 69cf cbbd c348 c63d
000001b0: bb3b 68bd 0abe 103d 50ae cabd e78e 3abd
000001c0: 14f1 2b3e 1482 433d 667c 4b3c 55f0 0f3c
000001d0: 820b 05bd 3f56 b53d 8222 b73d ea2a cb3b
000001e0: cb8f a63c eefc 91bc c8af 95bb 3ee9 b2bd
000001f0: 3772 a7bc a91c 9a3c 6ab1 a03c 78cb 723d
00000200: e226 a23d 58bf 9e3d af16 cd3b 7822 093d
00000210: 0464 f1bd 0846 13bd 322a 013e d73b 1dbc
00000220: 43c4 463e 65a4 b5bc 891e 303d d386 3ebd
00000230: 7fd5 043e 7b10 d23c 0fc9 b33d b93a 1b3e
00000240: fa27 34bc 7d61 0dbe 4585 583d 881c 2a3c
00000250: 0b8c 70bc afb5 a6bd ceaa 00bd 674a 2b3d
00000260: f030 40bd 8f2a b93d 14a0 d3bd 77f7 e5bc
00000270: 1bbc d03b fb32 223e c392 9abb 20fc 7f3d
00000280: 98c3 d03b 5df5 58bc bbea a23c fbf8 52bc
00000290: 2aac 473d b24c bebd d112 0ebc 714e 26be
000002a0: 756e acbc 65a7 81be 3e0e 24bd fd59 353e
000002b0: 3997 2abd ce66 80bd 9107 a33d 47d5 ab3c
000002c0: e994 8d3d 4366 823d ca3c dfbc 9ce8 51bd
000002d0: 64e5 96bd e65a b5bd f359 023e 885b 203e
000002e0: a61d 1fbd db28 0d3d c912 6a3b 223a c4bd
000002f0: e769 9f3d 71c6 91bd b0a2 bebd cbc2 b9bd
00000300: 2e5d 583d c58c 293c b713 27be 0976 ed3d
00000310: d6b3 a53d 3c43 bebc 5719 7fbd 057e 13bd
00000320: ce9a 18bc 4eb1 6b3c be1a 553c f592 5cbc
00000330: 1cc8 ce3c dabe c1bd a064 5b3d bc47 0fbe
00000340: dfb8 22bc 8b63 39bc 330a f23d c212 05be
00000350: 2d77 9a3d cc88 4fbc b586 5ebd b834 79bd
00000360: 37b7 cf3c 6a28 09be 5f4a 5d3c 529f 4cbe
00000370: 164b 8dbb 3c6f 123e 61ac 46bd e839 143d
00000380: 5a3e 123c 7eaf 363c bffe 8fbd c00d 1d3b
00000390: b498 b93d 9d71 143e 2e9f 17be 97cf c83c
000003a0: 0b44 ca3d a8ba b4bd c971 61bd f69a f13c
000003b0: 8be0 2e3d 5863 0a3d 9706 c73d eabd d63d
000003c0: 55c3 69bc 408a 2c3b e303 4bbc 43f0 40bc
000003d0: a486 8cbb 548f 68bd 4cd1 d83d c719 643d
000003e0: 6f45 673d ecd9 64bc bc6a 733d 13d2 6cbc
000003f0: 4739 7dbd 6145 3bbd e9e5 edbc d346 d03d

layer_1.bias f4 [128]
-11.272513 -2.7020655 -3.21944 -4.2752934 -3.6335416 -6.50065 -2.9642782 -4.2446566
-8.158758 -5.669768 -4.257806 -5.8441124 -0.070649795 -2.6758857 -3.8277445 -5.6325746
-1.5727714 -11.1753025 -5.7288437 -2.5749745 -4.618477 -4.8836837 -1.5395917 -3.6429427
-5.4085164 -1.0898396 -4.8400817 -1.664773 -0.9404672 -3.1697502 -1.0906624 -14.2551985
-5.424523 -1.7335893 -14.067007 -3.749119 -8.796619 -7.772485 -1.4898051 -0.50070995
-1.363801 -4.4916353 -7.3192987 -0.6404859 -6.2607408 -4.9078875 -11.666689 -4.6099725
-11.265508 -7.471973 -0.45002782 0.119674474 -1.879766 -4.182419 -5.1329713 -5.1576467
-2.5629933 -2.13059 -6.2985597 -10.424236 -0.44610804 -2.8609054 -5.1444645 -6.9208255
-5.1763754 -4.147515 -3.3488827 -4.823094 -9.137865 -13.824009 -2.396118 -1.0132469
-1.6053016 -7.522798 -4.750175 -0.46805474 -3.3844554 -4.680689 0.38455263 -4.2857523
-4.950405 -0.85288507 -5.49608 -3.253732 -4.9409103 -8.578507 -1.0481108 -1.0845195
-7.5828648 -6.4830575 -4.580677 -3.3624291 -1.011808 0.25313866 -0.90088284 -4.19687
-3.7164226 -4.2983785 -3.4319348 -0.37336677 0.069424026 -5.0936184 0.2237017 -4.491576
-6.7386217 -3.2748137 -1.7196047 -5.525581 -2.230865 -4.6104035 -2.2047515 -1.0458415
-3.2260816 -2.5115862 -1.7027719 -7.2789297 -5.43968 -0.5359503 -4.6067333 -10.269368
-6.5854173 -3.8112388 -2.3237457 -0.1823087 0.41133037 -6.2493687 -0.045383524 -7.002571
00000000: 375c 34c1 a4ee 2cc0 4e0b 4ec0 34cf 88c0
00000010: f28b 68c0 5305 d0c0 bcb6 3dc0 3ad4 87c0
00000020: 468a 02c1 bd6e b5c0 f23f 88c0 f802 bbc0
00000030: d7b0 90bd b641 2bc0 c4f9 74c0 0d3e b4c0
00000040: 9350 c9bf 0ace 32c1 b052 b7c0 62cc 24c0
00000050: 90ca 93c0 2347 9cc0 5711 c5bf f925 69c0
00000060: 9112 adc0 dd7f 8bbf f3e1 9ac0 4817 d5bf
00000070: 75c2 70bf 30dd 4ac0 d39a 8bbf 4b15 64c1
00000080: b195 adc0 41e6 ddbf 7612 61c1 91f1 6fc0
00000090: f4be 0cc1 32b8 f8c0 efb1 bebf 872e 00bf
000000a0: 0891 aebf 7abb 8fc0 b237 eac0 e2f6 23bf
000000b0: fd57 c8c0 6a0d 9dc0 c2aa 3ac1 e584 93c0
000000c0: 853f 34c1 671a efc0 0c6a e6be e417 f53d
000000d0: 2c9c f0bf 60d6 85c0 4d41 a4c0 710b a5c0
000000e0: 1508 24c0 965b 08c0 cd8d c9c0 acc9 26c1
000000f0: 4668 e4be 1319 37c0 749f a4c0 6777 ddc0
00000100: dea4 a5c0 71b8 84c0 1854 56c0 c956 9ac0
00000110: b234 12c1 242f 5dc1 ff59 19c0 13b2 81bf
00000120: 867a cdbf c3ba f0c0 6f01 98c0 dfa4 efbe
00000130: eb9a 58c0 34c8 95c0 15e4 c43e e224 89c0
00000140: b869 9ec0 ad56 5abf e3df afc0 253d 50c0
00000150: f01b 9ec0 9141 09c1 7f28 86bf 89d1 8abf
00000160: d4a6 f2c0 3575 cfc0 e894 92c0 0a32 57c0
00000170: ed82 81bf 649b 813e 42a0 66bf c24c 86c0
00000180: ded9 6dc0 518c 89c0 d2a4 5bc0 ee29 bfbe
00000190: 2f2e 8e3d ecfe a2c0 0f12 653e feba 8fc0
000001a0: caa2 d7c0 8c96 51c0 021c dcbf 8fd1 b0c0
000001b0: 7ec6 0ec0 6d88 93c0 a61a 0dc0 22de 85bf
000001c0: 1f78 4ec0 d4bd 20c0 6ef4 d9bf feec e8c0
000001d0: dc11 aec0 0a34 09bf 5c6a 93c0 554f 24c1
000001e0: bdbb d2c0 56eb 73c0 40b8 14c0 22af 3abe
000001f0: e599 d23e d4fa c7c0 13e4 39bd 1015 e0c0

layer_2.weight f4 [64, 128]
0.29945365 -0.12572502 -0.004455752 -0.4339131 0.102660924 0.03973953 -0.027551403 -0.060670532
0.4728088 -4.922004 -0.24326038 -0.040890746 0.010469633 0.007089131 -0.012128243 -0.033158723
0.29561955 0.94598496 -0.2621246 0.0118637085 0.12247351 -0.14561825 0.22749935 0.13938786
0.006586542 -0.17231274 0.10888856 -0.23853394 -0.501096 -0.025296623 0.022874527 0.3731865
0.6187667 0.19551536 0.31011504 -0.067970455 -0.31953925 1.9729201 -0.24163558 1.8328724
-0.079320766 0.10699781 -0.05457693 -0.060687587 0.16041976 0.09439527 0.5889784 -0.26456654
0.16219206 0.029552614 1.8759739 -0.4734563 -0.1269705 -0.1998056 0.6219006 -0.7018871
-0.13967969 -0.015301004 -0.35278425 -6.764943 0.0748982 -0.16995448 -0.47755438 -0.96204114
-0.10870316 -0.7190591 0.31829083 0.10111642 -0.03637141 0.5342145 -0.125378 1.7553388
-0.01002408 -0.080312036 -0.26320148 0.025803786 -0.06596807 -0.6728455 -0.31730175 -0.5529914
-0.18345375 -0.30943346 0.09616773 0.0141161075 0.11854463 0.00032482907 1.689918 -0.23570424
0.21988513 -0.008944785 -0.028350908 -0.8084284 0.0010948591 0.092159614 -0.4913945 -0.026071064
-0.10039547 -0.82089734 0.053737134 0.07635858 -0.4995429 -0.058749795 0.02056824 -0.301749
-0.041034583 0.09528253 -0.08789144 0.29531842 0.2675382 0.059789523 0.018259855 -0.3019633
0.03709845 0.08622506 0.29058582 -0.10904672 -0.3209173 -0.041690502 -0.6256523 -0.13080014
0.15564251 -0.0875229 -0.029872771 0.042763732 -0.3089097 -0.08399487 0.12755615 -0.072264075
-0.21498069 0.013636714 -0.01985446 -0.0435561 -0.08470871 -0.07696231 -0.045174148 -0.09829206
-0.05256406 -0.040600993 0.0344361 -0.008018385 -0.16389172 -0.069957055 -0.21548364 -0.051285196
-0.12998047 -0.029599292 -0.16873448 0.010313065 -0.08013748 -0.10698433 -0.044135608 -0.014006804
-0.06583736 -0.026319312 -0.073168054 -0.047822334 -0.069274046 -0.099736296 -0.029371243 -0.049217265
-0.18406181 -0.10806359 -0.042178433 -0.061057806 -0.1432627 -0.06761251 -0.20563625 -0.15623564
-0.22226195 0.02458368 -0.062885106 -0.17677452 -0.06403456 -0.044027153 -0.094067544 -0.09241393
-0.070249945 -0.017859641 -0.02380291 -0.0143617755 0.022894543 -0.023445552 -0.2184923 0.0010124107
-0.027232924 -0.0130120525 -0.21297477 -0.03965658 0.013790705 0.03265692 -0.009646701 -0.10127507
0.00831088 -0.12504794 -0.27716282 -0.110728525 -0.075479984 -0.05311539 0.04128034 -0.07248294
-0.07441595 -0.046351157 -0.108292736 -0.01886909 -0.21222422 0.0029067344 0.0119077945 -0.055312797
-0.032547332 0.009403359 -0.027740251 -0.09990162 -0.15977159 -0.06205277 -0.0376548 0.01993635
-0.023470076 -0.03296152 -0.017192094 -0.0038541483 -0.015977535 0.027868023 -0.018994365 -0.2090985
-0.14730512 -0.02713925 -0.10867412 0.054430638 -0.092994645 -0.033079352 -0.12891537 -0.19114994
-0.03245317 -0.02553786 -0.13649252 -0.087591425 -0.08805436 -0.045347642 -0.090497985 0.01720346
-0.024440393 -0.044913232 -0.08745862 0.0024642288 -0.20232698 -0.115722984 -0.05544435 -0.098845996
-0.01758113 -0.16928175 -0.031201432 -0.10805115 -0.04554109 -0.00492435 -0.15610631 -0.13166569
00000000: fd51 993e 0fbe 00be 8f01 92bb dc29 debe
00000010: e43f d23d ebc5 223d 7bb3 e1bc aa81 78bd
00000020: ff13 f23e 0f81 9dc0 4019 79be 0e7d 27bd
00000030: d388 2b3c f14b e83b 8ab5 46bc 71d1 07bd
00000040: 725b 973e 122c 723f 3235 86be 0060 423c
00000050: 64d3 fa3d f31c 15be 97f5 683e b1bb 0e3e
00000060: ebd3 d73b c072 30be f700 df3d 3e42 74be
00000070: d447 00bf dd3a cfbc 5c63 bb3c 4d12 bf3e
00000080: 7f67 1e3f 2e35 483e 66c7 9e3e 1834 8bbd
00000090: a69a a3be a588 fc3f 516f 77be 909b ea3f
000000a0: ed72 a2bd ab21 db3d 0f8c 5fbd 8c93 78bd
000000b0: 1445 243e 4f52 c13d 4ac7 163f 4475 87be
000000c0: ad15 263e 5318 f23c ea1f f03f dd68 f2be
000000d0: 8e04 02be d799 4cbe e134 1f3f dfae 33bf
000000e0: 3108 0fbe 10b1 7abc 23a0 b4be 6a7a d8c0
000000f0: 3a64 993d 8c08 2ebe 0282 f4be 5448 76bf
00000100: c39f debd 4214 38bf 04f7 a23e 2016 cf3d
00000110: 30fa 14bd 48c2 083f 1763 00be f1ae e03f
00000120: 0a3c 24bc a37a a4bd 58c2 86be 7662 d33c
00000130: 441a 87bd 9a3f 2cbf 6075 a2be d890 0dbf
00000140: 4ddb 3bbe 106e 9ebe 96f3 c43d 3f47 673c
00000150: 87c7 f23d d24d aa39 3c4f d83f 745c 71be
00000160: 9129 613e 268d 12bc 2a40 e8bc 2af5 4ebf
00000170: 6081 8f3a 2ebe bc3d 0f98 fbbe fc92 d5bc
00000180: 249c cdbd 5426 52bf 781b 5c3d e361 9c3d
00000190: 16c4 ffbe a0a3 70bd ba7e a83c d87e 9abe
000001a0: e113 28bd 7d23 c33d 6d00 b4bd fa33 973e
000001b0: c4fa 883e dce5 743d b195 953c ef9a 9abe
000001c0: 8bf4 173d c496 b03d aac7 943e e353 dfbd
000001d0: 464f a4be a9c3 2abd c02a 20bf 79f0 05be
000001e0: c060 1f3e 353f b3bd beb7 f4bc 0629 2f3d
000001f0: 6a29 9ebe 8105 acbd 149e 023e 30ff 93bd
00000200: e623 5cbe 866c 5f3c d2a5 a2bc e267 32bd
00000210: c37b adbd 6a9e 9dbd 8708 39bd 594d c9bd
00000220: 694d 57bd 3a4d 26bd de0c 0d3d 8b5f 03bc
00000230: 3bd3 27be a545 8fbd bea7 5cbe 6d10 52bd
00000240: 9a19 05be 377a f2bc bbc8 2cbe 21f8 283c
00000250: 1e1f a4bd 9a1a dbbd 8ac7 34bd cb7c 65bc
00000260: bdd5 86bd 999b d7bc 22d9 95bd 5ae1 43bd
00000270: 8ddf 8dbd 8b42 ccbd f69b f0bc 0b98 49bd
00000280: b37a 3cbe 7250 ddbd 4bc3 2cbd c017 7abd
00000290: 75b3 12be 6d78 8abd 4f92 52be 3cfc 1fbe
000002a0: a398 63be b763 c93c e8c9 80bd 6104 35be
000002b0: 8d24 83bd d155 34bd 7ca6 c0bd 8443 bdbd
000002c0: 34df 8fbd 624e 92bc 52fe c2bc a74d 6bbc
000002d0: 568d bb3c e310 c0bc 72bc 5fbe deb2 843a
000002e0: 9517 dfbc 8130 55bc 0f16 5abe f06e 22bd
000002f0: 69f2 613c 43c3 053d 320d 1ebc 4e69 cfbd
00000300: 5b2a 083c 910c 00be 49e8 8dbe a3c5 e2bd
00000310: 4095 9abd 868f 59bd 9315 293d f071 94bd
00000320: 6467 98bd b6da 3dbd 95c8 ddbd 5a93 9abc
00000330: 4e51 59be e97e 3e3b e918 433c ac8f 62bd
00000340: 5a50 05bd 8c10 1a3c 863f e3bc 3899 ccbd
00000350: 2a9b 23be 0c2b 7ebd eb3b 1abd 8e51 a33c
00000360: 5144 c0bc a902 07bd 6fd6 8cbc e195 7cbb
00000370: 52e3 82bc 7b4b e43c 129a 9bbc eb1d 56be
00000380: 27d7 16be 2253 debc 8990 debd a9f2 5e3d
00000390: fa73 bebd 377e 07bd 6402 04be cfbc 43be
000003a0: 9ded 04bd c634 d1bc b2c4 0bbe 2263 b3bd
000003b0: d855 b4bd 73be 39bd 0257 b9bd 45ee 8c3c
000003c0: 3837 c8bc f0f6 37bd 811d b3bd e67e 213b
000003d0: ce2e 4fbe 2c00 edbd 9d19 63bd c56f cabd
000003e0: 4d06 90bc 3258 2dbe 259a ffbc ec49 ddbd
000003f0: 4b89 3abd 715c a1bb 55da 1fbe 5fd3 06be

layer_2.bias f4 [64]
-0.39687797 0.5543384 0.5628805 13.0843525 0.7127628 -8.002157 -5.335757 0.6868076
0.6073647 0.5253735 0.73872596 7.7543 1.5417594 0.93863344 1.0958791 0.62045527
-4.215046 1.0670176 -0.039282285 -0.9689337 0.6357675 3.733647 -0.067889966 -0.15205836
2.423172 0.6990017 1.2889726 0.9217494 0.80489063 0.6220086 -1.5895957 -8.472545
1.2454294 0.9100334 1.0985624 1.063569 -3.8133285 1.82086 -0.62842983 -6.856584
0.42638883 0.9920322 -2.0984275 0.44221324 1.110025 2.038667 0.27431428 -6.896086
0.7726755 -0.046929892 1.0313282 0.45789 2.0911894 0.5595331 -0.10963812 0.44515035
-1.9198253 -7.7213535 0.86793655 -0.48059237 -3.6552105 9.537312 0.44211164 0.65214974
00000000: 9733 cbbe 1fe9 0d3f f018 103f 8259 5141
00000010: 9f77 363f d608 00c1 85be aac0 9fd2 2f3f
00000020: 417c 1b3f e17e 063f 251d 3d3f 3a23 f840
00000030: 5f58 c53f 484a 703f c445 8c3f 28d6 1e3f
00000040: a8e1 86c0 0894 883f 76e6 20bd 0a0c 78bf
00000050: a9c1 223f 13f4 6e40 e509 8bbd 30b5 1bbe
00000060: 4015 1b40 c7f1 323f 0efd a43f c5f7 6b3f
00000070: 500d 4e3f f53b 1f3f df77 cbbf 8b8f 07c1
00000080: 3b6a 9f3f f3f7 683f b19d 8c3f 0723 883f
00000090: 930d 74c0 f111 e93f c7e0 20bf 2369 dbc0
000000a0: a34f da3e d2f5 7d3f a34c 06c0 c669 e23e
000000b0: 4d15 8e3f 8579 0240 ec72 8c3e bdac dcc0
000000c0: 10ce 453f 8f39 40bd 9002 843f 8f70 ea3e
000000d0: 0cd6 0540 903d 0f3f f389 e0bd bfea e33e
000000e0: d6bc f5bf 5415 f7c0 1731 5e3f 3410 f6be
000000f0: f8ee 69c0 d498 1841 755c e23e 49f3 263f

layer_3.weight f4 [32, 64]
0.011902085 -0.15250164 -0.24031442 -0.049155265 -0.02937208 0.033899367 -0.16437374 0.0030615756
-0.10548417 -0.08803915 -0.17540237 -1.3729883 0.15079671 -0.04355895 -0.17534292 0.10203224
-0.16892576 0.106575504 -0.13244562 5.8314963e-05 0.075361684 -0.013027299 -0.00012415324 -0.007928926
-0.18446429 -0.015356307 0.014276409 0.076954216 0.004644466 -0.31841257 -0.026686775 -0.1808653
-0.32890466 0.022104524 0.03856935 0.084031686 -0.08910099 -0.104523316 0.012009647 -0.05586497
-0.061559208 0.092765525 -0.0826398 0.015671393 -0.13230929 -0.17136468 0.055561636 -0.20222123
-0.06404163 0.11629013 -0.12982379 -0.062812835 0.38403437 0.06626386 -0.16693686 0.03311343
-1.2035878 -0.7307189 0.082076944 0.07396814 0.02216797 -0.092518285 -0.026760437 -0.03273801
-0.00031241478 -0.0049364413 -0.10932893 -0.047626853 -0.09610942 -0.07006684 -0.08571023 0.0103330845
0.02868526 -0.0012595223 -0.026710082 -0.024852028 -0.13699085 -0.014667143 -0.019284012 -0.06488948
-0.10077665 -0.21766908 -0.08987636 -0.06249377 -0.03377515 -0.01886633 0.013865123 0.0016502716
-0.11628108 0.0763232 0.0058067096 -0.020220157 0.064066835 0.15736121 0.012232427 -0.010635341
-0.104223385 -0.10627398 -0.0014727991 -0.006134719 0.038892433 -0.0070693544 -0.006565477 -0.017993819
-0.10291201 -0.08716457 -0.016906882 -0.091594994 -0.111443095 0.005423961 -0.032959383 0.55789596
-0.04426711 0.03127457 0.07068819 -0.02282907 -0.0024065396 -0.070103705 -0.082055956 -0.0900144
-0.07497518 0.0033410883 -0.008522768 -0.041267406 0.10539573 0.08066128 0.06642972 -0.04136486
-0.006507536 0.06849667 -0.1534369 -0.07700736 -0.14299296 -0.26829842 -0.15228342 -0.065553516
-0.053729746 -0.12882623 -0.06562071 0.022015622 -0.16019829 -0.06588075 0.04450581 -0.06430969
0.121039 0.04290535 0.038319297 -0.036691368 -0.08980837 -0.28025025 -0.45095494 -0.0045002443
-0.022249531 -0.048627358 -0.07719061 -0.15669401 0.040964935 0.026961965 -0.06181402 -0.078365535
-0.016832823 -0.14151728 -0.113643736 0.06852437 -0.24180715 -0.12503195 -0.15566665 -0.085320525
-0.038479336 0.112719916 -0.042492397 -0.10590561 -0.12800628 -0.07936422 -0.17552708 -0.030345932
-0.006387034 0.026152851 -0.18288861 -0.0043600798 -0.15441838 0.07588521 -0.04643497 0.09886114
-0.21987475 -0.12622513 -0.1387349 -0.22897443 -0.2660295 -0.21999466 -0.020311933 -0.01321173
-0.2226694 0.049888574 -0.12509398 -1.1496998 0.040700432 -0.48621613 0.15706763 -0.11214752
-0.069271006 -0.21727175 -0.14750531 0.102349766 -0.5043871 -0.1250236 0.05367882 0.02761657
0.1156969 -0.042041276 0.068680055 -0.016944572 -0.066157356 -0.023078231 -0.046097796 -0.18413845
0.006708274 0.040986203 -0.11155096 0.026544703 -0.02307268 -0.061046977 -0.027807096 -1.4470037
-0.22297253 -0.0419571 0.07382692 -0.0242992 -0.016742457 -0.11034195 -0.018961035 -0.33409524
-0.07927812 0.088862926 -0.09129955 -0.023520174 0.049528826 -0.0526611 -0.049004123 -0.20847805
-0.015510385 -0.13904499 -0.10842863 -0.08759764 -0.071162395 -0.02366218 -0.097287096 -0.08656104
0.24384032 -1.2445102 -0.01539262 -0.06373208 -0.2318344 0.03641606 0.16855983 -0.064475276
00000000: f600 433c 6429 1cbe fc14 76be 0857 49bd
00000010: b79d f0bc 10da 0a3d 9751 28be b7a4 483b
00000020: 1608 d8bd df4d b4bd ae9c 33be 15be afbf
00000030: 746a 1a3e df6a 32bd 188d 33be 47f6 d03d
00000040: e0fa 2cbe 4244 da3d d39f 07be 3797 7438
00000050: 3a57 9a3d 7470 55bc 222f 02b9 53e8 01bc
00000060: 35e4 3cbe 0599 7bbc 99e7 693c 2c9a 9d3d
00000070: 9b30 983b f906 a3be 399e dabc c134 39be
00000080: 3166 a8be 8c14 b53c e5fa 1d3d ce18 ac3d
00000090: 947a b6bd 5210 d6bd 1cc4 443c abd2 64bd
000000a0: 8225 7cbd dafb bd3d 0e3f a9bd 4b61 803c
000000b0: 167c 07be 397a 2fbe 9994 633d 1513 4fbe
000000c0: 4228 83bd 8529 ee3d 87f0 04be 04a4 80bd
000000d0: 27a0 c43e 59b5 873d 7ff1 2abe f3a1 073d
000000e0: 2a0f 9abf 6510 3bbf f517 a83d 9c7c 973d
000000f0: 9a99 b53c 3a7a bdbd b438 dbbc 4b18 06bd
00000100: 9acb a3b9 dfc1 a1bb d9e7 dfbd 6014 43bd
00000110: 04d5 c4bd 347f 8fbd d888 afbd 194c 293c
00000120: 5afd ea3c 8e16 a5ba 1acf dabc 7b96 cbbc
00000130: 5447 0cbe 754e 70bc 81f9 9dbc c7e4 84bd
00000140: fd63 cebd a5e4 5ebe 1911 b8bd 78f9 7fbd
00000150: d057 0abd 908d 9abc 8a2a 633c ed4d d83a
00000160: c624 eebd 564f 9c3d 3646 be3b bea4 a5bc
00000170: 7935 833d 4c23 213e 846a 483c da3f 2ebc
00000180: 1273 d5bd 2ca6 d9bd f00a c1ba c105 c9bb
00000190: ac4d 1f3d 0ba6 e7bb 3623 d7bb c667 93bc
000001a0: 88c3 d2bd 5783 b2bd 4d80 8abc 2896 bbbd
000001b0: 473c e4bd 7cbb b13b 6b00 07bd 45d2 0e3f
000001c0: 6e51 35bd c319 003d f8c4 903d 0804 bbbc
000001d0: 09b7 1dbb 8892 8fbd f40c a8bd 7859 b8bd
000001e0: 968c 99bd 29f6 5a3b 14a3 0bbc 0308 29bd
000001f0: b7d9 d73d be31 a53d 4e0c 883d 336e 29bd
00000200: 2b3d d5bb fb47 8c3d 901e 1dbe 09b6 9dbd
00000210: bf6c 12be 695e 89be 2ff0 1bbe ec40 86bd
00000220: b913 5cbd 06eb 03be 2764 86bd 1b5a b43c
00000230: 050b 24be 7dec 86bd b94b 363d ccb4 83bd
00000240: 4ce3 f73d 85bd 2f3d b2f4 1c3d b049 16bd
00000250: 73ed b7bd f67c 8fbe 91e3 e6be c976 93bb
00000260: a644 b6bc 7b2d 47bd 1c16 9ebd 6574 20be
00000270: d9ca 273d 57df dc3c b330 7dbd 1c7e a0bd
00000280: fde4 89bc e8e9 10be 0cbe e8bd 8156 8c3d
00000290: 4b9c 77be 6008 00be 1467 1fbe 87bc aebd
000002a0: 829c 1dbd b3d9 e63d 820c 2ebd 0ae5 d8bd
000002b0: 1414 03be b589 a2bd 5fbd 33be 0898 f8bc
000002c0: 534a d1bb 813e d63c 2747 3bbe 00df 8ebb
000002d0: da1f 1ebe b469 9b3d 9832 3ebd b677 ca3d
000002e0: d926 61be 2941 01be 8610 0ebe 4678 6abe
000002f0: 0535 88be 4846 61be 3665 a6bc 0376 58bc
00000300: 7203 64be f657 4c3d a318 00be 5d29 93bf
00000310: 7fb5 263d 52f1 f8be 56d6 203e 99ad e5bd
00000320: f5dd 8dbd 7c7c 5ebe a20b 17be c19c d13d
00000330: 831f 01bf 3006 00be 53de 5b3d 253c e23c
00000340: 7ff2 ec3d 7933 2cbd 21a8 8c3d 58cf 8abc
00000350: 827d 87bd 8f0e bdbc 0bd1 3cbd ca8e 3cbe
00000360: 15d1 db3b 26e1 273d d474 e4bd 4774 d93c
00000370: eb02 bdbc 650c 7abd b5cb e3bc 6b37 b9bf
00000380: e952 64be 35db 2bbd 9132 973d 1e0f c7bc
00000390: 7a27 89bc f6fa e1bd 2c54 9bbc 880e abbe
000003a0: 915c a2bd c4fd b53d 42fb babd 61ad c0bc
000003b0: bdde 4a3d 2ab3 57bd 8cb8 48bd 457b 55be
000003c0: 451f 7ebc cf61 0ebe d40f debd 6466 b3bd
000003d0: 97bd 91bd 30d7 c1bc 753e c7bd ea46 b1bd
000003e0: 47b1 793e 1c4c 9fbf 5431 7cbc f785 82bd
000003f0: ff65 6dbe 0229 153d f39a 2c3e 9d0b 84bd

layer_3.bias f4 [32]
-2.1705112 0.3962223 -0.201267 0.8983763 -1.7552273 -0.06285181 -2.3994403 2.6071522
-0.43034738 -0.8655583 -0.6343673 -4.888634 -1.2595701 0.42870066 -2.068746 3.3857968
-0.941085 -2.8275113 3.6253734 -0.66515166 5.9019885 5.381231 -0.2781418 -0.3452759
-0.3928416 -3.668433 -0.14626639 -0.24400267 -1.1528314 2.5930767 -0.30888203 0.6161016
00000000: a8e9 0ac0 a6dd ca3e f018 4ebe fdfb 653f
00000010: 4aab e0bf 73b8 80bd 6e90 19c0 95db 2640
00000020: 7e56 dcbe 3b95 5dbf e565 22bf b16f 9cc0
00000030: 9839 a1bf a77e db3e 5666 04c0 e5b0 5840
00000040: f2ea 70bf f2f5 34c0 1e06 6840 6147 2abf
00000050: 17dd bc40 0b33 ac40 9a68 8ebe 01c8 b0be
00000060: 8922 c9be 9bc7 6ac0 dbc6 15be d6db 79be
00000070: fb8f 93bf f8f4 2540 c925 9ebe d6b8 1d3f

layer_4.weight f4 [32, 32]
-1.3605616 0.11248369 -0.010575981 -1.421772 0.05397647 -0.27800694 -0.63413465 0.007800955
0.49133545 -0.55642986 0.24780656 0.15766782 -0.05870393 0.019563239 -0.17401691 -2.6191463
-0.13032326 -0.5866802 -1.8205521 -0.5920079 -2.7736118 -0.43819383 -0.0372158 -0.16945353
0.075676404 -0.07037783 -0.14029965 0.109634005 -0.085129224 -0.12740286 -0.062013693 -17.21582
-1.0522348 0.38817486 -0.12059068 0.10979937 -0.34829855 0.117226526 -0.13912103 0.06513516
-0.080490984 0.003299308 -0.030519236 -0.21154532 -0.028736439 -0.2367456 -0.085049555 -0.10498778
-0.03580433 -0.47432086 0.036636394 -0.2411497 -1.1626769 0.17422834 0.11596799 0.089030564
0.16266099 0.07259186 0.24425143 0.07173118 -0.48753393 -2.6093585 0.36189458 -1.5765845
-0.16454685 -0.08881551 -0.13515349 -0.09382157 0.28003085 -0.023181759 -0.4924522 -6.173485
-0.21364242 -0.13763925 -0.061879184 -0.032414332 -0.08990735 -0.056082986 -0.49283108 -0.26882172
-0.13591239 -0.27900898 0.14393279 -0.1327012 -0.23231517 -0.16325738 -0.090973176 0.035641633
0.081530586 -0.16699396 -0.15240318 -0.023096832 -0.091485836 -0.1696516 0.16350041 -0.13313584
-0.036724195 -0.16272478 -0.021027451 -0.439747 0.07198736 0.027141925 -0.3915395 0.069965474
0.07277487 -0.34155896 -0.012331958 -0.22386259 -0.17574404 0.033155855 0.123034716 -0.6989303
0.08353894 0.037066363 -0.23624997 0.41915417 -0.23510152 0.08433048 -0.25438583 -0.029266309
-0.008573208 0.28774947 0.07823386 -0.0068955533 -0.110148676 -0.06178742 0.10445459 -0.2565151
-0.059865 0.046088073 0.03917841 0.08230023 0.008721446 0.035702642 -0.048128694 0.11314297
-0.02338352 -0.13889784 -0.09236188 -0.076248676 0.030000696 -0.13483673 -0.0037255413 -0.14943305
0.031779807 0.011397804 -0.1306905 0.035647083 -0.13666993 0.18749538 -0.007052599 -0.11223904
0.15736568 0.0642074 -0.0026391502 -0.09432671 -0.12508304 -0.15294814 0.0071031963 -0.09596517
-0.011071232 -0.063523486 -0.0059990096 -0.09820995 -0.02642494 0.050149832 -0.03842735 0.009805312
-0.06560025 0.007967443 0.17018005 -0.06994091 0.082501836 -0.025017157 -0.018229019 -0.02544374
-0.07468292 0.05851427 -0.06925833 0.07812335 -0.085043274 0.004716733 0.1540047 0.10439742
-0.14952973 0.048073027 -0.054464553 -0.08843505 -0.15416397 0.056788925 -0.0006366829 0.14596544
0.058809463 -0.101275966 0.10935061 -0.5621472 -0.4835307 -0.92836434 -2.4274747 -0.34905446
0.558857 -4.5536137 0.44492686 -1.7692242 -2.7980096 -0.24027203 0.41056198 -0.14287949
-0.14143021 0.21661477 -0.5809593 -2.9022274 -1.3597022 -0.19467296 -0.6321428 0.08387698
-0.13030985 -1.0117257 0.0067435154 -0.057985496 0.098257005 0.048513893 -0.5078107 0.16421741
0.028565694 -0.037538085 0.11126667 -7.7786155 0.0669059 0.13599828 0.0222325 -0.20105687
-0.16250534 0.14171717 -0.26848304 -0.016843172 -0.012649018 0.3947859 -0.05879834 -0.09633417
-0.076074526 0.375928 -0.16524453 -0.025190894 0.03071436 -0.36871198 -0.59807575 0.053964928
0.11240786 0.18601605 0.06152931 0.08088416 0.14386933 -0.20195478 -0.18742543 -0.2358325
00000000: e226 aebf d95d e63d e146 2dbc a0fc b5bf
00000010: 6e16 5d3d ed56 8ebe a656 22bf 279f ff3b
00000020: 5290 fb3e 3072 0ebf 01c1 7d3e ac73 213e
00000030: 8873 70bd 1643 a03c 7d31 32be 18a0 27c0
00000040: 7673 05be ac30 16bf da07 e9bf d48d 17bf
00000050: db82 31c0 f15a e0be 986f 18bd 3a85 2dbe
00000060: 3bfc 9a3d 4022 90bd b6aa 0fbe cb87 e03d
00000070: 3b58 aebd e575 02be 1202 7ebd 00ba 89c1
00000080: a1af 86bf dbbe c63e 3ff8 f6bd 7ede e03d
00000090: 3054 b2be 7614 f03d be75 0ebe 9565 853d
000000a0: 75d8 a4bd 3439 583b 7a03 fabc 569f 58be
000000b0: ae68 ebbc 706d 72be 762e aebd d503 d7bd
000000c0: 90a7 12bd 2fda f2be 0b10 163d f2ef 76be
000000d0: 99d2 94bf ea68 323e a080 ed3d a855 b63d
000000e0: 9a90 263e 0bab 943d 0c1d 7a3e cce7 923d
000000f0: 0c9e f9be bbff 26c0 3f4a b93e 85cd c9bf
00000100: f87e 28be e8e4 b5bd ad65 0abe 8625 c0bd
00000110: 3460 8f3e ace7 bdbc b222 fcbe 308d c5c0
00000120: 14c5 5abe 4ef1 0cbe 0775 7dbd e4c4 04bd
00000130: 5821 b8bd 46b7 65bd 5b54 fcbe 00a3 89be
00000140: 9e2c 0bbe 44da 8ebe 1e63 133e d3e2 07be
00000150: 07e4 6dbe f12c 27be 2550 babd f6fc 113d
00000160: 82f9 a63d 7700 2bbe 940f 1cbe 9135 bdbc
00000170: ed5c bbbd 26b9 2dbe a76c 273e c354 08be
00000180: 1c6c 16bd 53a1 26be c341 acbc 8526 e1be
00000190: 1c6e 933d be58 de3c de77 c8be 0f4a 8f3d
000001a0: fe0a 953d d1e0 aebe fb0b 4abc 3c3c 65be
000001b0: 3ff6 33be 6fce 073d a0f9 fb3d 19ed 32bf
000001c0: 7716 ab3d e6d2 173d 83eb 71be 609b d63e
000001d0: 74be 70be 75b5 ac3d dc3e 82be e6bf efbc
000001e0: a476 0cbc e653 933e 1339 a03d 18f4 e1bb
000001f0: a195 e1bd ce14 7dbd 4aec d53d f255 83be
00000200: 0135 75bd d9c6 3c3d 8a79 203d 068d a83d
00000210: 65e4 0e3c ef3c 123d 9822 45bd 80b7 e73d
00000220: cc8e bfbc 3c3b 0ebe 3a28 bdbd 4428 9cbd
00000230: 05c4 f53c a412 0abe 3628 74bb fa04 19be
00000240: 8b2b 023d dbbd 3a3c bbd3 05be ad02 123d
00000250: 34f3 0bbe cafe 3f3e 7d19 e7bb 95dd e5bd
00000260: 7824 213e 2b7f 833d 98f5 2cbb 5d2e c1bd
00000270: c515 00be 709e 1cbe eec1 e83b 6389 c4bd
00000280: 1d64 35bc 9a18 82bd 5793 c4bb 4c22 c9bd
00000290: 1e79 d8bc e969 4d3d ff65 1dbd 76a6 203c
000002a0: 6d59 86bd e189 023c ae43 2e3e 2e3d 8fbd
000002b0: b9f6 a83d c8f0 ccbc 0655 95bc 646f d0bc
000002c0: 5cf3 98bd a9ac 6f3d 50d7 8dbd 23ff 9f3d
000002d0: 2b2b aebd d38e 9a3b 68b3 1d3e 51ce d53d
000002e0: 521e 19be 39e8 443d 3916 5fbd 6f1d b5bd
000002f0: 29dd 1dbe 819b 683d 11e7 26ba f777 153e
00000300: 31e2 703d c669 cfbd 36f3 df3d e1e8 0fbf
00000310: 5691 f7be 49a9 6dbf bf5b 1bc0 44b7 b2be
00000320: 4111 0f3f 34b7 91c0 74cd e33e f075 e2bf
00000330: 9712 33c0 df09 76be 2e35 d23e 004f 12be
00000340: 15d3 10be 43d0 5d3e c0b9 14bf 18be 39c0
00000350: b90a aebf 5958 47be 1cd4 21bf b2c7 ab3d
00000360: f26f 05be 3a80 81bf b5f8 dc3b 3382 6dbd
00000370: f83a c93d 81b6 463d e2ff 01bf 9c28 283e
00000380: 9a02 ea3c 89c1 19bd c8df e33d 6bea f8c0
00000390: f605 893d 2243 0b3e ef20 b63c dae1 4dbe
000003a0: cd67 26be 4e1e 113e 9c76 89be b1fa 89bc
000003b0: d43d 4fbc 6121 ca3e 87d6 70bd d94a c5bd
000003c0: f6cc 9bbd a379 c03e dd35 29be 225d cebc
000003d0: ae9c fb3c d1c7 bcbe 7e1b 19bf 540a 5d3d
000003e0: 1836 e63d fe7a 3e3e 2806 7c3d 98a6 a53d
000003f0: 7b52 133e 3ccd 4ebe 74ec 3fbe 137e 71be

layer_4.bias f4 [32]
-0.3821483 -1.0370171 2.0094879 2.1273477 2.5664093 2.5637002 -1.2132279 2.1855311
2.6185436 1.015485 -2.7153916 -3.591995 2.821095 1.1999238 2.7428968 1.5309658
2.378893 2.8144288 1.5659816 2.6912327 2.6499338 -2.6682317 -2.7722797 2.60744
-2.5656826 -0.29236954 1.5301802 0.8085827 -0.34193432 2.3751554 2.379431 2.6912322
00000000: f1a8 c3be fabc 84bf 739b 0040 7726 0840
00000010: 0d40 2440 aa13 2440 0d4b 9bbf bedf 0b40
00000020: 3896 2740 6afb 813f fac8 2dc0 3fe3 65c0
00000030: d28c 3440 1a97 993f 9f8b 2f40 b0f6 c33f
00000040: c83f 1840 9a1f 3440 1672 c83f 283d 2c40
00000050: 8498 2940 4fc4 2ac0 086d 31c0 4ce0 2640
00000060: 2534 24c0 76b1 95be f2dc c33f 47ff 4e3f
00000070: 0412 afbe 8c02 1840 9948 1840 263d 2c40

layer_5.weight f4 [16, 32]
0.05269585 -0.04121557 -0.9791769 0.041786823 -0.06025097 -0.109907985 0.0662853 -0.08438158
-0.38620976 0.2748393 0.13674207 -0.19480748 -0.14255114 -0.13299362 -0.48833779 0.15964024
0.23459083 -0.023749419 -0.21180983 0.097767 -0.24272497 0.28286788 0.7421322 -0.39682654
-0.08278434 0.009527638 -0.023694606 -0.1558229 -0.14240243 -0.29016453 0.06313899 -0.25997123
0.5435407 -1.0186467 -0.824327 -1.9013748 0.62542236 -2.7874315 0.14185932 -0.7275706
1.3563466 -0.19474785 0.07213866 -0.29936942 0.13274112 -0.2700107 -2.9565418 0.12841107
-0.958458 -0.62442803 0.35114744 1.0316743 0.026299626 -2.0217087 0.24022473 -0.07995254
-1.0888991 0.14721546 -0.2950205 -4.1846886 -0.8553586 -0.2594903 -0.37128377 -0.8574
-0.03318269 0.1557724 0.29982913 -0.6478661 -0.2500177 -0.33899537 -0.10289713 -0.08011319
0.28566203 -0.4653361 0.15903485 0.27374795 -0.07782761 -0.039241496 -0.14388716 -0.04224071
-2.186113 -1.0745096 -0.18114153 -0.1948786 -0.64395946 0.3948166 -1.90201 -0.37005344
0.16466445 -0.2611328 -0.035310302 -0.07107991 -0.013332089 0.21975933 0.024357311 -0.124034345
0.24314426 -0.21446468 -0.28785917 -0.05227919 0.31399933 0.5231603 -1.3048042 -0.017560406
0.03566428 -0.8812388 -0.29578236 -0.76132697 -0.0057849796 -0.30375838 -0.08415783 1.4814459
0.15227081 -1.3320237 0.7921686 -0.2946985 0.73413885 -0.028471585 0.051882446 0.13650751
-0.915646 0.30688375 -0.036909964 -0.25135708 0.053513095 -0.32043126 -0.31753162 0.24275413
-0.12382078 -0.20627236 -0.5245407 -0.7148917 -0.43659678 0.031147178 -0.4327492 0.4712731
0.2947598 0.25678608 -0.08464318 -0.34392923 0.1507669 -0.23289327 -0.8676161 -0.4728456
-0.062473394 -0.053958718 -0.0808546 -0.05199589 0.47075084 -0.6847072 0.27773333 0.3114395
-0.62250817 -0.3381659 -0.073343225 -0.25885573 0.09249495 0.06673424 -0.37253904 -0.27547193
1.8905317 0.37228328 1.0339149 -0.4936893 -0.60094696 -0.41024193 -1.2415565 0.3681645
0.8409262 -0.42604393 0.617267 0.25268105 0.08595867 0.07705469 -0.63017505 -1.0126959
-3.830792 -0.5126993 0.83851 0.60923845 -1.6022052 0.77764 0.77311987 -0.19469489
-0.13122725 0.18955219 0.023040917 -0.04605636 -0.06029081 0.34225866 -0.0016076749 -0.032750607
0.13570988 0.22981691 0.3365918 0.13874143 0.20494708 0.2971193 -0.049010012 0.20133129
0.32387075 -0.13159806 -0.24881661 -0.20812356 0.21164419 0.22380665 0.34843087 0.15522508
-0.09503113 0.47958824 0.21431036 0.21728754 0.5225624 -0.15443246 -0.18810481 0.32267576
-0.87456936 0.2298631 0.14645648 0.17676751 0.289424 0.1802481 0.19741248 0.4019912
-0.21215773 -0.26817143 0.37411276 -1.890098 -2.5125513 -0.5195358 0.20376222 0.3494658
0.09761427 -0.10441142 -0.41989845 -0.30369267 0.022611886 0.8247935 0.21204628 0.7438087
-0.98061746 0.30925363 -0.7606122 -1.3974706 -0.90121084 0.35005817 0.026926091 0.35822338
-0.28464678 0.29942614 0.5328133 -0.07507496 -0.68231034 0.43998018 -0.12068769 -1.2558974
00000000: 9bd7 573d a8d1 28bd 56ab 7abf a928 2b3d
00000010: b9c9 76bd 7017 e1bd 96c0 873d 40d0 acbd
00000020: 49bd c5be bdb7 8c3e 1d06 0c3e 9d7b 47be
00000030: edf8 11be 7b2f 08be 6907 fabe bb78 233e
00000040: 9438 703e 248e c2bc ade4 58be 113a c83d
00000050: e58c 78be 0fd4 903e 60fc 3d3f d92c cbbe
00000060: d68a a9bd cf19 1c3c 311b c2bc 0a90 1fbe
00000070: f1d1 11be 7290 94be 044f 813d f31a 85be
00000080: 7c25 0b3f 0463 82bf 1807 53bf 4060 f3bf
00000090: ae1b 203f 4765 32c0 9243 113e 1142 3abf
000000a0: c49c ad3f fb6b 47be 6fbd 933d f346 99be
000000b0: 4aed 073e d83e 8abe fb37 3dc0 317e 033e
000000c0: 815d 75bf 84da 1fbf 99c9 b33e e70d 843f
000000d0: 5072 d73c ad63 01c0 79fd 753e 28be a3bd
000000e0: 0c61 8bbf a6bf 163e ed0c 97be f8e8 85c0
000000f0: c8f8 5abf eadb 84be e818 bebe 917e 5bbf
00000100: 93ea 07bd cd82 1f3e 3483 993e 8dda 25bf
00000110: 5202 80be cd90 adbe bbbb d2bd 6212 a4bd
00000120: 4b42 923e 8940 eebe 08da 223e b128 8c3e
00000130: 1564 9fbd b1bb 20bd 2857 13be 9804 2dbd
00000140: 47e9 0bc0 8889 89bf 2a7d 39be 418e 47be
00000150: 87da 24bf 6725 ca3e 1075 f3bf a577 bdbe
00000160: cc9d 283e 33b3 85be 89a1 10bd 5892 91bd
00000170: d66e 5abc 9708 613e fc88 c73c b805 febd
00000180: cffa 783e a19c 5bbe 4762 93be b422 56bd
00000190: 85c4 a03e d5ed 053f d303 a7bf d7da 8fbc
000001a0: b514 123d de98 61bf c970 97be 53e6 42bf
000001b0: ed8f bdbb 3886 9bbe f15a acbd 05a0 bd3f
000001c0: e1ec 1b3e c17f aabf 90cb 4a3f b9e2 96be
000001d0: 86f0 3b3f 3e3d e9bc b082 543d a0c8 0b3e
000001e0: c767 6abf de1f 9d3e e72e 17bd e0b1 80be
000001f0: 8c30 5b3d 910f a4be 8193 a2be 8a94 783e
00000200: c095 fdbd 1039 53be 4d48 06bf 2403 37bf
00000210: 9d89 dfbe 5e28 ff3c 4e91 ddbe b54a f13e
00000220: c2ea 963e 7779 833e 6759 adbd 7e17 b0be
00000230: a362 1a3e 937b 6ebe 171c 5ebf d218 f2be
00000240: 1ae4 7fbd d103 5dbd 1997 a5bd a4f9 54bd
00000250: 4106 f13e f948 2fbf 1033 8e3e 0075 9f3e
00000260: b25c 1fbf 1524 adbe f934 96bd bd88 84be
00000270: fe6d bd3d f6ab 883d 70bd bebe a80a 8dbe
00000280: f1fc f13f ea9b be3e 5357 843f d8c4 fcbe
00000290: a9d7 19bf 3b0b d2be 53eb 9ebf 0f80 bc3e
000002a0: f046 573f 6e22 dabe 3605 1e3f 695f 813e
000002b0: 190b b03d d9ce 9d3d 2753 21bf 05a0 81bf
000002c0: b22b 75c0 4340 03bf 97a8 563f 0df7 1b3f
000002d0: 0f15 cdbf 6a13 473f 2feb 453f 195e 47be
000002e0: 7060 06be f819 423e 4ec0 bc3c 98a5 3cbd
000002f0: 7ff3 76bd 873c af3e 9eb8 d2ba 8025 06bd
00000300: 88f7 0a3e 2055 6b3e c355 ac3e 3c12 0e3e
00000310: a6dd 513e 0520 983e b9be 48bd ca29 4e3e
00000320: 63d2 a53e a4c1 06be c8c9 7ebe 581e 55be
00000330: 41b9 583e 922d 653e 8865 b23e 53f3 1e3e
00000340: ae9f c2bd 978c f53e 2d74 5b3e a080 5e3e
00000350: a6c6 053f 8b23 1ebe 8c9e 40be c235 a53e
00000360: c7e3 5fbf 3c61 6b3e b0f8 153e 8b02 353e
00000370: 622f 943e f592 383e 7f26 4a3e cad1 cd3e
00000380: e03f 59be c44d 89be b58b bf3e bbee f1bf
00000390: a4cd 20c0 4c00 05bf 0ba7 503e 2eed b23e
000003a0: fee9 c73d a8d5 d5bd eefc d6be 9b7d 9bbe
000003b0: 903c b93c ab25 533f a922 593e 3f6a 3e3f
000003c0: bf09 7bbf 7e56 9e3e 7bb7 42bf 51e0 b2bf
000003d0: c1b5 66bf d33a b33e 1b94 dc3c 0e69 b73e
000003e0: 39bd 91be 624e 993e 7466 083f e7c0 99bd
000003f0: e4ab 2ebf 1545 e13e 1c2b f7bd 3fc1 a0bf

layer_5.bias f4 [16]
3.0966415 0.35644975 -6.2581944 -2.6641207 -0.66438705 -0.29442343 3.2438943 -1.9357349
3.1729426 3.0004177 3.0160584 -0.15169814 -2.1076655 2.7829046 2.836235 -0.42937446
00000000: 602f 4640 9580 b63e 2143 c8c0 f480 2ac0
00000010: 4515 2abf abbe 96be f79b 4f40 29c6 f7bf
00000020: 7e11 4b40 d806 4040 1a07 4140 c256 1bbe
00000030: fee3 06c0 1c1b 3240 e084 3540 f8d6 dbbe

layer_est.weight f4 [40, 16]
0.15894914 -0.23566294 0.08359325 0.041794628 -0.18102682 0.12941465 -0.20122832 0.050047547
-0.16969103 -0.07363722 -0.21290073 0.21046332 -0.1036894 0.023584425 -0.21546593 0.13552195
0.21446407 -0.24404651 -0.14126965 -0.020478278 -0.23324591 -0.09157756 0.18514967 0.16251537
0.22493795 -0.076576054 0.13673446 -0.102813125 -0.221699 0.024145335 0.22298494 -0.04999256
-0.10399628 0.001129359 -0.14646184 -0.06253943 -0.220519 0.0089380145 -0.13835779 -0.044975072
0.13887995 0.035814345 -0.06534663 -0.19131815 -0.2057623 0.22928965 -0.107014924 -0.12595192
0.14294297 0.08152947 0.17393997 -0.08222833 0.05846703 -0.19411442 0.034855902 -0.17978677
-0.026210397 -0.10209343 -0.19630599 0.036104918 -0.096170545 0.048450053 -0.06725001 0.24887127
-0.18888816 0.05759281 0.22925574 0.2351172 0.06615394 0.24913782 0.11919618 -0.108664215
-0.05877319 -0.20993993 -0.12358394 0.058461905 -0.09589249 -0.18695828 -0.022139192 0.042863876
0.22536239 0.07973352 0.20382926 0.221178 0.21235284 0.17011306 -0.21943301 0.22150853
-0.030460745 -0.2457583 -0.1570406 0.1731534 0.005126387 -0.052728117 -0.0039891005 0.081501365
0.09992546 0.09381676 -0.08799273 -0.13663751 -0.1630753 -0.014024407 0.10358319 -0.15369603
-0.03054592 0.014766008 0.20869076 -0.20185405 0.1721327 -0.08613068 0.0816637 -0.030350864
0.17670825 0.06674671 -0.068425894 0.16776523 -0.22534934 -0.026788145 -0.20963538 -0.108457
0.19537044 -0.21388009 -0.22480166 -0.22820103 -0.19499198 0.18455732 0.11099702 0.23100027
-0.034656405 -0.09942472 -0.12176457 0.012205958 -0.15971789 -0.08708429 0.12384972 0.16311556
0.19523016 -0.21113542 0.059093982 -0.1430262 0.11702967 -0.001010865 -0.13920522 -0.08869952
0.07168609 -0.12024024 0.23094857 -0.044728786 -0.008210301 0.118501216 -0.12908718 0.08824909
-0.08849621 -0.22423905 0.014153153 -0.20779353 -0.027758092 0.12274167 -0.23099992 -0.18142661
-0.24015665 0.2162962 -0.02950725 -0.0042146146 -0.21004546 -0.23345396 0.06924802 -0.14453974
0.23472366 0.08165139 -0.20512626 0.04220432 0.2251389 -0.23200166 0.07653174 -0.2146512
0.009607732 -0.15767822 -0.06333399 -0.118207306 0.13716567 0.022734046 -0.18274954 0.014140427
0.047419846 -0.066762924 -0.05004543 0.050922632 0.13232702 0.10414538 0.21561655 -0.04308933
0.037313044 -0.19863105 -0.122550696 -0.08970702 0.2142528 -0.19616136 0.23850712 -0.04404193
-0.21426979 0.13902342 0.20415577 -0.1852 -0.09938195 0.10414946 -0.038478166 0.23695102
0.09762168 0.18053353 0.20406935 0.24538636 0.21477577 -0.2219387 -0.17708132 -0.114227265
-0.08083156 -0.0668695 0.077893406 0.044674844 0.07471824 -0.2017375 0.029896587 0.19335958
-0.04099956 0.13357183 0.052904308 0.0026323795 0.24256867 -0.07929623 0.09937477 0.20271963
-0.21080807 -0.18697271 0.04266098 0.09640205 -0.14198264 0.16484901 0.088934064 0.19084057
-0.040955544 -0.040873528 0.1941309 0.23710334 -0.017564893 0.08355874 -0.036550075 0.15944153
-0.24888676 -0.038166404 -0.052878648 0.047569394 0.1964199 0.21374997 -0.0032638907 0.20124012
00000000: 90c3 223e a051 71be f032 ab3d d830 2b3d
00000010: 185f 39be 4685 043e cc0e 4ebe a8fe 4c3d
00000020: 7cc3 2dbe 1ccf 96bd a602 5abe b283 573e
00000030: 1c5b d4bd 2034 c13c 1aa3 5cbe 44c6 0a3e
00000040: 789c 5b3e 54e7 79be fea8 10be 10c2 a7bc
00000050: 04d8 6ebe 048d bbbd e097 3d3e 6e6a 263e
00000060: 2256 663e e8d3 9cbd 1e04 0c3e b08f d2bd
00000070: 1005 63be 70cc c53c 2a56 643e 00c5 4cbd
00000080: 00fc d4bd 0007 943a 18fa 15be ac14 80bd
00000090: bccf 61be c070 123c aaad 0dbe c837 38bd
000000a0: 8c36 0e3e 10b2 123d 74d4 85bd e8e8 43be
000000b0: 5ab3 52be e8ca 6a3e a42a dbbd 8af9 00be
000000c0: a45f 123e ecf8 a63d 521d 323e 5467 a8bd
000000d0: 207b 6f3d eec5 46be 10c5 0e3d 061a 38be
000000e0: 30b7 d6bc 5c16 d1bd 7004 49be c0e2 133d
000000f0: 10f5 c4bd 9073 463d 60ba 89bd 1cd8 7e3e
00000100: e66b 41be 70e6 6b3d 04c2 6a3e 90c2 703e
00000110: b87b 873d fc1d 7f3e 201d f43d 588b debd
00000120: 28bc 70bd 7efa 56be 9419 fdbd c075 6f3d
00000130: 4863 c4bd fe71 3fbe 405d b5bc 0892 2f3d
00000140: 66c5 663e 544b a33d 9eb8 503e 7c7c 623e
00000150: 0673 593e 1e32 2e3e 0cb3 60be 22d3 623e
00000160: d088 f9bc 10a8 7bbe 40cf 20be 204f 313e
00000170: 40fb a73b 70f9 57bd 00b7 82bb 30ea a63d
00000180: b8a5 cc3d 0023 c03d 8835 b4bd b4ea 0bbe
00000190: 36fd 26be a0c6 65bc 6c23 d43d 7e62 1dbe
000001a0: 703b fabc 20ed 713c 08b3 553e d4b2 4ebe
000001b0: 8e43 303e 4865 b0bd 4c3f a73d 60a2 f8bc
000001c0: 02f3 343e 80b2 883d e022 8cbd a6ca 2b3e
000001d0: fac1 66be d072 dbbc a8aa 56be b41e debd
000001e0: 300f 483e 6203 5bbe 6832 66be 88ad 69be
000001f0: faab 47be 98fc 3c3e 6852 e33d 568b 6c3e
00000200: e0f3 0dbd 309f cbbd b45f f9bd 80fb 473c
00000210: 168d 23be 4059 b2bd eca4 fd3d c407 273e
00000220: 6aea 473e e233 58be 880c 723d 7675 12be
00000230: 40ad ef3d 007f 84ba d08b 0ebe 18a8 b5bd
00000240: 28d0 923d 8440 f6bd c87d 6c3e 8835 37bd
00000250: 8084 06bc c4b0 f23d 6e2f 04be f0bb b43d
00000260: 803d b5bd ec9e 65be a0e2 673c d4c7 54be
00000270: f064 e3bc fc5f fb3d 3e8b 6cbe e6c7 39be
00000280: a0eb 75be c07c 5d3e 30b9 f1bc c01a 8abb
00000290: 2816 57be 8e0e 6fbe e8d1 8d3d 3a02 14be
000002a0: 665b 703e d838 a73d 9e0c 52be 70de 2c3d
000002b0: d08a 663e d891 6dbe acbc 9c3d 86cd 5bbe
000002c0: c069 1d3c 6676 21be 40b5 81bd ac16 f2bd
000002d0: 2875 0c3e c03c ba3c b222 3bbe 40ad 673c
000002e0: 503b 423d 00bb 88bd 70fc 4cbd 4094 503d
000002f0: bc80 073e 2c4a d53d 96ca 5c3e 707e 30bd
00000300: 90d5 183d f065 4bbe dcfb fabd 50b8 b7bd
00000310: 1665 5b3e 86de 48be 363b 743e 5065 34bd
00000320: 8a69 5bbe 285c 0e3e 360e 513e 12a5 3dbe
00000330: c488 cbbd 504c d53d 489b 1dbd 4aa3 723e
00000340: e0ed c73d c8dd 383e 8ef7 503e 9046 7b3e
00000350: 2eee 5b3e e643 63be ce54 35be fcef e9bd
00000360: 048b a5bd e0f2 88bd 9486 9f3d f8fc 363d
00000370: e005 993d 4694 4ebe b0e9 f43c 0e00 463e
00000380: 28ef 27bd 0ec7 083e 30b2 583d 0084 2c3b
00000390: ec63 783e 1066 a2bd 0085 cb3d bc95 4f3e
000003a0: 12de 57be c675 3fbe 48bd 2e3d 706e c53d
000003b0: e663 11be 2ece 283e 1023 b63d b66b 433e
000003c0: 00c1 27bd 006b 27bd 40ca 463e 38cb 723e
000003d0: 40e4 8fbc d820 ab3d 88b5 15bd a444 233e
000003e0: 2cdc 7ebe 6054 1cbd 4897 58bd 20d8 423d
000003f0: 4c22 493e 46e1 5a3e 00e7 55bb e411 4e3e

layer_est.bias f4 [40]
0.23845905 -0.033717692 -0.005227357 0.1933355 -0.09918234 -0.11506456 -0.16119549 0.21075875
0.07166466 -0.24698731 -0.049120277 -0.1868951 -0.179903 0.16981089 -0.02010125 -0.118733495
-0.24935076 -0.0668256 -0.098127365 -0.05861059 0.11393902 0.18195969 -0.20635477 0.24833494
-0.048488736 -0.015230805 -0.1922065 0.09580767 0.21928251 0.07429516 0.07023364 0.23378226
0.18339291 -0.10316834 -0.06995806 0.024885297 -0.24225697 0.045835793 -0.2071997 -0.22849184
00000000: 9c2e 743e 901b 0abd 404a abbb bef9 453e
00000010: 1c20 cbbd f8a6 ebbd 6e10 25be 24d1 573e
00000020: ecc4 923d 3eea 7cbe 5832 49bd 6e61 3fbe
00000030: 7e38 38be e8e2 2d3e 60ab a4bc 8c2a f3bd
00000040: ce55 7fbe dcdb 88bd 00f7 c8bd a811 70bd
00000050: dc58 e93d a453 3a3e aa4e 53be 844b 7e3e
00000060: 209c 46bd a08a 79bc c8d1 44be d036 c43d
00000070: 988b 603e 1028 983d a8d6 8f3d 9e64 6f3e
00000080: 5acb 3b3e ec49 d3bd 2c46 8fbd 40dc cb3c
00000090: 3612 78be 50be 3b3d 282c 54be c4f9 69be

layer_inf.weight f4 [1, 16]
0.77478373 -0.45913073 0.40244344 -0.27567965 -0.34220183 -0.0719407 0.54572076 -0.2806676
0.69700706 0.20363718 0.4130816 0.03334193 -0.13894176 0.30309656 0.33214504 -0.0044047604
00000000: 3a58 463f 2f13 ebbe 110d ce3e e225 8dbe
00000010: 1435 afbe a555 93bd 5bb4 0b3f aab3 8fbe
00000020: 0e6f 323f 4486 503e 6e7f d33e 8c91 083d
00000030: c046 0ebe 792f 9b3e ea0e aa3e cf55 90bb
