saved_models/qpsk_HeuristicNet_nt8.pkl (torch, 209823 bytes, 13 tensors)

layer_1.weight f4 [128, 304]
000000 9d 3c 21 3c b4 cc 8b bb 14 8c 44 3b 5c f3 11 bb
       0.0098411115 -0.004266346 0.002999072 -0.0022270298
000010 87 0a 8d 3c e9 00 82 bc 99 8c 49 3b 9c f9 0f bc
       0.017216934 -0.015869575 0.0030753969 -0.008787539
000020 18 5b b0 ba d3 f0 1c bc 88 52 da bb fc b8 bb 3c
       -0.0013454882 -0.009578901 -0.0066626705 0.022915356
000030 2e ad cc bc 3d f6 8d bc 0c a8 5e 3d d4 fa 76 bb
       -0.024984922 -0.01732933 0.05435948 -0.0037686126
000040 f2 bc a1 3b f0 40 ad 3c 66 f6 0c bc 62 50 ba 3a
       0.004935854 0.021149129 -0.008603668 0.001421463
000050 89 0a e9 b9 4b 08 0a 3c cb fc 1f 3d 08 7a 4e bc
       -0.00044449072 0.008424829 0.03905944 -0.012602337
000060 2b 45 60 3d 1b 37 9d bc 99 e9 0e 3d 44 19 b8 bc
       0.054753464 -0.019191315 0.034890745 -0.022472985
000070 fa de 0a 3c 7c 95 f7 3a 7d ab 9c bb 24 6d d6 bc
       0.008476013 0.0018889154 -0.004781185 -0.02617509
000080 c4 09 13 3c db 99 64 3a af 9d 19 bd 91 1b 71 bc
       0.008974496 0.0008720436 -0.037503894 -0.014716045
000090 2d 81 c6 3c 01 89 49 3c 31 96 1d 3d 16 19 4e bc
       0.024231518 0.012300731 0.03847331 -0.012579223
0000a0 e7 d9 85 bc 72 19 ae 3c 52 3e 10 3d 8c cc a7 3c
       -0.016339255 0.021252368 0.035215683 0.020483278
0000b0 1b 63 3b bc 28 80 b4 bb 44 94 fa bb 8e 4a 90 bc
       -0.011437203 -0.0055084415 -0.007647069 -0.017613675
0000c0 16 95 9d 3c b9 6e 3b bd 45 22 61 bb c4 8d 5a 3d
       0.019236129 -0.04575989 -0.0034352702 0.053357854
0000d0 f0 f7 0c 3c 9e 68 04 bd 17 2c ea b9 a1 26 20 3b
       0.008604035 -0.032326333 -0.00044664808 0.0024437087
0000e0 72 74 1d 3b e1 e7 f3 bb 44 bf 59 3b 20 f4 55 3c
       0.0024025706 -0.0074434136 0.0033225575 0.013058692
0000f0 91 06 03 3d b8 d1 61 ba f7 54 38 bc 08 45 17 3c
       0.031988684 -0.00086143194 -0.011250726 0.009232767
000100 dd f7 63 3d f7 0e 37 3d 3a 10 ea 3c c1 f3 de ba
       0.055656303 0.044692006 0.02857219 -0.00170099
000110 5c d9 e5 bc fb 83 50 bc f5 8b 85 bc 75 36 14 3d
       -0.028057747 -0.012726779 -0.016302088 0.036184747
000120 7d 82 cb 3c 24 bf 61 bb f4 6f e9 3b 6d c8 ce 3c
       0.024842495 -0.0034446204 0.0071239416 0.025242055
000130 11 5c d6 3c 67 db b8 bb fd ab 19 bd 47 01 ee bb
       0.026166948 -0.005641389 -0.037517536 -0.007263336
000140 20 dc 8b 3b 00 fd ff 39 04 83 ea bc 91 4b 61 3d
       0.0042681843 0.0004882589 -0.028626926 0.055003706
000150 2b f9 81 bc d7 be ea 3b 77 fc 81 3b 55 36 21 bc
       -0.015865883 0.007163863 0.0039668637 -0.009839614
000160 5a 28 37 bc 4f 09 3a 3b 2f 66 25 bc 77 4c 8f b9
       -0.011179054 0.0028386896 -0.010095163 -0.00027332056
000170 f4 f7 77 bc 46 a3 88 3b 64 17 bd bc d1 59 ff ba
       -0.0151348 0.0041698543 -0.023082443 -0.0019481723
000180 98 42 e7 3b 01 8f 61 3d ce 7a e6 3c d8 e9 b3 bc
       0.007057499 0.05506802 0.02813473 -0.021962091
000190 00 6a 69 ba f5 f2 19 bb a2 60 89 bc aa be 37 bd
       -0.000890404 -0.002349076 -0.01676971 -0.044859566
0001a0 c1 64 5a bc 24 86 c6 bc 07 c2 93 3c 82 73 51 3b
       -0.013329686 -0.024233885 0.018036855 0.0031959717
0001b0 2f d4 3f bc 59 8f 0f 3c 50 fb d8 3c f0 02 1b 3c
       -0.011708303 0.008762204 0.026487023 0.00946115
0001c0 40 cf 70 ba f0 23 d5 bb 98 e2 5e bc 97 ab 55 3d
       -0.0009186156 -0.006504528 -0.013603829 0.052165594
0001d0 da 7f e1 3c a8 92 42 bc e1 dc f1 3b f9 83 0a 3d
       0.027526785 -0.011875786 0.007381067 0.033817265
0001e0 5f d2 ed 3c 68 be a0 bb 52 f0 c7 bc 61 ce 6c 3d
       0.029030977 -0.0049055107 -0.024406586 0.057814006
0001f0 14 71 8b 3c 65 4b e7 3c 32 1e 09 bc 32 cb 98 bb
       0.017021693 0.028234193 -0.0083690155 -0.0046628946
000200 40 ff 1c bc 6e bb 91 bc b4 9c 68 bd 11 90 29 3d
       -0.009582341 -0.017789569 -0.05679007 0.041397158
000210 57 01 2b 3d 60 71 1c bd 8c e1 06 bd b6 64 7d bc
       0.041749325 -0.03819406 -0.032929942 -0.015465906
000220 cc 4c 1e bd 50 cd c4 3c a0 24 80 bc f6 ac ea bb
       -0.038647458 0.024023682 -0.015642464 -0.007161732
000230 dc 2e 3a bc 81 b3 51 bc a0 68 33 bc ad dd 8c 3c
       -0.011363711 -0.012799145 -0.0109502375 0.017195547
000240 ae 20 3b bd c2 d3 02 bd d8 c7 0b bd 5a 76 83 3c
       -0.045685463 -0.03194023 -0.034126133 0.016047645
000250 8c db a9 bc 5f eb 44 3d 26 37 29 bd d9 b7 5a bd
       -0.02073457 0.04807603 -0.04131236 -0.053397987
000260 b1 bb 13 3c 56 3b c5 bc ac 0d 3d bc 8f cc 36 3c
       0.009016917 -0.024076145 -0.011538904 0.011157169
000270 ad ae 18 bd 73 ce bc bc e2 e6 51 bc 6f e4 f8 ba
       -0.03727596 -0.023047661 -0.012811394 -0.0018988977
000280 44 b9 9c bc 53 d0 28 bd cb cd 0a bd c3 01 4f 3d
       -0.01913131 -0.0412143 -0.033887666 0.05053879
000290 17 71 34 3d b9 7d 15 3d b8 b9 13 bc 6c 1a 12 bd
       0.044053163 0.03649685 -0.009016447 -0.03566973
0002a0 a0 a1 b5 bb e9 1e 0d bc 26 50 13 bd 20 52 16 3c
       -0.005542949 -0.008613327 -0.035965107 0.009174854
0002b0 ec 17 16 bc c3 3d 51 3d 24 4a 5a 3c 7c b7 01 bc
       -0.009160977 0.05108429 0.013323341 -0.007917281
0002c0 84 cd 38 bc 61 a7 54 bd 18 a1 cf bb 79 63 fa bc
       -0.0112794675 -0.051917437 -0.0063363425 -0.03056501
0002d0 08 8b 15 bc 48 d2 9b 3b 55 15 1d 3d 76 40 bc bc
       -0.009127386 0.004755292 0.038350422 -0.022979956
0002e0 ec 28 c5 bc 78 f3 af bb 46 36 49 3a 03 ce d4 3c
       -0.024067365 -0.0053696 0.0007675629 0.02597714
0002f0 79 28 cd bc f4 dd bb 3b 3b 0a 01 3d 98 d1 5f 3b
       -0.025043713 0.005733246 0.031503897 0.0034152027
000300 88 c6 4e bd 00 f0 65 38 4e 72 ab 3c b2 4c e5 3c
       -0.050482303 5.4821372e-05 0.020928528 0.027990673
000310 0f 64 3e 3d 8c be ad bc 13 e5 18 3d 81 e8 33 bd
       0.046482142 -0.021209024 0.037327837 -0.043922905
000320 5a 2d 95 3c f0 7f 29 3b c2 1b d0 3c a2 b3 67 3c
       0.018210102 0.002586361 0.025403861 0.014141949
000330 b5 ee 0c 3c 38 ae 02 3d dc e0 28 3c 3a 9c ba bc
       0.008601834 0.03190443 0.010307517 -0.022779573
000340 dc 33 59 bc 7a 5f b1 3c b4 0d 48 bc 29 fa 0a 3d
       -0.013256993 0.021651972 -0.012210298 0.033929978
000350 82 18 8b 3c 19 f2 45 3d 90 d1 23 bb c0 d9 4a 3b
       0.01697946 0.048326585 -0.0024996735 0.0030952543
000360 b8 22 a1 bb 02 2d 33 bd 40 85 8b ba e7 4f 4c 3d
       -0.004917469 -0.043744095 -0.001064457 0.04988089
000370 58 89 fd bc b2 e8 5f 3a cc 4a 47 3c 12 a6 45 bc
       -0.03094928 0.0008541449 0.012163829 -0.01206352
000380 a6 ed d2 bc 02 9f be bc d6 16 85 3c 8b a1 32 3d
       -0.025748085 -0.02326918 0.01624624 0.04361109
000390 ea 1a 34 bd 0e 82 e3 3c 43 ed 2f bd 70 46 5b bc
       -0.04397098 0.027771976 -0.04295088 -0.013383493
0003a0 1c 42 8d bc a4 93 0f bc 04 a0 74 bc c0 e4 7b ba
       -0.017243437 -0.008763228 -0.014930729 -0.00096089765
0003b0 94 11 d9 bc 90 5b 5f bc f4 39 8e bc a5 0c 65 bc
       -0.02649764 -0.01363267 -0.017361619 -0.0139800655
0003c0 00 ac 10 ba 9c da 04 3c 20 dc 35 bd ec e7 b6 bc
       -0.0005518794 0.008108761 -0.04439938 -0.022327386
0003d0 80 fe ca 39 f2 50 4a bd 70 1c 9e bc 78 3f 2a bd
       0.0003871806 -0.0493936 -0.01930067 -0.041564435
0003e0 14 17 b8 bc 80 3f 84 39 40 e5 a6 bc 1d ea 32 3d
       -0.022471942 0.00025224313 -0.020372987 0.0436803
0003f0 13 1e 19 3d 9b 0b 5e bd 65 d3 8a 3b 35 21 88 bb
       0.037382197 -0.054210287 0.004236626 -0.004154349

layer_1.bias f4 [128]
000000 21 4a c2 bf d6 99 35 bf 86 51 2a c0 a3 03 b4 c0
       -1.5178872 -0.7093786 -2.6612258 -5.625444
000010 6d 97 87 c0 30 60 b3 be fb 51 f6 bf aa af ff bf
       -4.2372346 -0.35034323 -1.9243768 -1.9975483
000020 c5 57 ee be d4 93 9b bf 42 f0 b2 c0 55 ad 5a c0
       -0.46551338 -1.2154489 -5.5918283 -3.4168293
000030 a7 dc 76 c0 75 db 40 c0 08 d8 d6 bf 57 3f 77 bd
       -3.8572176 -3.0133946 -1.6784678 -0.06036314
000040 04 e5 02 c0 a3 76 5d bf 7d 37 e3 c0 40 bf cf c0
       -2.045228 -0.8650915 -7.1005235 -6.492096
000050 4c 2f 8b c0 8a 70 32 c0 5f 78 80 bf 1d ac 03 c0
       -4.3495235 -2.7881188 -1.0036734 -2.05738
000060 f8 f1 9a bf 7c 0f d8 c0 01 aa 91 c0 63 ba 3e c0
       -1.2105093 -6.75189 -4.5520024 -2.9801261
000070 ac fb b7 bf b4 bb bd bf ec ce b5 bf 5d b5 f1 c0
       -1.4373679 -1.4822907 -1.4203773 -7.553389
000080 21 29 84 bf d4 d6 0b c0 b0 35 d9 bf c4 64 16 c1
       -1.0325052 -2.184987 -1.6969509 -9.399601
000090 c6 64 33 c0 9f d0 49 c0 8e 5e 03 c1 f2 fe 14 c0
       -2.8030257 -3.1533582 -8.210585 -2.3280606
0000a0 16 c0 7d c0 80 d3 d4 c0 22 36 c3 bd 0a 27 f8 bf
       -3.964849 -6.650818 -0.095318094 -1.9386914
0000b0 2e ed 35 bf 17 83 a2 bf 03 6e da c0 da 92 8f bf
       -0.7106503 -1.2696255 -6.825929 -1.121669
0000c0 6b 44 06 c1 c9 22 1e c0 e0 10 c0 3d a0 f8 88 c0
       -8.391704 -2.470873 0.09378219 -4.2803497
0000d0 a1 6c 9c bf b8 8b 8b bf 0e 90 3c bf 47 f3 0a c1
       -1.2220651 -1.0902014 -0.7365731 -8.684394
0000e0 70 86 6b bf 2c 07 91 bf d3 b9 a6 c0 7c 24 94 bd
       -0.9200201 -1.1330314 -5.2101836 -0.07233521
0000f0 8e 04 26 c1 30 fb 8b c0 41 ce 6d c0 8b bb 8e c0
       -10.376112 -4.3744125 -3.7157137 -4.4603934
000100 db d5 8b c0 3c 0d ad c0 64 3c 04 c0 0d 0b 01 c0
       -4.3698554 -5.4078655 -2.066186 -2.0162995
000110 42 0e 78 bf 0f 1d 09 c1 d0 e8 99 bf 65 44 ff bf
       -0.96896756 -8.569594 -1.2024174 -1.9942747
000120 4b 78 be bf 15 cb 08 c0 a3 c6 5d c0 a6 0e 82 c0
       -1.488046 -2.1373951 -3.4652488 -4.064288
000130 09 9b f3 bc a0 1d b7 bf 99 fb 97 bf 23 66 14 c0
       -0.029737012 -1.4305916 -1.1873657 -2.318734
000140 83 a1 13 c0 61 cf 8e c0 cc 32 c4 c0 e2 8a d4 bf
       -2.306733 -4.462815 -6.131201 -1.6604884
000150 66 68 47 bf 70 77 84 c0 a9 d4 94 c0 47 6d 8b bf
       -0.77893674 -4.13958 -4.6509595 -1.0892724
000160 de 9d f9 bf 7b fc 89 c0 f8 cc 96 bd d3 c9 e8 c0
       -1.9501302 -4.3120704 -0.073633134 -7.2746367
000170 53 d3 7a c0 12 25 e0 bf a6 cc 72 c0 12 68 fa c0
       -3.9191482 -1.7511313 -3.7937407 -7.825204
000180 12 84 8f c0 4e 9a b1 bd 21 2e d2 bf a0 c3 a9 c0
       -4.484872 -0.086720094 -1.6420327 -5.30513
000190 90 1e fe bf 36 07 ba bf 97 30 8a c0 96 73 8c c0
       -1.9853077 -1.4533451 -4.3184314 -4.3891096
0001a0 8c 28 06 c0 06 56 90 c0 d9 ee 62 c0 76 18 dd bf
       -2.0962248 -4.510501 -3.545828 -1.727309
0001b0 d1 5a 94 c0 a1 49 01 c0 ca 4b 8e c0 a3 a6 c3 bf
       -4.636086 -2.020119 -4.4467516 -1.5285228
0001c0 18 ad d1 bc 4b 3a 42 bd 14 da a0 c0 76 ab 10 c0
       -0.025595233 -0.047418874 -5.026621 -2.2604651
0001d0 b5 6e 77 c0 ca 0e c3 bf fa 2f 58 c0 60 c5 d5 bf
       -3.866132 -1.5238888 -3.3779283 -1.6700859
0001e0 53 1a 81 bf 9b 44 7e bf 60 3a 94 c0 23 b8 51 c0
       -1.0086159 -0.99323434 -4.632126 -3.2768638
0001f0 58 9b 6a c0 23 46 f5 3f a9 8e a2 c0 03 0c 83 c0
       -3.6657314 1.9162029 -5.0799146 -4.0952163

layer_2.weight f4 [64, 128]
000000 d2 a3 2d bc c7 75 0a 3c 4c e8 cd 3c c9 50 aa 39
       -0.01059814 0.008450932 0.025135182 0.00032485116
000010 7d 0d 93 bd f2 ff d3 3c 4a bb 2f bc 8a 35 d0 3b
       -0.07180307 0.02587888 -0.010725806 0.0063540386
000020 e1 f1 1d 3d ce cd 2c 3c 63 35 94 bd 01 00 57 3c
       0.03856075 0.010547115 -0.07236745 0.0131225595
000030 38 ae e2 bc d9 cd 61 3b c9 41 a4 3c 2f 7c 5f bc
       -0.027670965 0.003445497 0.0200509 -0.0136404475
000040 4d 13 d7 3b aa 13 49 3b 3c ee 92 bc 9c ae 51 3c
       0.00656358 0.0030681887 -0.017935865 0.012797978
000050 90 ad 2b bc 16 0e 5e 3b 59 39 9c 3a 2a 9e ba bb
       -0.010478392 0.0033882908 0.0011918946 -0.005695124
000060 14 e9 44 3f 3b 0b 0a bd 50 5d d0 3f 93 f4 74 3c
       0.7691815 -0.033702116 1.6278477 0.014950889
000070 db d6 0b 3d b5 27 74 3b 82 a3 6a bc 5c fb 1a bd
       0.03414045 0.0037255113 -0.01432121 -0.03783737
000080 cf 42 e0 ba f7 77 ae 3c b1 28 62 bc 27 56 c0 bc
       -0.0017109754 0.021297438 -0.013803647 -0.02347858
000090 b3 46 05 bc f8 4a dd 3b d8 7b f0 bc cf 7f 74 3c
       -0.008134532 0.0067533217 -0.029355928 0.01492305
0000a0 9f c1 bd bc 2b ed 19 3b 50 e4 f8 3b 20 cc f0 bc
       -0.023163615 0.002348731 0.0075955763 -0.02939421
0000b0 bd 1b 7d bc 0e a4 72 bc 58 21 f5 3b 66 c9 91 bb
       -0.015448508 -0.0148096215 0.0074807815 -0.0044490574
0000c0 17 27 f8 bc 71 af 1a 3c 96 ef aa bc 39 0e f7 ba
       -0.030292077 0.009441243 -0.020866197 -0.0018848843
0000d0 6b 0c aa bf 4e fb 15 be 37 54 cd bb 2f 73 7d bd
       -1.328504 -0.14646646 -0.0062661427 -0.061877426
0000e0 7d b7 8f 3b 10 7d 80 3c 7d 41 11 bc cd b6 0e bb
       0.004385887 0.015684634 -0.008865711 -0.0021776438
0000f0 4e 56 ed 3b 1a 9f 1c bc 23 3b 02 3c 72 47 fa c0
       0.0072429543 -0.009559417 0.00794867 -7.8212214
000100 34 8d 11 be 6d b3 9e bc 0e 5d bd 3b ed 9e 10 bc
       -0.14214021 -0.019372666 0.0057789152 -0.008826953
000110 82 86 3e be 2b 0e 85 3e ff cc b6 bc 62 14 8f bb
       -0.18605998 0.25987372 -0.022314547 -0.0043664435
000120 7c 45 2b bd f7 cf b5 bc 8d 6d c1 39 78 07 07 3c
       -0.041814312 -0.022193892 0.0003689345 0.008241527
000130 2e e2 26 bb 8e 7b ef bb d8 a4 fe ba 99 09 a5 bc
       -0.0025464403 -0.00730843 -0.0019427789 -0.020146178
000140 42 f8 92 bb b0 94 07 c0 a5 63 d3 bc a2 c9 66 3f
       -0.004485161 -2.1184502 -0.02580435 0.9015142
000150 96 3f 02 bb c8 72 8e bc 51 a2 98 bc 10 e4 8c 3c
       -0.0019874326 -0.017388716 -0.018632086 0.017198592
000160 cc e3 23 ba 0c 5a 09 be f7 34 3d 3c d1 25 3b 3c
       -0.0006251901 -0.13413256 0.011548272 0.01142259
000170 70 6b 00 3c a4 4c ad 3c e3 54 64 3d a5 c8 a9 bb
       0.007838115 0.02115471 0.055745017 -0.0051813894
000180 6b 32 10 be da 4c ca 3b 75 5b b0 bf 6e e2 8c 3c
       -0.14081733 0.006173712 -1.377791 0.017197814
000190 3f 28 94 3c f2 ef 44 3c bd e6 e4 3f 00 00 8e bc
       0.018085597 0.012020098 1.7882916 -0.017333984
0001a0 3f b2 29 3b 9b b7 f5 c0 71 b7 41 be 21 db b1 3f
       0.0025893596 -7.678663 -0.18917634 1.3894998
0001b0 57 c4 e2 3b 52 a3 cf bb 27 58 16 c0 4b fd be bc
       0.006920378 -0.006336608 -2.3491304 -0.023314139
0001c0 50 0c 93 3c 29 0d 9d bb f6 30 71 c0 99 e2 1b bc
       0.017950207 -0.0047928286 -3.7686133 -0.009514474
0001d0 58 16 10 bb 1c 96 ad bb ad 65 3d bd ee cf 7e 3c
       -0.0021985974 -0.0052974354 -0.046239544 0.015552504
0001e0 e9 2e 48 bb 07 dc 29 3b 66 72 80 3d b4 03 53 bc
       -0.0030545539 0.00259185 0.0627182 -0.012879301
0001f0 50 0b 30 3d 16 f6 58 bd f1 7c 72 c0 86 3e 6b bc
       0.04297954 -0.05296906 -3.7888758 -0.0143581685
000200 1c 3f 1f 3c c3 63 c4 bd 99 84 28 be 0a b0 4b be
       0.009719636 -0.095893405 -0.16456832 -0.19891372
000210 c7 c1 09 3d 45 31 58 be c8 36 f4 bd 5b 61 b5 bd
       0.033632066 -0.21112545 -0.11924511 -0.0885646
000220 b7 45 c3 3c b8 d5 66 bd a0 af be bd c2 23 08 be
       0.023836954 -0.05635616 -0.093108416 -0.1329489
000230 4d 5c 92 be cf 96 e2 bd da 9a 55 be 9e ed 4d be
       -0.28586045 -0.11063921 -0.20859852 -0.20110175
000240 ca d5 bc bc c8 97 55 be f1 88 05 be b9 fe 15 be
       -0.023051161 -0.20858681 -0.1304052 -0.1464795
000250 a3 7a df bd 80 92 0a be 16 96 75 bc 7f 13 9b bd
       -0.10912063 -0.13532448 -0.014989397 -0.07572078
000260 45 79 a9 bd 59 28 e1 3c 32 2b 11 be f3 eb ea 3d
       -0.082750835 0.02748506 -0.14176634 0.11470785
000270 bc f4 4f 3c 8a d9 36 be 23 36 49 be 8f aa e6 bd
       0.012692627 -0.17856422 -0.19649558 -0.11263
000280 22 a3 08 be d2 d4 9e 3c 40 47 07 bd a9 2d 11 be
       -0.1334348 0.01938859 -0.033026934 -0.14177574
000290 43 6d 18 3d bf 86 1d be 32 2f 93 bd 78 a8 56 3d
       0.037213575 -0.15383433 -0.07186736 0.052406758
0002a0 7d 74 a1 3d 55 99 e5 bd c4 86 98 be 17 0c e7 bd
       0.078835465 -0.112108864 -0.29790318 -0.11281603
0002b0 38 e9 03 be 58 af 93 bd 24 0f 6d be 50 21 8b bb
       -0.12881935 -0.072111785 -0.23150307 -0.0042459145
0002c0 06 d8 3f be 48 d6 54 bd d6 e3 44 bd 49 2d 18 bd
       -0.1873475 -0.051962167 -0.048068844 -0.037152562
0002d0 0f b5 b1 3c 37 8d a7 be 8d 3e c0 bd 94 33 2e be
       0.02169278 -0.32724926 -0.093869306 -0.17011863
0002e0 31 45 f3 bd 0e 5a 27 be e3 ef f0 bd 48 39 8c bd
       -0.118784316 -0.16342947 -0.11764505 -0.06846863
0002f0 ee 65 30 3d 4e a7 16 be 0a be 24 be a0 71 18 be
       0.043065958 -0.14712259 -0.16088119 -0.14887094
000300 85 3d c4 bd 48 74 00 bc 07 51 50 be a6 d9 9e bd
       -0.095820464 -0.007840224 -0.2034341 -0.07756357
000310 1b 8e 2b 3c 5d 87 31 bd 3d 35 e4 bd f9 e3 8a bc
       0.010470892 -0.043341983 -0.11142967 -0.016954409
000320 00 5b c1 bd b8 6e 5f bd 48 50 fd bc 4e 0d 00 be
       -0.09441185 -0.05454895 -0.03092207 -0.12505075
000330 54 bc c9 bd b7 2e 1c be d4 7c d6 bd a0 75 c7 bd
       -0.09850374 -0.15252195 -0.10473028 -0.09739232
000340 76 c4 04 be 70 64 2f bd b0 02 2c be 4d d3 56 bd
       -0.12965569 -0.042820394 -0.167979 -0.052447606
000350 8f 9e ef 3b 56 42 05 bd 0b 67 bf bd 1c 5c ea bc
       0.007312603 -0.032533966 -0.09345826 -0.028608374
000360 d1 b3 0c be 74 31 e2 ba 0f 1c 49 bd 85 d5 e0 bd
       -0.1374047 -0.001725717 -0.049099024 -0.109782256
000370 97 49 84 be fb e4 ad be 84 4b cc bd e1 05 03 be
       -0.25837395 -0.3396376 -0.09975341 -0.12795211
000380 54 a8 cd bd 81 00 f5 bd 5e b5 d7 bd 14 5f 0f be
       -0.10041872 -0.11962987 -0.1053264 -0.14001113
000390 90 15 36 bd 4d 26 4a be f4 b3 49 be 40 da 14 be
       -0.044454157 -0.19741173 -0.19697553 -0.14536381
0003a0 53 30 86 3c 30 23 b9 bd 58 48 1e be 81 df 86 be
       0.016380465 -0.090399146 -0.15457284 -0.26342395
0003b0 e0 d1 4b 3d 42 b5 a9 bd d6 fc a8 bc 12 f5 d8 bd
       0.0497607 -0.08286525 -0.020628374 -0.105936185
0003c0 14 75 23 be 0a 41 cf bd f7 a8 26 be 1f 0c 10 bd
       -0.1596263 -0.10119827 -0.16275392 -0.03516781
0003d0 cf 80 11 bb ed a0 08 bd 61 a0 6a bd 64 ad a3 3d
       -0.002220202 -0.033356596 -0.057281855 0.07992056
0003e0 33 c4 3f be 2d d5 0e bd 31 69 33 be d1 32 d6 bd
       -0.18727188 -0.03487127 -0.17520596 -0.10458911
0003f0 a8 0a 62 3d 42 51 07 be 3f 5c 61 bd 45 40 ac bd
       0.055185944 -0.13214591 -0.055019613 -0.08410696

layer_2.bias f4 [64]
000000 74 f7 ee be 6d 32 0a 3e 5e bf 06 be 58 9b 30 bf
       -0.46673167 0.13495798 -0.13158938 -0.68987036
000010 be 74 bf be 76 53 e0 be 9a 8f 13 c0 95 2e 83 bd
       -0.37393755 -0.43813676 -2.3056397 -0.06405369
000020 86 b7 17 be 29 93 30 c0 f0 80 d4 bd c4 6f 5d c0
       -0.14816102 -2.758982 -0.103761554 -3.4599466
000030 a0 aa 9d bf 8f 5b 74 bf 16 7d b7 3e c8 ac cb 3e
       -1.2317696 -0.9545221 0.3583762 0.3978026
000040 5d ea ec 3f 3a 4b 08 bf 84 5f d9 3e 3a 2d 2e be
       1.8509022 -0.53239787 0.42455685 -0.1700944
000050 ae 1a c6 3e a7 bc 6b 3e 1c 2f a1 c0 32 1d f7 3e
       0.3869223 0.23021184 -5.0370007 0.48264462
000060 80 31 98 3f 56 05 bc 40 20 5d 37 3f 6b 93 99 3f
       1.1890106 5.8756514 0.7162647 1.1998113
000070 82 e5 ef 3e d6 67 10 be a2 6a 90 be 78 7c 18 3f
       0.46854788 -0.1410211 -0.28206354 0.59564924
000080 82 84 32 be 6f ee ea 3e e7 4e 15 be e3 57 9d be
       -0.1743336 0.45885035 -0.1458088 -0.30731115
000090 bc 53 9c bf b4 00 13 bd f9 b7 e9 bf 48 8a 5e 40
       -1.2213054 -0.035889342 -1.8259269 3.47719
0000a0 38 5a 43 3e 09 1f 9f 3f 7d 54 29 40 fc 1a dd be
       0.19077384 1.2431346 2.6457818 -0.4318465
0000b0 fa f7 04 c0 2c 63 95 40 e3 4d 85 3b 40 b2 ba bf
       -2.0776353 4.668356 0.0040681227 -1.4585648
0000c0 61 bb 11 c0 41 e7 2f be 82 c9 4f 3f a7 7d 4b be
       -2.2770617 -0.1717806 0.8116685 -0.19872151
0000d0 8f c1 4e 3e 28 6f 91 c0 a3 99 87 40 ea 57 20 be
       0.20191024 -4.544819 4.2375045 -0.15658537
0000e0 bc e1 05 be 3c 84 5d 3e f4 e1 8d 3e 37 b9 4c 40
       -0.13074392 0.21632475 0.2771145 3.1988046
0000f0 9e a6 5c 3f cc 8b 24 3f 64 1e b9 3d ae 4e a2 3d
       0.8619174 0.64275813 0.09039 0.07925163

layer_3.weight f4 [32, 64]
000000 10 1c 38 be 63 54 8c 3b de b9 58 3d c4 23 02 3c
       -0.17979455 0.0042825206 0.05291163 0.0079430975
000010 cf e0 82 3d d8 5c b2 bd 35 1a ea 3d 86 c8 ca bd
       0.06390535 -0.08709115 0.1143078 -0.09901528
000020 6a 97 eb bd 70 83 3e be f8 09 3a 3d 28 33 e6 bf
       -0.11503489 -0.18604827 0.045419663 -1.7984362
000030 1c 41 3a 3c cd 7b 18 be 1c ee 3f 3d 5f 0c 97 3d
       0.011368062 -0.14890976 0.04685794 0.073754065
000040 0f a4 99 be 4f d6 19 3d 16 89 d0 bd 08 10 50 3c
       -0.3000798 0.037557896 -0.10182397 0.012699135
000050 1d 5f 85 be 79 5e ef 3d 21 bc 0e be dc b6 1b bc
       -0.26049128 0.11687941 -0.13938953 -0.009504046
000060 d3 eb 0f 3f 5e f8 d1 c0 a0 54 bc 36 7c e8 96 3d
       0.56219214 -6.5615683 5.6126883e-06 0.073685616
000070 18 a6 f7 3c 64 ab 67 3d dc 1d cf 3c 38 72 74 be
       0.030230567 0.056559935 0.025282793 -0.23871696
000080 dc 95 3d bd 6d 3b 36 3e c0 7b 35 3d c6 37 b5 c0
       -0.046285495 0.17796107 0.04430747 -5.6630583
000090 95 dc 25 3b 6c a8 93 3d a5 e4 9b c0 da b5 81 bc
       0.002530848 0.07209858 -4.8716607 -0.015833784
0000a0 1b bc 20 be 7f 80 15 bd 87 0e 00 3d 49 31 49 3d
       -0.15696757 -0.036499497 0.031263854 0.049119268
0000b0 fc 74 99 bf 2f 5a 61 3f ce 0b a1 bd 40 a3 d7 3e
       -1.1988826 0.88028234 -0.0786358 0.42116737
0000c0 da e1 70 be 62 a4 1e be 7d 40 73 3c d5 31 4e bd
       -0.23523656 -0.15492395 0.014846918 -0.050340492
0000d0 7e 2d 9f 3c 27 0d 1a 3e 00 e7 65 be 37 64 1c 3d
       0.019430872 0.1504408 -0.22451401 0.03818151
0000e0 54 5a 76 3d 09 ac c7 bd ad 96 a8 bd d4 56 d5 39
       0.060144737 -0.0974961 -0.08231864 0.00040691218
0000f0 87 af f8 3c 13 c3 d5 3c 7d 69 b2 3c c3 6f 4b be
       0.030357135 0.026093995 0.021778816 -0.19866852
000100 e4 f2 d4 3e 58 d0 b0 ba 50 74 d9 3d 6c e6 07 3d
       0.4159156 -0.0013489826 0.10617888 0.03317873
000110 3a ca 8e bf a0 63 a3 3d 73 c7 c5 be 91 d4 2f bf
       -1.1155465 0.07977986 -0.3862873 -0.68683726
000120 6b 23 9f 3d c6 12 38 be 6a 4f a1 3d 5e ca 49 bf
       0.07770427 -0.17975911 0.07876475 -0.7882441
000130 da 25 51 3e ea 5d a0 bd 9c 26 6d bd 38 ad 32 3d
       0.20424595 -0.07830413 -0.05789815 0.043622226
000140 0d de af bb 2b 21 98 3e db 48 16 3e d9 1b 65 3c
       -0.0053670467 0.29712805 0.1467623 0.01398369
000150 68 a6 ad 3d 22 02 d6 3d 5e 4a e8 bd aa 5f 0e bc
       0.08479005 0.104496256 -0.113423094 -0.0086898
000160 de dd 51 3d c5 f7 2c c0 17 b0 35 3e b9 34 8b bd
       0.05123698 -2.7026227 0.17742954 -0.067971654
000170 da 4f e6 bc ad e7 0e 3e 2f 0c 08 bd 60 49 a8 3e
       -0.028114248 0.13955565 -0.033214744 0.3286848
000180 d8 10 9a bd 76 62 ba bd a8 1a a0 3d 3d 74 a8 bd
       -0.07522744 -0.09100811 0.07817584 -0.08225296
000190 02 e6 e2 3c fd ff ac 3d 65 f7 45 be ed 41 90 be
       0.027697567 0.084472634 -0.19332655 -0.28175297
0001a0 78 c7 64 3d 9f 67 c1 bd 20 14 ba ba c6 fa 18 3e
       0.05585429 -0.09443592 -0.0014196672 0.14939412
0001b0 8d 6b 03 3d b4 c7 82 bf 18 e6 e9 bd bb 80 95 be
       0.03208499 -1.0217195 -0.1142084 -0.29199776
0001c0 bc 8f ff bc 87 2d 39 bd db 4d 82 bd 8c b9 b9 bd
       -0.031196468 -0.045209434 -0.06362506 -0.090685934
0001d0 d6 b9 c3 bc e9 27 57 bf 20 cc cd be 23 92 31 bd
       -0.023892324 -0.84045273 -0.40194798 -0.043352257
0001e0 79 0e cd 3c 28 ed 02 3d a7 3d d3 3d 66 98 fe 3c
       0.025031315 0.03196445 0.103144936 0.031078529
0001f0 8a c6 8f 3e 17 a8 80 3e 6c dc 2b bd 72 ad 1b 3d
       0.2808116 0.25128242 -0.041958258 0.038007207
000200 1f 04 c8 bd 4e b1 04 be 28 a3 06 bd 20 e3 84 3d
       -0.09766411 -0.12958261 -0.03287044 0.06488633
000210 76 2c ac 3d 37 07 46 3d 84 5d e6 3e cc eb 88 bd
       0.08406918 0.048346724 0.44993222 -0.066856
000220 54 85 14 3d 93 98 7a be 1b d0 9b 3b 5d f8 ab 3c
       0.036259964 -0.24472265 0.0047550327 0.020992452
000230 5d d6 32 3d 01 7d f2 3e eb 1c d7 bc 86 33 61 3d
       0.043661464 0.47360995 -0.026258906 0.054980777
000240 5e 41 69 3e 4d bb 32 3e 5d a7 a1 bd 51 7e 52 bf
       0.22778842 0.17454262 -0.0789325 -0.82223994
000250 fa 65 d5 3d b0 16 dd bd 76 1a 7a be 97 4e 80 3d
       0.10419841 -0.10795343 -0.24424157 0.0626499
000260 ad 93 1b 3c 0e cb a7 be 3d fa 01 3d 73 f9 3b 3e
       0.009495658 -0.32772106 0.031732786 0.18356876
000270 de dd 51 3d e8 bc 01 be 37 83 4b bd 24 01 40 bf
       0.05123698 -0.12669718 -0.049685683 -0.7500174
000280 fa a6 c7 bc d5 e1 de bd 48 72 b7 bd 88 0d 4d 3c
       -0.024371613 -0.10882918 -0.08957344 0.012515433
000290 80 ca 7c bf b1 c4 f9 3c af 2b 80 3c 9a ff 41 bf
       -0.9874649 0.030489298 0.01564583 -0.7578064
0002a0 15 2e b7 3d 13 63 ba 3b 63 e6 d3 bd b5 f3 aa bf
       0.08944336 0.00568808 -0.10346677 -1.3355623
0002b0 84 0b 50 3e 66 dc 72 be 4e 7b 1f 3d af 63 65 3d
       0.20316893 -0.23716888 0.038935952 0.05600327
0002c0 2b 85 a5 be 25 af a3 bd 45 1b 47 3c b6 16 29 3d
       -0.32328162 -0.079923905 0.012152498 0.041281424
0002d0 01 0e 92 bd 51 87 0c be 77 d2 5e be 2d 44 8b bd
       -0.07131577 -0.13723494 -0.21759973 -0.06800113
0002e0 c8 17 a5 3d b5 36 2e be 89 4d c3 3d 86 33 86 3e
       0.080611765 -0.17013057 0.09536273 0.26211184
0002f0 5f 8c a7 3d 40 42 0c bd c3 9a 9e bd 9d 26 52 bc
       0.081810705 -0.03424287 -0.07744362 -0.012826589
000300 5b 6f cd 3d 6d 42 52 3d b3 a1 84 bd 2b 24 03 3d
       0.10031005 0.05133288 -0.06476154 0.032016914
000310 4a 1e 9d be bf ee aa 3d 75 6c 07 3e 24 a0 c3 bd
       -0.3068717 0.083463185 0.13224967 -0.09552029
000320 c6 6e db 3d dd b7 99 bd f0 92 59 3d 45 a4 6a be
       0.10714488 -0.07505772 0.053118646 -0.22914226
000330 c1 e6 16 3e 4a b2 22 be 23 d2 15 3c 1d ab 62 bd
       0.14736463 -0.15888324 0.009144339 -0.055338968
000340 93 13 d3 bb 8f 25 87 3d 52 d4 6c 3d 39 08 67 3d
       -0.0064415424 0.065989606 0.057819672 0.056404326
000350 ad 65 1d 3c 1d 50 c3 3c e1 69 f0 3c 2e 7f 42 bc
       0.009606761 0.023841912 0.029347362 -0.011871142
000360 de ce 6c 3e b1 46 3c 3e 5e 78 fc 3d af 04 a1 bd
       0.23125789 0.18386342 0.12327646 -0.078622214
000370 29 29 61 bd 71 49 e9 bd 55 05 9c 3d 3a 78 c4 3c
       -0.054970894 -0.11390961 0.076182045 0.02398311
000380 50 e2 b6 bd f1 33 0b be d6 7b 8a 3c 14 3e 74 3d
       -0.089298844 -0.13594033 0.016904753 0.059629515
000390 e4 02 2f 3d a0 72 10 bd 69 1f ee 3d 56 0b ba bc
       0.042727366 -0.035265565 0.11627085 -0.022710484
0003a0 d1 58 03 3c c7 a7 80 bc 9a ff d0 3d 76 43 02 3e
       0.008016781 -0.015705002 0.10205002 0.12721047
0003b0 cd f3 b6 bc 2e 17 d4 3c 8c 6b 19 3d aa 55 1e bf
       -0.02233305 0.02588996 0.03745608 -0.61849463
0003c0 de 6f ab 3d fb da ca 3d 22 23 7a 3d fe c9 2c 3d
       0.08370946 0.099050485 0.06106866 0.042184822
0003d0 d6 7d 0a bc 82 c7 a9 bd e9 b5 24 3d 25 d7 94 bd
       -0.008452853 -0.08290006 0.040212546 -0.07267598
0003e0 73 53 93 bc 6a 0b b4 3c a7 c0 21 bd d4 0f 00 3c
       -0.017984128 0.021978099 -0.03949037 0.007816274
0003f0 6e af ef 3d 46 f5 d5 3d 4c 8f fd bd d9 b3 9d 3d
       0.117033824 0.10447173 -0.12380847 0.07700319

layer_3.bias f4 [32]
000000 27 77 a0 3f 29 ce 56 3f 8c 6b 05 40 18 01 ae 3f
       1.2536362 0.83908325 2.0846891 1.3594084
000010 ac b1 5d bf e7 94 a2 bf c3 5f b5 bc 0e 19 af c0
       -0.8659923 -1.2701691 -0.02214039 -5.4718084
000020 48 95 b1 be b6 18 c5 c0 11 f9 e3 bf 04 18 59 3c
       -0.34684205 -6.1592665 -1.7810384 0.013250355
000030 c2 53 35 40 46 7a f0 3f e2 56 07 3f 81 3b 5f 3e
       2.8332372 1.8787315 0.5286695 0.21800043
000040 b8 e9 01 3f 74 de ff be 45 64 12 c0 b8 3b 20 c0
       0.5074725 -0.49974406 -2.28737 -2.503645
000050 58 98 2a 40 b3 e0 6a 3d 27 06 af bf 1c 52 68 c0
       2.6655483 0.057343196 -1.3673753 -3.6300116
000060 5f b8 cf bf 8a d8 56 40 65 0e 8c 40 b5 32 b4 3f
       -1.622814 3.3569665 4.376757 1.4077975
000070 fb 4c 65 40 d8 0b 3a 40 4a 99 b1 bf 0b a5 ff 3e
       3.5828235 2.906973 -1.3874905 0.49930605

layer_4.weight f4 [32, 32]
000000 38 2e 36 bd d6 23 eb bd 5a 1a f9 bd a1 7f ed bf
       -0.04447767 -0.114814445 -0.12163229 -1.8554574
000010 a3 ac 23 3e 67 cb 26 3f 45 f5 c6 bf 4a df 0a bf
       0.15983824 0.6515412 -1.55436 -0.5424696
000020 c6 bb 6d 3f d5 c1 a1 bf 39 e3 8d bf fc 64 1e bf
       0.92864645 -1.2637278 -1.1084968 -0.6187284
000030 55 4b ae 3e 7c 73 6e c0 0f fc cd 3e 21 b1 be bf
       0.3404185 -3.7257986 0.40231368 -1.4897805
000040 5e 72 5f c0 51 48 62 bf 33 3d eb 3e 02 40 16 3d
       -3.4913554 -0.88391596 0.4594513 0.036682136
000050 01 18 10 c0 5f 01 10 bc 65 b6 0f be 5e 21 c0 be
       -2.251465 -0.008789389 -0.14034422 -0.37525457
000060 6d 9b 30 bf c3 35 1c c0 5b f9 3e c0 a3 d6 d6 be
       -0.6898716 -2.4407814 -2.9839694 -0.4196063
000070 72 85 53 bf 1a 0e b5 3d fa 74 9a bf 0a 53 99 bd
       -0.82625496 0.0884058 -1.2066948 -0.074865416
000080 81 95 9d bf 9c a6 bf bf c8 f8 7c bf 06 db a6 be
       -1.231125 -1.497272 -0.9881711 -0.32588977
000090 e4 f8 bb bd dc 65 5d be 7f 3d 81 be a3 2e 92 3e
       -0.091783315 -0.21620888 -0.2524223 0.28551206
0000a0 81 be f5 bd 8a 5a 91 3e 43 71 88 be 64 13 2f bf
       -0.11999226 0.28389388 -0.26648912 -0.6838896
0000b0 d4 7a 33 bd 14 ee 0a c0 d6 41 da be 63 7a 84 3e
       -0.04381831 -2.1707811 -0.42628354 0.25874624
0000c0 45 b0 98 3d fd 13 96 3c 0f 0f 98 bc 24 28 8c 3e
       0.07455496 0.018320078 -0.018561868 0.27374375
0000d0 cd 0e f6 bc f1 bd 41 bf ed c8 a1 3e 3a ae 3a 3d
       -0.030036354 -0.7568045 0.31598607 0.04557631
0000e0 ee d6 29 bf e5 e8 00 3e 66 e2 13 3e f1 92 ce be
       -0.6634358 0.12588842 0.14441833 -0.40346482
0000f0 75 3f e8 bf 66 25 e4 bb f1 8b 5f 3f 7a 82 19 3c
       -1.8144366 -0.006962466 0.8732291 0.009369487
000100 cc 19 c7 be 64 6e aa be 76 c7 39 bd aa 65 00 3d
       -0.3888687 -0.33287346 -0.045356236 0.031346954
000110 35 93 1c be fc 3b 03 bd e6 21 02 bd ea 00 2b bd
       -0.1529053 -0.032039627 -0.03177061 -0.04174892
000120 a3 c1 06 3d a2 bf e4 3c 8d 93 d7 3d 24 bc 1a be
       0.03289951 0.027923409 0.1052619 -0.15110832
000130 88 9d 8e 3d da 8e 2f be 15 20 ee bc fc de 74 be
       0.069636405 -0.17144337 -0.029068032 -0.23913187
000140 70 c4 da bc 4e f8 8b bd 21 ef 18 3e ec 30 68 bd
       -0.026704997 -0.0683447 0.1493497 -0.05668728
000150 4b 10 61 be 49 31 93 3e 9f 0a 40 3d f0 30 c6 3e
       -0.21978872 0.2874854 0.04688513 0.3870921
000160 28 7c fc bc 75 cd cb 3d 80 6f 9f be 87 56 09 bb
       -0.030820921 0.09951297 -0.31139755 -0.0020956115
000170 0f a3 b7 3e a5 43 12 3c 9b 53 87 3e 63 e9 ac 3b
       0.3586659 0.0089272605 0.26430973 0.0052768453
000180 f1 fa 80 3d cc 01 5c 3e e0 10 b1 bd 14 da 22 3e
       0.06297863 0.2148506 -0.08645797 0.15903503
000190 2c b0 93 bd 46 d2 61 3a 17 c7 3a bc 8b af e5 3d
       -0.072113365 0.0008614402 -0.011400006 0.11215123
0001a0 09 d7 fa bc bb cf 10 bf 63 dd 3c 3e eb 4d 43 3d
       -0.030620115 -0.5656697 0.18443827 0.04768173
0001b0 6e e3 f2 3d e5 67 84 be b1 5b a6 be 8a 85 30 3e
       0.11859785 -0.25860515 -0.3249183 0.17238441
0001c0 d7 3b 75 bd a3 13 96 bd 30 b9 c1 bc b7 6e 6b be
       -0.05987152 -0.07327964 -0.023647875 -0.22991453
0001d0 a5 54 c4 3e d1 53 a0 bd 91 86 33 be 8e 5d 25 be
       0.3834583 -0.07828487 -0.17531802 -0.1614897
0001e0 a6 8a 8a be d1 20 b8 bd ee d4 7c bd 05 a1 92 bd
       -0.27058905 -0.08990634 -0.061726503 -0.07159618
0001f0 85 21 77 be c9 fc 90 be ec 10 dd be 59 c7 0d 3e
       -0.2413388 -0.2831786 -0.43176973 0.13845576
000200 5e 05 59 3e 89 f7 2d 3d e8 b8 2c be c0 6b a8 bd
       0.21193454 0.042472396 -0.16867411 -0.08223677
000210 09 dd ae be 0e 20 af bc d0 9f 82 be 53 5c 87 bc
       -0.3415301 -0.02137759 -0.25512552 -0.016523516
000220 14 72 41 3d 29 ae 8e 3d ca c4 59 3e 95 12 47 3e
       0.047227934 0.06966812 0.21266475 0.19440682
000230 56 fa 5d be 50 7b e3 be d3 0a b3 bb 1d 97 af 3c
       -0.21677527 -0.44430017 -0.005463937 0.021434361
000240 93 d6 24 3e 1e 5b a9 3c bc 75 1c be 46 b0 05 bd
       0.16097479 0.02067333 -0.15279287 -0.03263881
000250 d8 72 ae 3d ec 43 9f be e0 cb 18 3c e7 3b ec bc
       0.085179985 -0.31106508 0.009325951 -0.028837157
000260 72 b0 85 3d b6 db 00 be 5f 05 ad be 0c 17 6b bc
       0.06527795 -0.12583813 -0.3379316 -0.0143487565
000270 91 c0 b1 be 81 95 c2 3e 9a 43 e6 be 90 93 8c ba
       -0.3471723 0.38004687 -0.4497345 -0.0010725129
000280 a0 69 32 bf 84 c8 14 be f7 e8 0a 3e 5c 6f 0d c0
       -0.6969242 -0.14529616 0.13565432 -2.2099218
000290 2a a8 23 3d 19 89 f6 3e c9 3b 58 be 6b 3b 0f 3d
       0.039955296 0.48151472 -0.21116556 0.034968775
0002a0 ad 2c 8d be 0a ff c7 bf 3d 34 22 3f fd b2 2d bf
       -0.27573147 -1.5624707 0.6336096 -0.6785124
0002b0 38 a1 b7 bc 01 bb bd bc 94 0e 7b 3d df eb 90 bf
       -0.022415742 -0.02316046 0.0612932 -1.1321982
0002c0 ec 39 4e bf a4 6c 17 bf 26 c6 bf be 40 1e be be
       -0.8055713 -0.5915015 -0.37455863 -0.37132454
0002d0 35 f5 d8 bf 77 5b 21 3f f8 62 43 3e 23 68 6a 3e
       -1.6949831 0.6303019 0.19080722 0.22891288
0002e0 3c b4 a1 bf a5 e8 1f bf 4e c1 40 c0 32 08 20 bf
       -1.2633128 -0.6246436 -3.0117984 -0.62512505
0002f0 54 ae 92 bd 5b 0a b6 bd 30 c4 43 be 70 f0 d8 bd
       -0.07162157 -0.08888694 -0.19117808 -0.10592735
000300 e4 69 2d be 5b 68 56 bb dc 87 f4 bd f6 02 83 3e
       -0.16934925 -0.003271601 -0.119399756 0.25588197
000310 9b e1 2e 3e e6 f2 2d be 6d 88 f7 bd 93 eb 4f be
       0.17078249 -0.1698719 -0.12086568 -0.20304708
000320 8f fa 5b 3c f4 1e df bc d3 11 9f 3d 42 47 07 3e
       0.013426437 -0.02723644 0.077670716 0.13210776
000330 25 22 3a be 07 57 3b 3e 0b d8 d6 bc 07 b2 58 3d
       -0.18177088 0.18294917 -0.026226064 0.052904155
000340 98 06 a3 bd e6 f5 6b 3d d5 61 fd 3d a4 54 4b bd
       -0.07960242 0.057607554 0.123721756 -0.049641266
000350 ee ec c8 3c 8d 36 ba 3e 16 90 3f 3e d6 19 b5 bd
       0.02452704 0.36369744 0.18707308 -0.088428184
000360 d1 f8 84 3e 0a 11 15 3e aa 70 37 3e 8f 20 7a bc
       0.25971082 0.14557281 0.17914072 -0.015266552
000370 eb 96 34 be 1b 4c 10 3e 27 7d 27 3e 65 45 00 be
       -0.17635696 0.14091532 0.16356336 -0.12526472
000380 28 26 04 3f ca 82 f1 bd 10 da 04 3e e2 f7 2b bf
       0.5162072 -0.11792524 0.12973809 -0.67175114
000390 55 3e 12 3d f0 e4 a0 bc 17 e4 96 bb 56 22 2c bf
       0.035703976 -0.019640416 -0.004604827 -0.6723989
0003a0 16 3c 23 3d 8b 70 26 3c 97 ea e6 3c 72 57 37 3e
       0.039852224 0.010158668 0.028188033 0.17904451
0003b0 8b 92 30 be af 6b 1e bd 95 04 6f bd 0f 83 ea bd
       -0.17243402 -0.038676914 -0.05835398 -0.11450779
0003c0 b9 48 84 bf ce db 31 3e c7 fd 1e bf e4 a9 6c bf
       -1.0334693 0.17369005 -0.62105983 -0.9244673
0003d0 f0 3c 98 be 69 ab 02 bf c8 f7 e5 3e 7b 64 80 be
       -0.29733992 -0.510428 0.44915605 -0.2507666
0003e0 bb 5d 5e 3f 5d a5 1f 3d 24 1d cd 3d a3 83 05 3c
       0.8686177 0.038976062 0.10015324 0.00814906
0003f0 f6 1c 72 bd 0f 8b 61 be 77 de e6 be 76 08 f1 3d
       -0.05910965 -0.22025703 -0.45091602 0.11769192

layer_4.bias f4 [32]
000000 46 74 e6 3e 3a 15 06 c0 78 e5 06 40 23 98 04 40
       0.45010585 -2.0950456 2.1077557 2.0717857
000010 46 a5 0a 40 a7 47 14 c0 9b da 07 40 c1 7e 46 c0
       2.1663375 -2.3168733 2.1227176 -3.1014864
000020 bc 7b cb 3f ef 2c 08 40 62 df a6 bf 0d ea 3a c0
       1.5897136 2.1277425 -1.3036921 -2.9205353
000030 24 3b 09 40 a0 34 f2 3f 3d d7 a8 3f e0 ee e3 3f
       2.1442347 1.892231 1.3190686 1.7807274
000040 38 fe 21 3f f3 0e 0b 40 91 a0 db 3f 25 75 56 c0
       0.6327853 2.1727874 1.7158376 -3.3509
000050 51 20 28 40 69 5e 40 c0 7f e7 ba 3f ca 46 06 40
       2.6269724 -3.0057623 1.4601897 2.0980706
000060 48 87 18 40 fc 6b 66 3f 90 a1 6f 3e e5 bc 82 3f
       2.383257 0.9000852 0.23401475 1.0213896
000070 f2 67 33 40 01 15 bf be 18 0a 8f bf ab 9f c3 3e
       2.8032193 -0.37320712 -1.1174955 0.38207754

layer_5.weight f4 [16, 32]
000000 df 4a c4 bd 7d 8e 61 3e 5e 18 1e bf 1c 3c c4 be
       -0.09584593 0.22027011 -0.6175593 -0.3832711
000010 88 b0 18 3f 19 1d de be 5e 51 2f 3f 16 38 c7 3e
       0.59644365 -0.43381575 0.6848353 0.38909978
000020 3f 08 09 bd ad 85 b4 3e 6a 5e 94 3d ac 71 37 bd
       -0.03345513 0.35258237 0.072445706 -0.04478614
000030 72 49 37 be b1 52 d4 be 96 1a b5 3d 45 f9 30 bf
       -0.17899111 -0.4146934 0.088429615 -0.69130355
000040 1f 9c 7b 3f 23 4f a0 c0 82 74 49 bf c1 f2 64 3e
       0.98285097 -5.0096602 -0.786934 0.22358228
000050 19 b3 e8 be 8c 62 a7 3f 1a 87 e9 3e 03 dd 9d bd
       -0.4544914 1.3076949 0.45610887 -0.0770817
000060 5a 49 a6 be bf 3d 11 bf c3 a2 8e bd 80 2b 81 3c
       -0.32477838 -0.5673484 -0.06964638 0.015767813
000070 70 b2 e7 c0 d4 04 ec bd 1c bb f4 3d 04 41 18 3e
       -7.240532 -0.115243584 0.11949751 0.14868551
000080 34 4e ee bf 7d c5 5d be 8c 7e 27 bf 9f be 0b 3e
       -1.8617616 -0.21657367 -0.6542747 0.13646935
000090 af d7 03 bf 65 3c 29 bc 08 3e 94 3e 44 ba d8 3e
       -0.5150098 -0.010329341 0.28953576 0.4232961
0000a0 a4 7a ec 3e cc 0e a5 3f 1c 24 84 bd 00 eb 57 bd
       0.46187317 1.2895141 -0.064522 -0.052714348
0000b0 a1 12 20 c0 61 23 54 bf f1 ed 96 3e c0 53 80 bf
       -2.501137 -0.82866484 0.2947841 -1.0025558
0000c0 fe e5 a7 3e 84 62 b0 bf 36 92 8c 3e c0 4d 36 bd
       0.32792658 -1.3780065 0.274553 -0.044507742
0000d0 37 a1 a2 be 8b 66 60 3f 17 52 95 be 02 4e 86 3e
       -0.31763622 0.8765647 -0.29164192 0.2623139
0000e0 80 46 74 3e 2f 69 96 bd 65 1d 29 3e 99 da 8c bf
       0.23855019 -0.07344281 0.1651512 -1.1004211
0000f0 b5 37 98 bf 89 d7 02 be 4a 8c 0c 3f f3 4e 59 3d
       -1.1892 -0.12777533 0.54901564 0.053053807
000100 dd 10 24 bc d1 dd 24 3e 7c b9 e1 3d fb 2b 8b 3e
       -0.010013786 0.16100241 0.110217065 0.27181992
000110 89 8c 89 3e de ae fd bd bc 82 81 3e 84 2f 1e 3e
       0.26865032 -0.12386869 0.25295055 0.15447813
000120 6f 7b 8f 3d c4 3f a7 be 1e 5f 75 be 84 4b c9 be
       0.07005965 -0.32665837 -0.23962066 -0.39315426
000130 97 9e ff 3d ff 1c 76 3d a7 b7 b5 3d b7 10 57 3e
       0.124814205 0.060086247 0.088729195 0.2100247
000140 ec e7 fa bb bf 2d 8c 3e 07 75 56 be d3 b5 dc bd
       -0.007657042 0.27378651 -0.2094308 -0.10776868
000150 dd d8 9c 3e 3f 56 fb be a1 48 04 3e 56 2b 5a 3e
       0.30634204 -0.49089238 0.1291833 0.21305594
000160 57 99 37 bc 8f e4 1d 3b 1a f6 92 bd 1c 96 ec 3d
       -0.011205993 0.002409253 -0.071758464 0.115520686
000170 17 cb 10 3e 86 a5 78 3d cc 73 55 bd b4 62 b2 bd
       0.14139973 0.06070473 -0.052112386 -0.087102324
000180 1d 1f 63 be f8 4f 76 3d fa 10 ab 3c ab fe 66 3e
       -0.22179838 0.060134858 0.020882118 0.22558086
000190 76 c1 1f 3e d5 2e 2e 3e 63 cf b8 3e aa c1 10 3f
       0.15601143 0.17010053 0.36095724 0.5654551
0001a0 23 31 60 3e 4b 2e 25 bf e1 39 ed be 61 3f ce be
       0.21893744 -0.6452376 -0.4633322 -0.4028273
0001b0 36 17 85 3c ff f8 2e 3e c0 59 f1 3d 89 83 46 be
       0.01624642 0.17087172 0.117846966 -0.19386114
0001c0 ac e1 16 be b8 c1 15 3e 9b 11 19 be d2 30 44 be
       -0.14734524 0.14624679 -0.14948122 -0.19159248
0001d0 9c 63 9b 3e 45 01 68 3e bc fb 01 3e 02 5c 7e 3d
       0.30349433 0.22656734 0.12693685 0.062099464
0001e0 aa 6a 23 3e ea 9d 40 3e e0 c0 97 3d bb a1 21 3e
       0.15958658 0.1881024 0.07409835 0.15784352
0001f0 7f 83 5f bd f6 0a f5 bd 3c 55 cb 3d 7c a5 1c be
       -0.054568764 -0.11964981 0.099283665 -0.15297502
000200 cc 94 9d 3e f3 81 f2 3d d3 2d 21 bf bd 31 07 bf
       0.30777586 0.11841192 -0.6296055 -0.5281027
000210 09 c6 01 bf 76 28 d5 bf fa 0f 8a bf 9e 55 c9 3f
       -0.506928 -1.6652973 -1.0786126 1.5729253
000220 a4 f0 06 3e d5 0c d4 3d 77 ad 20 3e 34 20 f5 3d
       0.13177735 0.1035401 0.15691172 0.11969033
000230 00 d5 3c bf 49 f6 78 bf c6 50 a5 be d0 40 3f bf
       -0.7376251 -0.972508 -0.32288188 -0.7470827
000240 14 ab 9f 3e df 00 20 bf 2c 9a 4f 3d 43 8e 80 3e
       0.3118521 -0.6250133 0.05068414 0.25108537
000250 38 6a a5 bf d2 c3 5d 3f 9c e7 d1 be 81 52 b9 be
       -1.292304 0.86626923 -0.40997016 -0.36195758
000260 7a 06 34 3e 23 df 8a be 37 ee bf 3d 16 17 b4 be
       0.17580596 -0.27123365 0.09371608 -0.35173863
000270 19 60 10 bf 30 59 66 bc 91 9b 13 bf fd 42 8a 3e
       -0.56396633 -0.01405935 -0.5765925 0.27004233
000280 fa 6e a6 be 3e 62 87 be 40 81 fa 3c dc ef fb be
       -0.32506543 -0.2644214 0.03057921 -0.49206436
000290 25 a6 9b 3d 5e c0 1d 3f 39 bb a3 be 2e b7 4c bf
       0.07600049 0.61621654 -0.31978777 -0.7996701
0002a0 d6 95 c1 3e de d8 a3 3f 13 45 6c bf 4d 02 e3 3e
       0.37809628 1.2800558 -0.922929 0.44337693
0002b0 fa a8 b0 be d7 5e 50 3e ec 81 e1 3c b1 92 ba 3d
       -0.3450392 0.20348679 0.027527772 0.091100104
0002c0 85 fd 14 3f 20 38 1b be 77 31 d6 bf 83 77 24 be
       0.5819934 -0.15158129 -1.6733845 -0.16061215
0002d0 c5 25 e5 bd 58 9e 9f be 97 e7 d2 3d 50 1b 1c be
       -0.111888446 -0.31175494 0.102980785 -0.15244794
0002e0 ce f5 3d 3f d9 1f 6d 3e 62 b4 d2 3e d3 d1 42 3d
       0.74203193 0.2315668 0.41153246 0.047563385
0002f0 c6 3e e3 bd d4 96 b7 bd b6 7b b5 3e 6a 6d 16 bf
       -0.110959575 -0.08964315 0.35445946 -0.587607
000300 e4 98 4b bf 80 f4 11 be 70 e4 d4 bc 9e 9e 22 3d
       -0.7953017 -0.14253426 -0.025987834 0.03970205
000310 28 08 77 be d1 ff 8e be 3a cc e1 bd ab 70 22 be
       -0.24124205 -0.27929547 -0.11025281 -0.15863292
000320 e7 1f 5f be 61 1f 08 40 f6 09 d5 be 53 19 9a be
       -0.21789514 2.1269152 -0.41609162 -0.30097446
000330 15 45 a9 bd 8d 20 b4 bc 31 52 a6 be ad ef b0 bd
       -0.082651295 -0.021988178 -0.32484582 -0.086394645
000340 eb 91 f7 3e bc 5e 5b 3e 56 19 2c 3e 88 4d 0b be
       0.48353514 0.21422857 0.1680654 -0.13603795
000350 85 2a ee 3d e4 fc 54 3d 2a 82 ed bd a4 66 2b 3e
       0.11629204 0.051998988 -0.115970924 0.16738373
000360 24 b8 2e be f0 05 23 be 5f 02 4e 3e ac 72 52 3d
       -0.17062432 -0.15920234 0.20118092 0.05137889
000370 a2 03 63 be c5 83 c7 3d 5e cd 5c 3e 02 b4 5f bf
       -0.22169355 0.0974193 0.21562716 -0.87384045
000380 9e e4 3e 3e 62 03 0d be d1 9a a7 bf 4d 21 70 3f
       0.18641898 -0.13770822 -1.3094121 0.9380081
000390 33 28 eb 3d 0a 9f c8 3d e2 70 a4 3e 15 b2 ab bf
       0.11482277 0.09795959 0.32117373 -1.3413721
0003a0 a4 5b 30 3f ca 90 24 3f 3f 88 03 3f 69 2e f4 3e
       0.6888983 0.6428343 0.5137977 0.47691658
0003b0 d8 50 32 be f2 66 09 3f 03 ee 5d bf 52 27 29 c0
       -0.17413652 0.5367271 -0.866913 -2.643025
0003c0 a7 e9 59 bf 74 fd cf bf f9 bb 41 be a3 73 db be
       -0.8512215 -1.6249223 -0.18919362 -0.4286166
0003d0 0a ba 90 3d 22 da 8b 3f 2e 2d 8b be 27 b0 68 3e
       0.07066734 1.0925944 -0.27182907 0.22723447
0003e0 c4 c0 01 bf af cb 06 3f 4b 08 96 bf c0 d0 99 be
       -0.5068476 0.52654546 -1.1721281 -0.30042076
0003f0 51 3f 5c bf 95 a6 a1 3d c8 15 46 bf 22 1f 83 bd
       -0.86034113 0.07893101 -0.77376986 -0.064024225

layer_5.bias f4 [16]
000000 2c b3 1f be 8d 62 73 bf a1 a3 e5 3f 49 0e da 3f
       -0.15595692 -0.9507225 1.794056 1.703561
000010 cd c3 ea bf 1c db b4 3f 53 e1 e9 3f 42 cb e1 bf
       -1.8341004 1.4129367 1.8271888 -1.7640154
000020 0f ac 02 40 f3 e0 20 bf 77 57 9c 3f 4c 72 06 40
       2.0417516 -0.62843245 1.2214192 2.1007261
000030 9a d1 cf 3e 32 cd ce 3f ef ae 0d 40 6f 44 dc 3f
       0.405896 1.6156371 2.213802 1.7208384

layer_est.weight f4 [16, 16]
000000 94 11 93 bd a0 7c 05 3d c0 fc ac 3d fe 64 12 3e
       -0.07181087 0.032589555 0.08446646 0.14296338
000010 5a a6 2c be f8 31 27 bd c8 56 75 be e8 7d 9a bd
       -0.16860333 -0.04081914 -0.23958886 -0.07543546
000020 80 1d 07 bb 20 38 15 3c fc b0 ff 3d 4c 83 fd bd
       -0.0020616949 0.0091076195 0.12484929 -0.123785585
000030 8a f9 0a be 3c 8e 55 be f6 6c 57 3e 3c e7 3a 3e
       -0.13571754 -0.2085504 0.21037659 0.18252271
000040 60 19 a8 bc 32 57 7a 3e c6 8c 4f 3e 64 5e c2 bd
       -0.020519912 0.24447325 0.20268545 -0.0949066
000050 42 38 49 3e 98 c6 89 3d 98 30 04 bd ec 37 41 3e
       0.19650367 0.06727332 -0.032272905 0.18868989
000060 1c 39 00 be 90 71 56 bd 84 54 b1 bd ca 96 72 3e
       -0.12521785 -0.052354395 -0.08658698 0.23690334
000070 48 1b 06 be 40 ee e8 bc ba 55 49 be 4a 63 79 be
       -0.13096344 -0.028433919 -0.19661608 -0.24354282
000080 de b8 1f be 46 1b 3d 3e 4a 42 05 3e 32 40 31 be
       -0.15597865 0.18467435 0.13013569 -0.17309645
000090 f0 98 8a 3c 38 e0 22 3e 96 b9 21 3e dc 40 f6 bd
       0.01691863 0.15905845 0.15793452 -0.1202409
0000a0 14 69 a5 3d ee a0 18 be e8 60 1c bd 56 92 2e 3e
       0.08076683 -0.1490514 -0.038178355 0.1704801
0000b0 10 dd 45 bd 14 86 ed 3d c0 c0 1b 3c 20 2b 33 bc
       -0.048306525 0.11597839 0.009506404 -0.010935575
0000c0 d6 c0 4f be 50 fd 6c 3e d0 db 6d 3e f0 4d 43 3e
       -0.20288405 0.23143506 0.23228383 0.190727
0000d0 80 f9 a4 bb 92 37 77 be 5c db 0f 3e f4 82 0b 3e
       -0.0050346255 -0.24142292 0.14048523 0.13624173
0000e0 86 f4 2c 3e 7a 63 0c 3e 80 32 ac bb 80 1f 2e bc
       0.16890153 0.13709822 -0.0052550435 -0.010627627
0000f0 98 42 55 bd d8 0d 9b 3d 3e 28 6f be d0 4f 25 bd
       -0.052065462 0.07571 -0.23355195 -0.04035932
000100 00 4a 95 bb b2 b4 78 3e 1a e9 02 3e 50 89 c0 bd
       -0.0045559406 0.2428768 0.12784234 -0.0940119
000110 06 38 5f 3e da 43 41 3e d0 bd ce 3c 00 c9 95 ba
       0.21798715 0.1887354 0.025236994 -0.00114277
000120 66 5b 11 3e 20 88 7c bd 40 64 67 bc 10 a5 79 3e
       0.14195022 -0.061653256 -0.014123023 0.24379373
000130 40 e9 bb bd be c6 75 be 32 52 41 be d8 c4 45 3e
       -0.09175348 -0.24001595 -0.18879011 0.19313371
000140 0c 8f 30 3e 3c 9b 15 3e b0 73 1b 3d 04 8e cb 3d
       0.17242068 0.14609998 0.037952125 0.09939197
000150 4e dc 08 be 7c a8 27 3e 70 41 7e bd 78 85 63 bd
       -0.1336529 0.16372865 -0.062074125 -0.055547208
000160 68 40 78 bd 00 45 eb 3d c0 fc 5e bc c0 80 c7 bc
       -0.060608298 0.1148777 -0.013610065 -0.024353385
000170 b8 24 4c 3d 72 c9 53 be 82 29 66 be 76 06 7f be
       0.049839705 -0.20682314 -0.22476771 -0.24904808
000180 00 0a ad ba 1a 98 4b 3e ec 15 37 be 34 73 49 3e
       -0.0013201833 0.19882241 -0.17879456 0.19672853
000190 1c c1 ad bd b0 38 bd 3c 64 5d 96 bd 44 68 bd bd
       -0.08484098 0.02309832 -0.073420316 -0.09248403
0001a0 c2 74 76 be 04 aa 8e bd e4 e9 14 be fe f7 67 be
       -0.24067977 -0.06966022 -0.14542347 -0.22653195
0001b0 98 20 f6 3d aa 51 24 3e c0 34 18 be 8c 36 64 3e
       0.120179355 0.16046777 -0.14863873 0.22286433
0001c0 90 85 41 3e e6 3c 2b be a6 e4 6b be 7c 12 1e 3e
       0.18898606 -0.1672245 -0.23036441 0.15436739
0001d0 c0 2c 85 bd 48 cc e6 3d 70 5f 17 3e 26 35 73 3e
       -0.06502676 0.11269432 0.147825 0.23750743
0001e0 74 7c a1 3d be 73 53 3e 44 1d 23 3e 68 13 fc bd
       0.07885066 0.20649621 0.15929133 -0.12308389
0001f0 b0 e4 98 bd 6a 50 32 be 78 f7 84 bd b8 7d 0c bd
       -0.07465494 -0.17413488 -0.064925134 -0.034299582
000200 7c b2 20 3e 80 4d 3b bd 3c fa 94 3d d0 c7 c0 3c
       0.15693086 -0.045728207 0.07274291 0.023532778
000210 18 e3 52 3e 00 c0 ff 39 b0 94 f0 bc 88 b5 31 3e
       0.20594442 0.0004878044 -0.029367775 0.17354405
000220 90 ec a1 bc ca 16 5c be a0 9b 80 3c 70 16 98 3c
       -0.019766122 -0.21493068 0.015699208 0.018565387
000230 fa aa 4c 3e 34 cc 7b be 32 48 44 be 80 73 a3 bc
       0.19987097 -0.24589616 -0.19168165 -0.019952536
000240 44 fe 9d 3d 3a e8 29 be d8 9b 28 bd 4c a4 e8 3d
       0.07714513 -0.16592494 -0.04116425 0.11359462
000250 30 07 57 3e 48 45 fa 3d 30 fb 87 bd 84 1c 24 3e
       0.20998836 0.122202456 -0.06639707 0.16026503
000260 9e d8 6c be 48 0f 7f bd 08 16 f1 bd 3c 8a f3 3d
       -0.23129508 -0.062270433 -0.1177178 0.118916005
000270 f8 db 57 3e 4c 2d d3 3d b0 7e 30 bd b8 e5 02 3e
       0.21080005 0.10311374 -0.04308957 0.12782943
000280 64 dc 2f 3e 12 62 4d be 8e b6 35 be c8 1a 12 bd
       0.17173916 -0.20056942 -0.1774542 -0.03567007
000290 ce c6 00 be e8 70 73 be e2 a0 07 be 00 9c 44 ba
       -0.12575838 -0.23773539 -0.13244966 -0.00075000525
0002a0 60 14 97 bc e2 dc 7a 3e 90 9b 80 3c 40 19 c3 bd
       -0.018442333 0.24498323 0.015699178 -0.095263004
0002b0 58 c7 f7 3d 4a dc 35 3e 40 3c 6d 3c 62 6f 41 be
       0.12098569 0.17759815 0.014479697 -0.18890145
0002c0 30 5f c3 bd d4 f4 6f be 94 ae b3 bd 40 fb e6 3d
       -0.0953964 -0.23433238 -0.087735325 0.11278391
0002d0 54 3e 8b bd 5a 3a 04 be f4 0b d3 3d 88 ed aa bd
       -0.067989975 -0.12912884 0.10305014 -0.08346087
0002e0 ce 3b 14 be a8 de 67 3d d2 60 58 be 18 a1 7a bd
       -0.14475939 0.056608826 -0.21130684 -0.061188787
0002f0 cc 18 f3 3d 70 fa 43 bd 88 d5 52 be f0 6c 85 bd
       0.11869964 -0.047846258 -0.20589268 -0.06514919
000300 fc 3f 3a 3e ec 33 01 3e 38 9c 30 bd c0 4b 50 be
       0.1818847 0.12617463 -0.04311773 -0.20341396
000310 a4 02 42 be 14 5e 72 3e 54 28 94 3d 28 fe 1c bd
       -0.1894632 0.236687 0.072342545 -0.03832832
000320 78 9f f1 3d 92 40 7d 3e 50 6e 5d 3e fe 32 50 be
       0.117979944 0.24731663 0.21624112 -0.20331952
000330 0c 5f 0f be 36 1a 2f be 18 98 2a bd e0 8d 27 be
       -0.14001101 -0.17099842 -0.041648954 -0.16362715
000340 e0 d1 2a bd 44 ab 26 be 1a 73 15 be ca 3c 5a be
       -0.04170406 -0.1627627 -0.14594689 -0.21312252
000350 b6 59 52 be 4c 32 27 3e 88 93 c8 bd ac bc e1 3d
       -0.20542035 0.1632778 -0.09793764 0.110223144
000360 b2 0c 26 3e 0e a5 0a be c0 52 94 bd 14 7e 6d 3e
       0.1621578 -0.13539526 -0.07242346 0.23192626
000370 08 d8 9e bd e6 c9 48 3e 22 e9 6d 3e 18 18 b3 bd
       -0.077560484 0.19608268 0.23233464 -0.0874483
000380 08 ce 4c 3d 00 b2 2c 3b f4 a4 6d be 4c d8 0c 3e
       0.050001174 0.0026351213 -0.23207456 0.13754386
000390 d0 ff 5b 3e 10 71 44 bd d4 a7 ea 3d 78 a1 06 3e
       0.21484303 -0.047959387 0.11457792 0.13147533
0003a0 e8 23 7c bd 00 c3 68 bc 04 c0 e1 bd 64 cc 86 3d
       -0.06155768 -0.014206648 -0.11022952 0.06581953
0003b0 64 42 72 be 34 44 c1 bd 2e e0 55 be 1e 57 6e be
       -0.23658139 -0.09436837 -0.20886299 -0.2327542
0003c0 dc ca 4d 3e 3c 16 60 be 88 f8 45 3e 00 24 8b bc
       0.20096916 -0.21883482 0.19333088 -0.01698494
0003d0 84 58 11 be 8c 17 59 be 30 53 ba bd d8 d2 00 3e
       -0.14193922 -0.21200389 -0.09097898 0.1258043
0003e0 8c 34 28 be 70 ad be bc 80 72 49 3b 6e 28 3d be
       -0.16426295 -0.02327606 0.0030738413 -0.18472454
0003f0 18 a9 c4 bd 80 87 19 3d aa 6a 7a 3e 56 da 7b be
       -0.096025646 0.03748274 0.24454752 -0.24595007

layer_est.bias f4 [16]
000000 f8 ff b7 bd 92 41 79 3e 80 c5 8f bc e6 6c 56 be
       -0.08984369 0.2434142 -0.01755023 -0.20939979
000010 c0 2b 2b bc 64 45 dc bd 2a 11 40 be 80 99 dd bb
       -0.0104474425 -0.10755423 -0.18756548 -0.0067626834
000020 20 37 6c bd 0e b2 13 3e 38 6e 47 bd 20 c8 6c 3d
       -0.05766976 0.14423391 -0.048689097 0.05780804
000030 88 64 53 bd 5c 76 c5 bd a8 c5 51 3d 60 30 13 bc
       -0.051609546 -0.09641716 0.05121389 -0.0089837015
