saved_models/qpsk_HeuristicNet_nt8.pkl (torch, 209823 bytes, 13 tensors)

layer_1.weight f4 [128, 304]
0	0x3c9c245a	0.019060303
1	0x3a941ab8	0.0011299467
2	0x3bf95ef8	0.007610198
3	0xbc59e996	-0.01330032
4	0x3a880490	0.0010377336
5	0xbc113719	-0.008863234
6	0xbb3cbe04	-0.0028799782
7	0x3c091b8b	0.008368383
8	0x3a71eba5	0.0009228534
9	0x3b82d1d6	0.0039922995
10	0xbbeb7b1f	-0.007186308
11	0x3c3cfb8d	0.011534584
12	0xbc817e3e	-0.015807267
13	0xbd370b46	-0.044688486
14	0x3d9a7069	0.07540972
15	0x3c3a114c	0.011356663
16	0xbccd25e4	-0.025042482
17	0x3cc5e7fa	0.024158467
18	0x3ccdf75e	0.025142368
19	0xbce9cf4e	-0.028541233
20	0x3d456641	0.04819322
21	0x3b1092ae	0.0022060084
22	0x3a3955f2	0.0007069997
23	0x3c739408	0.014866836
24	0x3d60452b	0.054753464
25	0xbc62cf66	-0.013843393
26	0xbc4be883	-0.012445572
27	0x3c2f6e49	0.010707446
28	0xbd43c3cd	-0.047794152
29	0xbbe56edb	-0.0070017404
30	0x3cc9b38a	0.024621744
31	0xbbd9e597	-0.0066496837
32	0x3c1309c4	0.008974496
33	0xbc21c03d	-0.009872493
34	0xbcf685cb	-0.030093094
35	0xbce93e6d	-0.02847215
36	0x3c1d05ea	0.00958393
37	0xbbd9ef52	-0.0066508437
38	0x3b54aee9	0.0032452887
39	0xbd2a92b8	-0.04164383
40	0x3d00b516	0.031422697
41	0xbd68e047	-0.056854513
42	0xbc86f659	-0.01647489
43	0x3ae68dad	0.001758983
44	0xbcbda961	-0.023152055
45	0xba99752e	-0.0011707896
46	0xbc32e622	-0.010919126
47	0xbc799fa0	-0.0152358115
48	0x3c9d9516	0.019236129
49	0xbd3b6eb9	-0.04575989
50	0xbc3fe0bb	-0.011711295
51	0x3ca9599e	0.020672616
52	0xbc4a3506	-0.012341743
53	0x3be01c42	0.006839306
54	0x3b594468	0.0033152346
55	0x3d4c2a2f	0.049844917
56	0x3d0bac70	0.034099996
57	0xbc46c342	-0.012131514
58	0x3a24efba	0.00062918256
59	0xbce432d1	-0.027856262
60	0x3cdfb547	0.02730812
61	0x3c50de2e	0.012748284
62	0x3d095ac4	0.033533826
63	0x3b74287b	0.0037255574
64	0x3d63f7dd	0.055656303
65	0x3d370ef7	0.044692006
66	0x3cea103a	0.02857219
67	0x3cb8d4a2	0.022562329
68	0xbd1d4014	-0.038391188
69	0x3ca8c877	0.020603402
70	0xbc9ae2df	-0.018907009
71	0x3d0d1ad2	0.034449406
72	0x3c85436c	0.0162675
73	0xbc61687b	-0.01375782
74	0x3cc14393	0.023591792
75	0xbd63721b	-0.05552874
76	0xbd3b7d65	-0.045773882
77	0xbc9c29cd	-0.0190629
78	0xbd2e6b9c	-0.042583093
79	0xbc275b3e	-0.010214625
80	0x3b8bdc20	0.0042681843
81	0x39fffd00	0.0004882589
82	0xbcea8304	-0.028626926
83	0x3d614b91	0.055003706
84	0x3c4e2e17	0.012584231
85	0x3cc918f4	0.024548031
86	0x3c344b9e	0.011004357
87	0x3d1667f0	0.036720216
88	0xbc57cd64	-0.013171528
89	0x3bd32d5e	0.006444617
90	0x3bcfa644	0.006336959
91	0xbd276968	-0.040872008
92	0xbd38319c	-0.044969186
93	0xbd0e7e41	-0.034788374
94	0x3c15acee	0.009135468
95	0x3d0f8ecc	0.03504829
96	0x3be74298	0.007057499
97	0x3d618f01	0.05506802
98	0x3ce67ace	0.02813473
99	0xbcb3e9d8	-0.021962091
100	0xba696a00	-0.000890404
101	0x3bf76c4d	0.0075507523
102	0xbcc611f6	-0.024178486
103	0xbd937c19	-0.07201404
104	0xbb9e79bb	-0.0048362887
105	0x3d11f941	0.035638098
106	0xbbce5721	-0.0062970077
107	0x3ce81201	0.028328897
108	0x3d21d5fb	0.03951071
109	0x3d9c9ddc	0.07647297
110	0x3cd143f4	0.025545098
111	0xbc638bae	-0.013888283
112	0xba70cf40	-0.0009186156
113	0xbbd523f0	-0.006504528
114	0xbc5ee298	-0.013603829
115	0x3d55ab97	0.052165594
116	0x3ce17fda	0.027526785
117	0xbc4292a8	-0.011875786
118	0xbb89134a	-0.0041832076
119	0x3ab941d3	0.0014133997
120	0x3d04ea9a	0.032450296
121	0xbadecf45	-0.0016999027
122	0x3cf59886	0.029979955
123	0x3d4eef8b	0.050521415
124	0xbc8b2968	-0.016987517
125	0x3c79f92a	0.015257159
126	0x3bedb53e	0.007254272
127	0xbcae6c79	-0.021291958
128	0xbc1cff40	-0.009582341
129	0xbc91bb6e	-0.017789569
130	0xbd689cb4	-0.05679007
131	0x3d299011	0.041397158
132	0x3d2b0157	0.041749325
133	0xbd1c7160	-0.03819406
134	0xbd06e18c	-0.032929942
135	0xbb7e74ce	-0.0038826945
136	0x3d1ee690	0.0387941
137	0x3c7c3d78	0.015395515
138	0x3ac38666	0.0014917373
139	0x3c92a20d	0.017899537
140	0x3cd2d870	0.025737971
141	0x3be27030	0.0069103464
142	0xbcaec0e0	-0.021332204
143	0xbd64db51	-0.05587322
144	0xbd3b20ae	-0.045685463
145	0xbd02d3c2	-0.03194023
146	0xbd0bc7d8	-0.034126133
147	0x3c83765a	0.016047645
148	0xbca9db8c	-0.02073457
149	0x3d44eb5f	0.04807603
150	0xbd293726	-0.04131236
151	0xbd5ab7d9	-0.053397987
152	0xbc778410	-0.01510717
153	0xbc657e3a	-0.014007146
154	0x3cc751fb	0.024331084
155	0xbc9a9d6a	-0.018873889
156	0x3c67694d	0.014124227
157	0xbc2b4b6a	-0.010454992
158	0x3d50c490	0.050968707
159	0x3be6961d	0.007036938
160	0xbc9cb944	-0.01913131
161	0xbd28d053	-0.0412143
162	0xbd0acdcb	-0.033887666
163	0x3d4f01c3	0.05053879
164	0x3d347117	0.044053163
165	0x3d157db9	0.03649685
166	0xbc13b9b8	-0.009016447
167	0xbd121a6c	-0.03566973
168	0xbbb5a1a0	-0.005542949
169	0x3c4610fd	0.012089011
170	0x3d2374b2	0.03990621
171	0x3d0fea40	0.035135508
172	0xbc22ad74	-0.00992905
173	0xbd358d07	-0.044323947
174	0xbb2311a1	-0.0024882334
175	0xbca3e03c	-0.020004384
176	0xbc38cd84	-0.0112794675
177	0xbd54a761	-0.051917437
178	0xbbcfa118	-0.0063363425
179	0xbcfa6379	-0.03056501
180	0xbc158b08	-0.009127386
181	0x3b9bd248	0.004755292
182	0x3d1d1555	0.038350422
183	0xbcbc4076	-0.022979956
184	0xbcc528ec	-0.024067365
185	0xbbaff378	-0.0053696
186	0xbd3cdc38	-0.046108454
187	0x3cae314b	0.02126374
188	0xbcdff6e4	-0.027339406
189	0xbc602882	-0.013681533
190	0x3d03a0e1	0.032135848
191	0x3be16317	0.0068782675
192	0xbd4ec688	-0.050482303
193	0x3865f000	5.4821372e-05
194	0x3cab724e	0.020928528
195	0x3ce54cb2	0.027990673
196	0x3d3e640f	0.046482142
197	0xbcadbe8c	-0.021209024
198	0x3d18e513	0.037327837
199	0xbd33e881	-0.043922905
200	0x3c952d5a	0.018210102
201	0x3b297ff0	0.002586361
202	0x3cd01bc2	0.025403861
203	0xbc8f0958	-0.01746051
204	0x3d0585d6	0.03259834
205	0xbd76fb48	-0.060298234
206	0xbc92bb98	-0.017911717
207	0x3cbfc543	0.023409491
208	0xbc5933dc	-0.013256993
209	0x3cb15f7a	0.021651972
210	0xbc480db4	-0.012210298
211	0x3d0afa29	0.033929978
212	0x3c8b1882	0.01697946
213	0x3d45f219	0.048326585
214	0xbb23d190	-0.0024996735
215	0x3b4ad9c0	0.0030952543
216	0xbba122b8	-0.004917469
217	0xbd332d02	-0.043744095
218	0xba8b8540	-0.001064457
219	0x3d4c4fe7	0.04988089
220	0xbbe670c9	-0.007032488
221	0x3cf165e0	0.029467523
222	0xbbbbf268	-0.005735684
223	0x3b5c3a20	0.003360398
224	0xbcd2eda6	-0.025748085
225	0xbcbe9f02	-0.02326918
226	0x3c8516d6	0.01624624
227	0x3d32a18b	0.04361109
228	0xbd341aea	-0.04397098
229	0x3ce3820e	0.027771976
230	0xbd2fed43	-0.04295088
231	0xbc5b4670	-0.013383493
232	0xbc8d421c	-0.017243437
233	0xbc0f93a4	-0.008763228
234	0xbc74a004	-0.014930729
235	0xba7be4c0	-0.00096089765
236	0xbcd91194	-0.02649764
237	0xbc1b2711	-0.009469763
238	0xbd5d0fd9	-0.05397019
239	0x3a8f3ad4	0.0010927566
240	0xba10ac00	-0.0005518794
241	0x3c04da9c	0.008108761
242	0xbd35dc20	-0.04439938
243	0xbcb6e7ec	-0.022327386
244	0x39cafe80	0.0003871806
245	0xbd4a50f2	-0.0493936
246	0xbc9e1c70	-0.01930067
247	0xbd2a3f78	-0.041564435
248	0xbcb81714	-0.022471942
249	0x39843f80	0.00025224313
250	0xbca6e540	-0.020372987
251	0x3d32ea1d	0.0436803
252	0x3d191e13	0.037382197
253	0xbd5e0b9b	-0.054210287
254	0xbcb5cfa4	-0.022193737
255	0x3d25e1f2	0.04049868

layer_1.bias f4 [128]
0	0xbfcec001	-1.6152345
1	0xbf63ee98	-0.8903594
2	0xc056128c	-3.344882
3	0xc0ae36d2	-5.444192
4	0xc08773c9	-4.232884
5	0xbec55a84	-0.3854562
6	0xc004fe6f	-2.0780294
7	0xbffe5880	-1.9870758
8	0xbf07eeb9	-0.53098637
9	0xbfa3dbfb	-1.2801508
10	0xc0ad8b0e	-5.4232244
11	0xc08fbc34	-4.491724
12	0xc05bd516	-3.4348807
13	0xc03a15c7	-2.9075792
14	0xbfe1ad83	-1.7631077
15	0xbd9f28c7	-0.077714495
16	0xbffb00b1	-1.9609586
17	0xbf4eb79f	-0.80748934
18	0xc0e6615e	-7.1993856
19	0xc0ab947d	-5.361876
20	0xc087c65d	-4.2429643
21	0xc02e1fb4	-2.720685
22	0xbf909e21	-1.1298257
23	0xbff80d00	-1.9378967
24	0xbf948f0c	-1.1606154
25	0xc0d21986	-6.5656157
26	0xc08ae43a	-4.3403597
27	0xc01b4e07	-2.4266374
28	0xbfbb758e	-1.464525
29	0xbfc8b23e	-1.5679395
30	0xbfbd3961	-1.4783136
31	0xc0e34759	-7.1024594
32	0xbf758680	-0.95908356
33	0xc02cb5ce	-2.6985965
34	0xbfd501e6	-1.6641204
35	0xc10b0d09	-8.690682
36	0xc0283b2b	-2.6286113
37	0xc05e8637	-3.4769418
38	0xc0ffb744	-7.9911213
39	0xc01aee71	-2.4208033
40	0xc075cf75	-3.8407872
41	0xc0c14cea	-6.040639
42	0xbe6f42d4	-0.23365337
43	0xc00882bd	-2.1329796
44	0xbf2d3650	-0.67661
45	0xbfa154e5	-1.2604033
46	0xc0c3db89	-6.1205487
47	0xbf9023fb	-1.126098
48	0xc1003a39	-8.0142145
49	0xc0312955	-2.7681477
50	0x3dfbd81f	0.12297081
51	0xc08aedb8	-4.3415184
52	0xbf9620ba	-1.1728737
53	0xbf8893a4	-1.0670056
54	0xbf75f1e1	-0.960722
55	0xc104c19d	-8.297269
56	0xbf65a818	-0.89709616
57	0xbf8cb982	-1.0994112
58	0xc0a58228	-5.172138
59	0xbdfb1c9a	-0.12261315
60	0xc11cbc55	-9.7959795
61	0xc086254f	-4.1920543
62	0xc050c652	-3.2621045
63	0xc08fb04c	-4.4902706
64	0xc080342d	-4.006369
65	0xc0a1f762	-5.061448
66	0xc0044c6c	-2.0671644
67	0xc00086de	-2.0082316
68	0xbf821f47	-1.0165795
69	0xc0f78464	-7.734911
70	0xbfa66b95	-1.3001581
71	0xbff14490	-1.8849049
72	0xbfcee3ea	-1.6163304
73	0xc00647e0	-2.098137
74	0xc0803cc8	-4.0074196
75	0xc063d7ec	-3.5600538
76	0xbd994dfa	-0.07485576
77	0xbfc8092b	-1.5627798
78	0xbfa0e30c	-1.2569289
79	0xc00edc28	-2.2321873
80	0xc0117e62	-2.2733388
81	0xc089f596	-4.3112288
82	0xc0b50d85	-5.6579003
83	0xbfcf3b95	-1.6190058
84	0xbf423adc	-0.7587106
85	0xc05f1ca7	-3.4861238
86	0xc093cfb6	-4.6191053
87	0xbf8607ab	-1.047109
88	0xbff1db1b	-1.8894991
89	0xc07f65a5	-3.990579
90	0xbe72c471	-0.23707749
91	0xc0da5414	-6.8227634
92	0xc09cbbf3	-4.897943
93	0xbfecc846	-1.8498619
94	0xc0552288	-3.3302326
95	0xc0e5fcd1	-7.1871114
96	0xc084c8e6	-4.1495237
97	0xbdb7def2	-0.0897807
98	0xbfdce1e7	-1.725644
99	0xc0a5a19b	-5.175977
100	0xbff90545	-1.9454733
101	0xc014240c	-2.3147001
102	0xc086722a	-4.201436
103	0xc076de2a	-3.8573098
104	0xc004c19c	-2.074317
105	0xc090c3f8	-4.523922
106	0xc06b906a	-3.6806893
107	0xbfd9a1e5	-1.7002531
108	0xc09817f7	-4.7529254
109	0xbffbe8c0	-1.9680405
110	0xc085e74d	-4.184485
111	0xbfce03c5	-1.60949
112	0x3d5725b5	0.052526195
113	0xbdc1ec98	-0.09468955
114	0xc09ca175	-4.894709
115	0xc01eb9e9	-2.480097
116	0xc07aa68d	-3.9164155
117	0xbfbff60f	-1.4996966
118	0xc0520198	-3.2813473
119	0xbfe0c10e	-1.7558916
120	0xbf7ad730	-0.979846
121	0xbf584eb4	-0.8449509
122	0xc07c150d	-3.9387848
123	0xc04ecc4f	-3.23122
124	0xc0543a67	-3.3160646
125	0x3fc81d65	1.563397
126	0xc09d22b5	-4.9104867
127	0xc05c8eea	-3.4462228

layer_2.weight f4 [64, 128]
0	0xbcb6da84	-0.022320993
1	0xbb07493d	-0.0020643019
2	0xbc1bd07a	-0.009510154
3	0x39c581ec	0.00037671567
4	0xbd9dde25	-0.07708386
5	0x3c9377cf	0.018001465
6	0xbc6d3515	-0.014477988
7	0x3c80acde	0.01570743
8	0x3cd2c540	0.025728822
9	0xbb1a9873	-0.0023589402
10	0xbde42764	-0.11140326
11	0xba5cc706	-0.0008421991
12	0xbd1220a0	-0.035675645
13	0xbd7c4d3f	-0.061597105
14	0xbc083993	-0.008314508
15	0xbc377699	-0.0111977095
16	0x3b7c0ebc	0.003846093
17	0xbc27400f	-0.010208144
18	0xbbe965e1	-0.0071227406
19	0xbb533e3f	-0.0032233146
20	0xbcb91d39	-0.022596942
21	0x3c2fc02c	0.01072697
22	0xbc6b8b69	-0.0143765
23	0xb88ee077	-6.8128975e-05
24	0x3f3e199d	0.7425783
25	0x3cb50fd4	0.022102274
26	0x3fb25c82	1.3934481
27	0x3c25c097	0.010116718
28	0x3cf88f8f	0.030341892
29	0xbc099d3c	-0.008399304
30	0xbd4ed5d9	-0.05049691
31	0xbc9d1a26	-0.019177508
32	0x3c37132a	0.011174003
33	0x3b099821	0.0020995217
34	0xbc910f63	-0.017707532
35	0xbc39cb79	-0.011340016
36	0xbd820f8c	-0.063506216
37	0x3a17dda7	0.00057932216
38	0x3c5292c6	0.012852376
39	0x3c33f1c7	0.010982937
40	0xbd930244	-0.071781665
41	0xbc251d24	-0.010077748
42	0x3b0087ff	0.001961231
43	0xbd330f14	-0.04371555
44	0xbc89b945	-0.016811976
45	0xbcc4c016	-0.024017375
46	0x3b919da2	0.00444384
47	0xbc91e4be	-0.017809268
48	0x3c5f46ec	0.013627749
49	0x3cda6286	0.026658308
50	0xbc085b47	-0.008322543
51	0xbad95e66	-0.0016583919
52	0xbf9dabfc	-1.231811
53	0xbe16c980	-0.14725304
54	0xbca4c9ef	-0.02011582
55	0xbcc303d1	-0.02380553
56	0x394980c2	0.0001921682
57	0x3c688d84	0.014193896
58	0xbc065da6	-0.008201038
59	0xbafc3843	-0.0019242842
60	0x3c1c0ae5	0.009524082
61	0x3cb74cda	0.022375513
62	0x3c8490be	0.0161823
63	0xc0d2204e	-6.5664434
64	0xbdc7d4ce	-0.09757386
65	0x3ae3aa16	0.0017369415
66	0x3b08183c	0.0020766398
67	0xbc865f11	-0.016402753
68	0xbe224a2b	-0.15848605
69	0x3e73e43b	0.23817532
70	0xbbfecbbe	-0.007775753
71	0x3c74a4b9	0.014931851
72	0xbd08ff61	-0.033446673
73	0xbd2c0e10	-0.0420056
74	0xbbcac877	-0.006188448
75	0x3ca983be	0.020692702
76	0x3c00f972	0.007871972
77	0xbb92f06f	-0.0044842283
78	0x3c853f97	0.016265674
79	0x3bbaf251	0.005705156
80	0xbabf326e	-0.0014587173
81	0xbfe1bca4	-1.7635694
82	0xbbc7f910	-0.0061026886
83	0x3f58d7e1	0.84704405
84	0xbb0ac5bf	-0.0021174995
85	0xbd70fe5f	-0.058836337
86	0xbcf85a79	-0.030316578
87	0x3c18b0fa	0.009319538
88	0x3c2b00c5	0.010437195
89	0xbe4aecfd	-0.19816966
90	0x3bf10da0	0.0073563606
91	0x3cfdabd2	0.03096572
92	0xbcc40339	-0.023927318
93	0xbb85c7f8	-0.004082676
94	0x3d862b90	0.06551278
95	0xbc2dbfc4	-0.0106048025
96	0xbde30029	-0.11084015
97	0xbb4b6789	-0.0031037054
98	0xbfa86c47	-1.3158044
99	0x3cbc58f0	0.022991627
100	0x3c6b5c03	0.014365199
101	0x3c39f832	0.011350678
102	0x3fc60310	1.5469685
103	0x3c460c9c	0.012087967
104	0x3c5433aa	0.012951771
105	0xc0ccdea5	-6.4021783
106	0xbecf3fa0	-0.4047823
107	0x3fa5b10d	1.2944657
108	0x3cf068cf	0.029346852
109	0xbc26e382	-0.010186078
110	0xbff07723	-1.8786358
111	0xbc600045	-0.013671939
112	0x3c9b51a7	0.018959833
113	0xbbfb4c5f	-0.0076690163
114	0xc05d4500	-3.4573364
115	0xbd83f4ca	-0.06443174
116	0xbc21d1a3	-0.009876641
117	0x3ac33fd2	0.0014896339
118	0xbdd150a1	-0.10220457
119	0x3c4a9765	0.012365197
120	0x3ab933af	0.0014129783
121	0xbc4c547b	-0.012471314
122	0x3befe77a	0.0073212953
123	0xbc9011fd	-0.017586702
124	0x3d9dc8b4	0.07704297
125	0xbcf4a600	-0.029864311
126	0xc05436a5	-3.3158352
127	0xbcf3a409	-0.029741304
128	0x3c1f3f1c	0.009719636
129	0xbdc463c3	-0.095893405
130	0xbe288499	-0.16456832
131	0xbe4bb00a	-0.19891372
132	0x3d09c1c7	0.033632066
133	0xbe583145	-0.21112545
134	0xbdf436c8	-0.11924511
135	0xbdb5615b	-0.0885646
136	0x3cc345b7	0.023836954
137	0xbd66d5b8	-0.05635616
138	0xbdbeafa0	-0.093108416
139	0xbe0823c2	-0.1329489
140	0xbe925c4d	-0.28586045
141	0xbde296cf	-0.11063921
142	0xbe559ada	-0.20859852
143	0xbe4ded9e	-0.20110175
144	0xbcbcd5ca	-0.023051161
145	0xbe5597c8	-0.20858681
146	0xbe0588f1	-0.1304052
147	0xbe15feb9	-0.1464795
148	0xbddf7aa3	-0.10912063
149	0xbe0a9280	-0.13532448
150	0xbc759616	-0.014989397
151	0xbd9b137f	-0.07572078
152	0xbda97945	-0.082750835
153	0x3ce12859	0.02748506
154	0xbe112b32	-0.14176634
155	0x3deaebf3	0.11470785
156	0x3c4ff4bc	0.012692627
157	0xbe36d98a	-0.17856422
158	0xbe493623	-0.19649558
159	0xbde6aa8f	-0.11263
160	0xbe08a322	-0.1334348
161	0x3c9ed4d2	0.01938859
162	0xbd074740	-0.033026934
163	0xbe112da9	-0.14177574
164	0x3d186d43	0.037213575
165	0xbe1d86bf	-0.15383433
166	0xbd932f32	-0.07186736
167	0x3d56a878	0.052406758
168	0x3da1747d	0.078835465
169	0xbde59955	-0.112108864
170	0xbe9886c4	-0.29790318
171	0xbde70c17	-0.11281603
172	0xbe03e938	-0.12881935
173	0xbd93af58	-0.072111785
174	0xbe6d0f24	-0.23150307
175	0xbb8b2150	-0.0042459145
176	0xbe3fd806	-0.1873475
177	0xbd54d648	-0.051962167
178	0xbd44e3d6	-0.048068844
179	0xbd182d49	-0.037152562
180	0x3cb1b50f	0.02169278
181	0xbea78d37	-0.32724926
182	0xbdc03e8d	-0.093869306
183	0xbe2e3394	-0.17011863
184	0xbdf34531	-0.118784316
185	0xbe275a0e	-0.16342947
186	0xbdf0efe3	-0.11764505
187	0xbd8c3948	-0.06846863
188	0x3d3065ee	0.043065958
189	0xbe16a74e	-0.14712259
190	0xbe24be0a	-0.16088119
191	0xbe1871a0	-0.14887094
192	0xbdc43d85	-0.095820464
193	0xbc007448	-0.007840224
194	0xbe505107	-0.2034341
195	0xbd9ed9a6	-0.07756357
196	0x3c2b8e1b	0.010470892
197	0xbd31875d	-0.043341983
198	0xbde4353d	-0.11142967
199	0xbc8ae3f9	-0.016954409
200	0xbdc15b00	-0.09441185
201	0xbd5f6eb8	-0.05454895
202	0xbcfd5048	-0.03092207
203	0xbe000d4e	-0.12505075
204	0xbdc9bc54	-0.09850374
205	0xbe1c2eb7	-0.15252195
206	0xbdd67cd4	-0.10473028
207	0xbdc775a0	-0.09739232
208	0xbe04c476	-0.12965569
209	0xbd2f6470	-0.042820394
210	0xbe2c02b0	-0.167979
211	0xbd56d34d	-0.052447606
212	0x3bef9e8f	0.007312603
213	0xbd054256	-0.032533966
214	0xbdbf670b	-0.09345826
215	0xbcea5c1c	-0.028608374
216	0xbe0cb3d1	-0.1374047
217	0xbae23174	-0.001725717
218	0xbd491c0f	-0.049099024
219	0xbde0d585	-0.109782256
220	0xbe844997	-0.25837395
221	0xbeade4fb	-0.3396376
222	0xbdcc4b84	-0.09975341
223	0xbe0305e1	-0.12795211
224	0xbdcda854	-0.10041872
225	0xbdf50081	-0.11962987
226	0xbdd7b55e	-0.1053264
227	0xbe0f5f14	-0.14001113
228	0xbd361590	-0.044454157
229	0xbe4a264d	-0.19741173
230	0xbe49b3f4	-0.19697553
231	0xbe14da40	-0.14536381
232	0x3c863053	0.016380465
233	0xbdb92330	-0.090399146
234	0xbe1e4858	-0.15457284
235	0xbe86df81	-0.26342395
236	0x3d4bd1e0	0.0497607
237	0xbda9b542	-0.08286525
238	0xbca8fcd6	-0.020628374
239	0xbdd8f512	-0.105936185
240	0xbe237514	-0.1596263
241	0xbdcf410a	-0.10119827
242	0xbe26a8f7	-0.16275392
243	0xbd100c1f	-0.03516781
244	0xbb1180cf	-0.002220202
245	0xbd08a0ed	-0.033356596
246	0xbd6aa061	-0.057281855
247	0x3da3ad64	0.07992056
248	0xbe3fc433	-0.18727188
249	0xbd0ed52d	-0.03487127
250	0xbe336931	-0.17520596
251	0xbdd632d1	-0.10458911
252	0x3d620aa8	0.055185944
253	0xbe075142	-0.13214591
254	0xbd615c3f	-0.055019613
255	0xbdac4045	-0.08410696

layer_2.bias f4 [64]
0	0xbec278f0	-0.37982893
1	0x3e0a326d	0.13495798
2	0xbe06bf5e	-0.13158938
3	0xbf2c41b0	-0.6728773
4	0xbead2496	-0.33816975
5	0xbe9a70cd	-0.30164185
6	0xc008daa4	-2.1383448
7	0xbcc8cb57	-0.024511022
8	0xbe17b786	-0.14816102
9	0xc0101cbb	-2.2517536
10	0xbdd480f0	-0.103761554
11	0xc0515feb	-3.2714794
12	0xbf8760b2	-1.0576384
13	0xbeb869ad	-0.36018124
14	0x3eb77d16	0.3583762
15	0x3ecbacc8	0.3978026
16	0x3fe0b86e	1.7556283
17	0xbeb7ec68	-0.3592255
18	0x3eea724a	0.4579032
19	0xbd9d88e6	-0.07692127
20	0x3ec52048	0.3850119
21	0x3e6bbca7	0.23021184
22	0xc098ecfa	-4.778928
23	0x3ef71d32	0.48264462
24	0x3f9bdd45	1.2176901
25	0x40a8812e	5.265769
26	0x3f54153e	0.82844913
27	0x3f99936b	1.1998113
28	0x3eefe582	0.46854788
29	0xbe1067d6	-0.1410211
30	0xbea76cd2	-0.3270021
31	0x3f2f8cf0	0.6857443
32	0xbe328482	-0.1743336
33	0x3eeaee6f	0.45885035
34	0xbe154ee7	-0.1458088
35	0xbe96ecee	-0.29477638
36	0xbf8018f2	-1.0007613
37	0xbd1300b4	-0.035889342
38	0xbfcf6a51	-1.620432
39	0x4051d6a1	3.278725
40	0x3e607475	0.21919425
41	0x3f9c7950	1.2224522
42	0x40245ae6	2.568048
43	0xbed4524e	-0.41469043
44	0xc00e19f6	-2.2203345
45	0x4089c4ad	4.3052583
46	0x3b854de3	0.0040681227
47	0xbfbb84b7	-1.4649876
48	0xbfe364ea	-1.7765172
49	0xbe2fe741	-0.1717806
50	0x3f5233fb	0.82110566
51	0xbe4b7da7	-0.19872151
52	0x3e4ec18f	0.20191024
53	0xc0529135	-3.2901127
54	0x40870205	4.2189965
55	0xbe2057ea	-0.15658537
56	0xbe05e1bc	-0.13074392
57	0x3e5d843c	0.21632475
58	0x3e8de1f4	0.2771145
59	0x404eb7a9	3.2299597
60	0x3f528731	0.82237536
61	0x3f34bc69	0.7059999
62	0x3db91e64	0.09039
63	0x3e2c59d6	0.16831145

layer_3.weight f4 [32, 64]
0	0xbe12f4f3	-0.14351253
1	0x3b8c5463	0.0042825206
2	0x3d58b9de	0.05291163
3	0xbce4c746	-0.027927052
4	0x3d987e9a	0.07446022
5	0xbdc68200	-0.09692764
6	0xbd658217	-0.056032266
7	0xbe62acdc	-0.22136253
8	0xbdeb976a	-0.11503489
9	0xbae58244	-0.0017510136
10	0x3d3a09f8	0.045419663
11	0xbfcc99ee	-1.5984476
12	0x3d8cf8c2	0.06883384
13	0xbe017485	-0.12642105
14	0x3d3fee1c	0.04685794
15	0x3d970c5f	0.073754065
16	0xbea5cb9f	-0.32381913
17	0xbc0eddd5	-0.008719881
18	0xbdad647a	-0.0846643
19	0x3be0db78	0.0068621
20	0xbe855f1d	-0.26049128
21	0x3def5e79	0.11687941
22	0xbe0cdd5c	-0.13756317
23	0xbc1bb6dc	-0.009504046
24	0x3f0ce519	0.55037075
25	0xc0b576ee	-5.670768
26	0x3ca82513	0.02052549
27	0x3d96e87c	0.073685616
28	0x3cf7a618	0.030230567
29	0x3d67ab64	0.056559935
30	0xbd3d135f	-0.04616105
31	0xbe8d2947	-0.27570555
32	0xbd3d95dc	-0.046285495
33	0x3e363b6d	0.17796107
34	0x3d357bc0	0.04430747
35	0xc0b6b952	-5.710122
36	0xbc4270af	-0.011867686
37	0x3d93a86c	0.07209858
38	0xc09d0f63	-4.9081283
39	0xbd9da504	-0.0769749
40	0xbe014ad2	-0.12626198
41	0xbbd56581	-0.0065123443
42	0x3d5e54bb	0.054280024
43	0x3d8cb927	0.068712525
44	0xbf987365	-1.1910216
45	0x3f5bea6b	0.8590457
46	0xbda10bce	-0.0786358
47	0x3eb09880	0.34491348
48	0xbf38b995	-0.72158176
49	0xbe1ea462	-0.15492395
50	0x3c33af3b	0.010967071
51	0xbd4e31d5	-0.050340492
52	0x3c9f2d7e	0.019430872
53	0x3e9c776b	0.3055986
54	0xbe6da3e5	-0.23207052
55	0x3d1c6437	0.03818151
56	0x3d765a54	0.060144737
57	0xbdc7ac09	-0.0974961
58	0xbda896ad	-0.08231864
59	0x3d0200d4	0.03173907
60	0x3d7d1bcc	0.061794087
61	0x3dcd4204	0.10022357
62	0x3cb2697d	0.021778816
63	0xbe45d7b5	-0.19320567
64	0x3ebebe8a	0.37254745
65	0xbab0d058	-0.0013489826
66	0x3dd97450	0.10617888
67	0xb943835c	-0.00018645584
68	0xbf6b1278	-0.91825056
69	0x3d364ed6	0.044508778
70	0xbeadab35	-0.33919683
71	0xbf142a4d	-0.57877046
72	0x3d9f236b	0.07770427
73	0xbf021aca	-0.50822127
74	0x3da14f6a	0.07876475
75	0xbf5cebb4	-0.86297154
76	0x3de82c5d	0.113365866
77	0xbe9c304a	-0.30505592
78	0xbd6d269c	-0.05789815
79	0x3d32ad38	0.043622226
80	0x3cfed89a	0.031109143
81	0x3e6e0ef6	0.23247895
82	0x3ddba54b	0.107248865
83	0xbbfcddcf	-0.0077168713
84	0x3d5c58b4	0.05379553
85	0x3dd60222	0.104496256
86	0xbde9f712	-0.11424078
87	0xbc0e5faa	-0.0086898
88	0x3ce2c8c8	0.02768363
89	0xc025bb7f	-2.5895689
90	0x3e0f529c	0.13996357
91	0xbd8b34b9	-0.067971654
92	0xbce64fda	-0.028114248
93	0x3e0ee7ad	0.13955565
94	0xbcb1dce5	-0.021711776
95	0x3ee79193	0.45228252
96	0xbd9a10d8	-0.07522744
97	0xbdba6276	-0.09100811
98	0x3da01aa8	0.07817584
99	0xbd3102f0	-0.043215692
100	0x39e864af	0.00044325503
101	0x3dacfffd	0.084472634
102	0xbe67c0b6	-0.22632107
103	0xbe55f3ac	-0.20893735
104	0x3d506ffb	0.050888043
105	0x3bbcf350	0.00576631
106	0xbd1ef282	-0.038805492
107	0x3d8757be	0.06608532
108	0x3e13e676	0.14443383
109	0xbf348121	-0.70509535
110	0xbde9e618	-0.1142084
111	0xbed71bd0	-0.42013407
112	0x3d5c5d6f	0.053800043
113	0xbd392d87	-0.045209434
114	0x3d74dd7d	0.05978154
115	0xbdb9b98c	-0.090685934
116	0xbcc3b9d6	-0.023892324
117	0xbf8074de	-1.0035665
118	0xbefedc29	-0.49777344
119	0xbd319223	-0.043352257
120	0x3ccd0e79	0.025031315
121	0x3d02ed28	0.03196445
122	0x3dd33da7	0.103144936
123	0x3dd265c5	0.10273317
124	0x3e64b246	0.22333631
125	0x3e5de495	0.21669228
126	0xbd2bdc6c	-0.041958258
127	0x3c99b02c	0.018760763
128	0xbd944874	-0.07240382
129	0xbe04b14e	-0.12958261
130	0xbd06a328	-0.03287044
131	0x3bf4ae59	0.007467073
132	0x3d4d02c8	0.05005148
133	0x3d8230b7	0.06356948
134	0x3eebc5a7	0.46049234
135	0xbc94bceb	-0.01815649
136	0x3d148554	0.036259964
137	0xbe8ba9de	-0.27278036
138	0x3b9bd01b	0.0047550327
139	0x3c16566a	0.009175876
140	0x3dc5bf6b	0.09655651
141	0x3f288459	0.65826946
142	0xbcd71ceb	-0.026258906
143	0x3d613386	0.054980777
144	0x3e48afa7	0.19598256
145	0x3e5c4d61	0.21513893
146	0xbd6e07ec	-0.058113024
147	0xbf508f1f	-0.81468385
148	0x3dd565fa	0.10419841
149	0xbddd16b0	-0.10795343
150	0xbe422fd6	-0.1896356
151	0x3d804e97	0.0626499
152	0x3cb6ae65	0.022299955
153	0xbe93a0ad	-0.28833523
154	0x3caa3404	0.020776756
155	0x3e3bf973	0.18356876
156	0x3d51ddde	0.05123698
157	0xbe01bce8	-0.12669718
158	0xbd2ad9c0	-0.04171157
159	0xbf234d35	-0.63789684
160	0xbcc7a6fa	-0.024371613
161	0xbddee1d5	-0.10882918
162	0xbdb77248	-0.08957344
163	0x3c7d7dfb	0.015471931
164	0xbf73289a	-0.9498383
165	0x3cf9c4b1	0.030489298
166	0x3c421931	0.011846826
167	0xbf277b1a	-0.65422213
168	0x3d3c117b	0.04591511
169	0xbb98fdb0	-0.004668914
170	0x3d419d72	0.047269292
171	0xbf846e54	-1.034617
172	0x3e1e7d04	0.15477377
173	0xbe60635f	-0.21912907
174	0x3d1f7b4e	0.038935952
175	0x3d19c22c	0.037538692
176	0xbe8d54ae	-0.27603668
177	0xbda3af25	-0.079923905
178	0x3b3a76d8	0.0028452184
179	0x3d2916b6	0.041281424
180	0xbd920e01	-0.07131577
181	0xbe0fd197	-0.14044796
182	0xbd729275	-0.059221704
183	0xbd8b442d	-0.06800113
184	0x3da517c8	0.080611765
185	0xbe2e36b5	-0.17013057
186	0x3dc34d89	0.09536273
187	0x3ec36e25	0.3816997
188	0x3e190939	0.14944924
189	0x3c69f43e	0.014279423
190	0xbd9e9ac3	-0.07744362
191	0xbcb81f2b	-0.0224758
192	0x3da9b4ab	0.08286413
193	0x3d52426d	0.05133288
194	0xbd84a1b3	-0.06476154
195	0x3cd02717	0.025409264
196	0xbe5e4900	-0.21707535
197	0x3d98bb38	0.07457584
198	0x3e1d2dee	0.15349552
199	0xbdaa22f0	-0.08307445
200	0x3ddb6ec6	0.10714488
201	0xbc8441f2	-0.016144726
202	0x3d5992f0	0.053118646
203	0xbe8df93f	-0.27729222
204	0x3e3a6335	0.18201907
205	0xbe248a9f	-0.16068505
206	0x3c15d223	0.009144339
207	0xbd62ab1d	-0.055338968
208	0x3d16e748	0.03684166
209	0x3d8ae016	0.06781022
210	0x3d646d33	0.055768203
211	0x3d4091ba	0.047013976
212	0x3c9ab966	0.018887233
213	0x3cc3501d	0.023841912
214	0x3d179171	0.037003938
215	0xbc427f2e	-0.011871142
216	0x3e2723c0	0.16322231
217	0x3e1c711c	0.15277523
218	0x3df07fad	0.11743102
219	0xbda104af	-0.078622214
220	0xbd612929	-0.054970894
221	0xbde94971	-0.11390961
222	0x3da6e8a3	0.08149841
223	0x3d218867	0.039436724
224	0xbdb6e250	-0.089298844
225	0xbe0b33f1	-0.13594033
226	0x3c8a7bd6	0.016904753
227	0x3b47ffd7	0.0030517483
228	0x3d1f2f37	0.038863387
229	0xbd1072a0	-0.035265565
230	0x3d306e8e	0.043074183
231	0xbcf720af	-0.030166952
232	0x3cdc4709	0.026889341
233	0x3b8d6296	0.004314731
234	0x3dd6721b	0.10470983
235	0x3de7440b	0.11292275
236	0xbd74c30c	-0.059756324
237	0x3cf2e5f2	0.029650662
238	0x3d196b8c	0.03745608
239	0xbf0fc924	-0.5616629
240	0x3e02f018	0.12786901
241	0x3dcadafb	0.099050485
242	0x3cc76853	0.024341738
243	0x3d2cc9fe	0.042184822
244	0xbc0a7dd6	-0.008452853
245	0xbbfcffa7	-0.007720906
246	0x3db6724d	0.0890852
247	0xbd94d725	-0.07267598
248	0xbc935373	-0.017984128
249	0x3cb40b6a	0.021978099
250	0xbd21c0a7	-0.03949037
251	0xbd97bad9	-0.07408685
252	0x3dd4642e	0.1037067
253	0x3dcd42e0	0.10022521
254	0xbdfd8f4c	-0.12380847
255	0x3dae0ffc	0.084991425

layer_3.bias f4 [32]
0	0x3f7a3ce6	0.97749174
1	0x3f64768c	0.8924339
2	0x3fd5cbd2	1.6702826
3	0x3fc0009f	1.500019
4	0xbf0b7991	-0.5448237
5	0xbf6b2b60	-0.9186306
6	0x3e96a1c4	0.29420292
7	0xc0a38ff5	-5.111323
8	0xbe4020b2	-0.18762472
9	0xc0bb0d3d	-5.845366
10	0xbfc70947	-1.5549706
11	0x3eab9411	0.33511403
12	0x401e6056	2.4746299
13	0x3fdeba36	1.7400577
14	0x3eef7f8c	0.46776998
15	0x3f4be941	0.7965279
16	0x3f340391	0.7031794
17	0xbe6cdb57	-0.23130547
18	0xbfe09fa5	-1.754872
19	0xc0252961	-2.5806506
20	0x40267a72	2.6012235
21	0x3e3e656b	0.18593375
22	0xbfa61481	-1.2975007
23	0xc067f768	-3.6244755
24	0xbfa83e2b	-1.3143972
25	0x403f36af	2.9877126
26	0x4075c973	3.8404205
27	0x3fa24e67	1.2680176
28	0x4048b5f8	3.1361065
29	0x4035ee65	2.8426754
30	0xbfa582bd	-1.2930523
31	0x3f2c078a	0.67199004

layer_4.weight f4 [32, 32]
0	0xbd897111	-0.06711019
1	0xbd8b1552	-0.06791176
2	0xbde40c27	-0.111351304
3	0xbfcd42f7	-1.6036061
4	0xbbe70f87	-0.0070514116
5	0x3ef2529a	0.47328645
6	0xbfc6f545	-1.55436
7	0x3e59cc0c	0.21269244
8	0x3f822da3	1.0170177
9	0xbf96829b	-1.1758608
10	0xbf8113c9	-1.0084163
11	0xbf229bb7	-0.6351885
12	0x3e805fff	0.2507324
13	0xc057acc3	-3.3699195
14	0x3ec68e05	0.38780227
15	0xbfbeb121	-1.4897805
16	0xc04a06bd	-3.1566613
17	0xbf6842d4	-0.9072697
18	0x3eeb3d33	0.4594513
19	0x3d4d7f13	0.050170016
20	0xc01772d1	-2.3663828
21	0xbd24e465	-0.040256876
22	0xbda15f6d	-0.07879529
23	0xbeafde77	-0.34349415
24	0xbf549794	-0.8304379
25	0xc01c35c3	-2.4407814
26	0xc030a9da	-2.760367
27	0xbed7b23c	-0.4212817
28	0xbf47e20a	-0.78079283
29	0xbdbdc3b1	-0.09265841
30	0xbf142a93	-0.57877463
31	0xbd652e84	-0.055952564
32	0xbf96581a	-1.1745636
33	0xbfb7c470	-1.4356823
34	0xbf5cbbda	-0.8622414
35	0xbeb98840	-0.36236763
36	0xbeb7680c	-0.3582157
37	0xbdfef036	-0.1244816
38	0xbd9eb8bc	-0.07750079
39	0x3e7783aa	0.2417132
40	0xbe180471	-0.14845444
41	0x3e97d05c	0.29651153
42	0xbe434ffc	-0.1907348
43	0xbf17a22d	-0.59231836
44	0xbe849404	-0.25894177
45	0xc00e6a5d	-2.225242
46	0xbe9ca75a	-0.3059643
47	0x3d38f515	0.045155603
48	0x3e3c26ff	0.18374251
49	0x3cb3b7ec	0.021938287
50	0xbe887aa8	-0.2665608
51	0x3e7d3e04	0.24730688
52	0xbce1a851	-0.02754608
53	0xbf3eae0e	-0.74484336
54	0x3e917304	0.28408062
55	0xbd7759f8	-0.060388535
56	0xbf31d497	-0.6946501
57	0x3bd12870	0.0063829944
58	0x3e300d3c	0.17192549
59	0xbe56b5f9	-0.20967855
60	0xbfe0204f	-1.750986
61	0x3ca0e38b	0.019639751
62	0x3f710b94	0.9415829
63	0xbdfa0a19	-0.12208957
64	0xbeabd641	-0.335619
65	0xbe8a68ff	-0.2703323
66	0xbd5847c8	-0.05280283
67	0x3cc70303	0.024293428
68	0xbc3fae04	-0.011699203
69	0xbd903f14	-0.07043281
70	0xbbb2d413	-0.00545741
71	0x3b5e6a06	0.0033937707
72	0xbc975a09	-0.01847555
73	0xbc254036	-0.01008611
74	0x3d7727e4	0.060340777
75	0x3d9299d0	0.07158244
76	0xba1350ed	-0.0005619664
77	0xbdd72b1c	-0.10506269
78	0x3cccfdc1	0.025023343
79	0xbe4fb215	-0.20282777
80	0xbdb5eef8	-0.0888347
81	0xbe63cecd	-0.22246857
82	0x3e02abf7	0.12760912
83	0x3ad96c43	0.0016588051
84	0xbe7bc853	-0.24588136
85	0x3e83ca69	0.25740364
86	0xbe12561f	-0.14290665
87	0x3eb48e00	0.35264587
88	0xbd450066	-0.048096083
89	0x3e1015e5	0.14070852
90	0xbeae1240	-0.339983
91	0xbbd06de2	-0.0063607553
92	0x3e9cf598	0.30656123
93	0xbdfdc697	-0.12391394
94	0x3e56a10a	0.20959869
95	0xbe23e7b3	-0.16006355
96	0x3da93d60	0.082636595
97	0x3e55c450	0.20875669
98	0xbdd17c56	-0.10228793
99	0x3e38c470	0.18043685
100	0xbd9c1db9	-0.07622857
101	0x3d137e0c	0.03600888
102	0x3d17f284	0.037096515
103	0x3da0885d	0.07838509
104	0xbdc59372	-0.096472636
105	0xbe175d85	-0.14781769
106	0x3e06066d	0.13088389
107	0x3cbea460	0.02327174
108	0x3de9241f	0.11383843
109	0xbe4a19b5	-0.19736369
110	0xbe752dda	-0.23943272
111	0x3dc997b1	0.09843386
112	0xbe27b57a	-0.16377822
113	0xbdbc6ef1	-0.09200848
114	0xbd452692	-0.048132487
115	0xbe8551ee	-0.2603907
116	0x3eca78ea	0.39545375
117	0xbda9be5a	-0.0828826
118	0xbe32237e	-0.17396352
119	0xbdcb4555	-0.099253334
120	0xbe9cf95b	-0.30658993
121	0xbdb993ef	-0.09061419
122	0xbdd5d7ee	-0.10441576
123	0xbda7cf99	-0.08193893
124	0xbe3ea1e6	-0.18616447
125	0xbe52c29e	-0.20582053
126	0xbee5449c	-0.44778907
127	0x3dde059c	0.10840914
128	0x3e4da0f0	0.20080924
129	0xbdaf0c6e	-0.08547293
130	0xbddcc8b0	-0.107804656
131	0xbd0900ad	-0.03344791
132	0xbdc29042	-0.09500171
133	0xbc85a802	-0.016315464
134	0xbb455f9b	-0.00301168
135	0x3b1a1a4c	0.002351421
136	0x3ba022ae	0.0048869466
137	0x3af0128b	0.0018316073
138	0x3dbe9772	0.0930623
139	0x3e124ccf	0.14287113
140	0xbe3559dd	-0.17710061
141	0xbee41a25	-0.44551197
142	0xbdc4b427	-0.09604674
143	0x3d5c1856	0.053734146
144	0x3e95010a	0.29102355
145	0xbc3b46cd	-0.011430454
146	0xbe0fbe29	-0.14037384
147	0xbca398c7	-0.01997031
148	0x3dbe1368	0.09281045
149	0xbe7de24b	-0.24793355
150	0x3d788a94	0.060679033
151	0xbc9c1499	-0.01905279
152	0xbc35dbfa	-0.01109981
153	0xbdec21b7	-0.11529868
154	0xbe68a7a5	-0.22720201
155	0xbdac853c	-0.0842385
156	0xbea3ad9d	-0.31968394
157	0x3eb0c973	0.34528694
158	0xbed41085	-0.41418853
159	0xbe8802a4	-0.26564515
160	0xbf5fa5c9	-0.87362343
161	0xbdef03dd	-0.11670659
162	0x3e2ebe09	0.1706468
163	0xbfd72bf2	-1.6810286
164	0xbe8c7ac1	-0.27437404
165	0x3f0e6046	0.5561565
166	0xbe583bc9	-0.21116556
167	0xbd689d12	-0.05679042
168	0xbe70c4b2	-0.23512533
169	0xbff511b7	-1.9146031
170	0x3f2e84e6	0.68171537
171	0xbf5111e9	-0.81667954
172	0x3aac4072	0.0013141765
173	0xbd9da251	-0.07696975
174	0x3da5a4ca	0.08088072
175	0xbf86f5b7	-1.0543736
176	0xbf3dcadf	-0.7413768
177	0xbf5ce56b	-0.86287564
178	0xbebfc626	-0.37455863
179	0xbef25f90	-0.47338533
180	0xbfcad774	-1.5847001
181	0x3f0b686e	0.5445622
182	0x3e2e1b17	0.17002521
183	0x3e85776c	0.26067674
184	0xbfa39961	-1.2781183
185	0xbf27a6f6	-0.6548914
186	0xc048d35e	-3.1379008
187	0xbf217696	-0.6307157
188	0xbd92ae54	-0.07162157
189	0xbe0e61e4	-0.1390453
190	0xbe9135e9	-0.28361443
191	0x3cdccddc	0.02695363
192	0xbe1efbcb	-0.15525739
193	0xbb8f0007	-0.004364017
194	0xbddd2d02	-0.107996
195	0x3e89fde0	0.26951504
196	0x3da36a9a	0.07979317
197	0xbe345159	-0.17609157
198	0xbdd2e828	-0.102981865
199	0xbe829db5	-0.25510946
200	0x3d4effff	0.050537106
201	0xbcd946c1	-0.026522996
202	0x3db6f6c6	0.08933787
203	0x3e06f130	0.13177943
204	0xbe255ff0	-0.16149879
205	0x3e2c19e4	0.16806751
206	0xbcc0104e	-0.023445275
207	0x3db7564f	0.08952009
208	0xbdcf2f52	-0.101164475
209	0x3d3686fa	0.044562317
210	0x3dcbf561	0.09958912
211	0xbd1dc36f	-0.038516458
212	0x3cdd5ab9	0.027020799
213	0x3eae6d4b	0.3406776
214	0x3e17f1ef	0.14838384
215	0xbd988008	-0.07446295
216	0x3e7bc081	0.24585153
217	0x3e18ca8c	0.14921016
218	0x3e3cea96	0.18448862
219	0xbcd7545b	-0.026285341
220	0xbe24ceba	-0.16094485
221	0x3e35961c	0.17733043
222	0x3e5243ff	0.20533751
223	0xbd87543b	-0.066078626
224	0x3ef66576	0.48124284
225	0x3d8b0578	0.067881525
226	0x3e061d69	0.13097157
227	0xbf236dfa	-0.63839686
228	0xbd8189f2	-0.06325139
229	0xbd487d29	-0.048947487
230	0x3e3c05f6	0.18361649
231	0xbfb73b90	-1.4315052
232	0x3d1f59de	0.038904063
233	0x3bb64c63	0.005563305
234	0x3d1bac2e	0.038006
235	0x3de727da	0.11286898
236	0xbe193652	-0.14962128
237	0xbe142ca0	-0.14470148
238	0xbd8085b4	-0.06275502
239	0x3cb52563	0.022112554
240	0xbf79f32b	-0.9763667
241	0x3e2867bf	0.16445826
242	0xbf1eadf2	-0.6198417
243	0xbf46f55e	-0.7771815
244	0xbe8e30f9	-0.27771738
245	0xbef6270c	-0.48076665
246	0x3ee12dc4	0.4398023
247	0xbee65bee	-0.44992012
248	0x3f5fe8d6	0.87464654
249	0xbd29baae	-0.041437797
250	0x3d9cabb1	0.07649935
251	0x3bf5a883	0.007496895
252	0xbe038271	-0.12842728
253	0x3d05bb53	0.03264935
254	0xbf018211	-0.5058909
255	0x3dff2cde	0.124597296

layer_4.bias f4 [32]
0	0x3ee6dd05	0.450905
1	0xbfe1001e	-1.7578161
2	0x3ffd5ad9	1.979335
3	0x3ff9e5b7	1.9523228
4	0x4002db90	2.044651
5	0xc0042226	-2.0645843
6	0x400458e7	2.0679262
7	0xc03cb44b	-2.9485042
8	0x3fc03a2d	1.5017754
9	0x3fedbc2e	1.8573053
10	0xbf97c74d	-1.1857697
11	0xc02c9a23	-2.6969078
12	0x3ffa96d5	1.957728
13	0x3fdf8a1d	1.7464024
14	0x3fa7eb72	1.3118727
15	0x3fd36b52	1.6517127
16	0x3e96a653	0.2942377
17	0x4004d92c	2.0757551
18	0x3fa63911	1.2986165
19	0xc03f577d	-2.9897149
20	0x4019b5e7	2.4017274
21	0xc033067e	-2.7972713
22	0x3fac8db1	1.3480741
23	0x3ff64e80	1.9242706
24	0x4010a895	2.2602894
25	0x3f89901d	1.0747105
26	0x3e8fedae	0.28111023
27	0x3f8b30da	1.0874283
28	0x40287ccd	2.6326172
29	0xbec6ae32	-0.38804775
30	0xbf82cb2d	-1.0218254
31	0x3f0ac069	0.54199845

layer_5.weight f4 [16, 32]
0	0xbe53b973	-0.20676212
1	0x3e20b3db	0.1569361
2	0xbf0ab768	-0.54186106
3	0xbe932d0e	-0.28745311
4	0x3eb0afc0	0.34509087
5	0xbedecc8d	-0.43515435
6	0x3f279065	0.65454704
7	0x3e2a5a78	0.16636074
8	0xbe8c0548	-0.2734778
9	0x3ee036d3	0.43791828
10	0x3d945e6a	0.072445706
11	0x3be0ad62	0.0068566063
12	0xbd98eaa3	-0.074666284
13	0xbebc14c1	-0.36734584
14	0x3e295524	0.16536385
15	0xbf4c153d	-0.7971991
16	0x3f4d7ee0	0.8027172
17	0xc09401c4	-4.6252155
18	0xbe558c4e	-0.20854303
19	0x3e64f2c1	0.22358228
20	0xbec40ea6	-0.38292426
21	0x3f9d7c37	1.2303532
22	0x3f046a65	0.51724845
23	0xbcf1b0f5	-0.029503325
24	0xbeaed2ce	-0.34145206
25	0xbf113dbf	-0.5673484
26	0x3dee9863	0.11650159
27	0x3d8dd6f0	0.06925762
28	0xc0d0eaf7	-6.528682
29	0xbdec04d4	-0.115243584
30	0x3e3f9e0b	0.18712632
31	0x3e254fad	0.16143675
32	0xbfd5011c	-1.6640964
33	0xbe24513c	-0.16046613
34	0xbf5cf636	-0.8631319
35	0x3dec454f	0.11536657
36	0xbe706de8	-0.23479426
37	0x3cb95afc	0.022626393
38	0xbd2d41f6	-0.042299233
39	0x3ea5d56a	0.32389385
40	0x3e30c0af	0.17261003
41	0x3fc63a49	1.5486537
42	0xbd84241c	-0.064522
43	0xbd81a41c	-0.063301295
44	0xc00885df	-2.1331708
45	0xbf091dfb	-0.5356137
46	0x3e535c8a	0.2064077
47	0xbf88cb16	-1.0686977
48	0x3e8adeb3	0.2712303
49	0xbfb32b1c	-1.3997531
50	0x3e90875f	0.2822828
51	0xbd9c147d	-0.07621095
52	0x3e475f98	0.1947006
53	0x3f4b6b55	0.7946065
54	0xbec456df	-0.38347527
55	0xbe3c817a	-0.18408766
56	0x3ea6e4ec	0.3259653
57	0x3e064e9e	0.13115928
58	0x3da38a64	0.0798538
59	0xbfa76cb1	-1.3080045
60	0xbf90e989	-1.1321269
61	0xbe02d789	-0.12777533
62	0x3ecd0b6c	0.40047777
63	0x3d6464a8	0.055760056
64	0x3c349d6a	0.011023859
65	0x3e2061d7	0.15662323
66	0x3db5d6d2	0.08878864
67	0x3e8abd6a	0.27097636
68	0x3e7ffba3	0.24998336
69	0xbd6a4594	-0.05719526
70	0x3e90d02b	0.2828382
71	0x3e364876	0.17801079
72	0x3d73e9a6	0.059548996
73	0xbec3a7f9	-0.3821409
74	0xbebf3e79	-0.3735235
75	0xbebfcac6	-0.3745939
76	0x3df28d8d	0.11843405
77	0x3d67bb9a	0.056575395
78	0x3dde48c2	0.10853721
79	0x3e7add61	0.24498512
80	0xbe001480	-0.1250782
81	0x3e9471ea	0.2899316
82	0xbe72ad49	-0.23698916
83	0xbdd3584d	-0.103195764
84	0x3e98df15	0.29857698
85	0xbeec355c	-0.4613446
86	0x3dea3dba	0.11437555
87	0x3e2c6f34	0.16839296
88	0xbccc08ec	-0.024906598
89	0x3c38689f	0.011255412
90	0xbd8f1572	-0.06986512
91	0x3df5d701	0.12003899
92	0x3de795f3	0.113078974
93	0x3da50b0d	0.080587484
94	0xbc312e34	-0.010814238
95	0xbdbf4bcc	-0.09340629
96	0xbe4076c7	-0.1879531
97	0x3d875084	0.06607154
98	0x3c23d801	0.01000023
99	0x3e677e55	0.22606786
100	0x3e0ea832	0.13931349
101	0x3e282330	0.16419673
102	0x3ec9238f	0.39284942
103	0x3f09cd8e	0.53829277
104	0x3e5e5525	0.21712168
105	0xbf366244	-0.7124369
106	0xbf18e2ce	-0.59721076
107	0xbec4f7ec	-0.384704
108	0x3d0ce3f8	0.034397095
109	0x3e2d1680	0.16903114
110	0x3e11b19d	0.1422791
111	0xbe2ccfff	-0.16876219
112	0xbe2513cb	-0.16120832
113	0x3e35b105	0.17743309
114	0xbdfb499f	-0.122699015
115	0xbe3eb8ee	-0.18625233
116	0x3e976920	0.29572392
117	0x3e4b5c16	0.19859347
118	0x3dea6b74	0.11446276
119	0x3c81e08f	0.015854148
120	0x3e152e98	0.14568555
121	0x3e4b899c	0.19876713
122	0x3da9911a	0.08279629
123	0x3e26d124	0.16290718
124	0xbd49ce13	-0.049268793
125	0xbdcc63aa	-0.09979947
126	0x3e08f3f8	0.13374317
127	0xbe292865	-0.16519316
128	0x3ea858eb	0.3288034
129	0x3e016c88	0.12639058
130	0xbf31f754	-0.6951802
131	0xbee859df	-0.45381066
132	0xbe2ed892	-0.17074803
133	0xbfd674f4	-1.6754441
134	0xbf2c5c4e	-0.67328346
135	0x3fdfe98a	1.7493145
136	0xbd15d846	-0.036583208
137	0x3ddc33e1	0.107520826
138	0x3e20ad77	0.15691172
139	0x3e1a176b	0.15047996
140	0xbf0f81e7	-0.5605759
141	0xbf7e540b	-0.9934699
142	0xbeb59e76	-0.3547246
143	0xbf3c9d85	-0.73677856
144	0x3e40ae64	0.18816525
145	0xbf38f54c	-0.72249293
146	0x3c5d70a1	0.013515622
147	0x3e67c874	0.2263506
148	0xbfad05a4	-1.3517346
149	0x3f526de9	0.8219896
150	0xbf1ba9a7	-0.60805744
151	0xbea9ca2d	-0.3316206
152	0x3dbe64fc	0.09296605
153	0xbee49911	-0.4464803
154	0x3d098f02	0.03358365
155	0xbebe51e5	-0.37171856
156	0xbeef386f	-0.46722743
157	0xbc665930	-0.01405935
158	0xbf0e66ab	-0.5562541
159	0x3e8e6040	0.27807808
160	0xbe90cd30	-0.28281546
161	0xbf5999d7	-0.85000366
162	0x3da711ab	0.08157667
163	0xbe7d8c58	-0.24760568
164	0xbe10c3b8	-0.14137161
165	0x3ecedf56	0.40404767
166	0xbe6a1e7e	-0.22863194
167	0xbf626e00	-0.88449097
168	0x3dbef6fd	0.09324453
169	0x3f4f4df4	0.8097832
170	0xbf6f5c02	-0.9349977
171	0x3eb0f72d	0.3456358
172	0xbe106a81	-0.14103128
173	0x3dc5b413	0.09653487
174	0xbd8becf3	-0.06832304
175	0xbd85591e	-0.065111384
176	0x3f48b014	0.78393674
177	0xbcd5deb9	-0.026107179
178	0xbfb771d9	-1.4331619
179	0xbb400a79	-0.0029303117
180	0x3d031774	0.03200479
181	0xbdea9b3b	-0.11455389
182	0x3d3f81da	0.046754695
183	0xbe93d444	-0.28872883
184	0x3efe3a52	0.4965387
185	0x3e2d327b	0.16913788
186	0x3eaa1ea3	0.332265
187	0x3db5aa0d	0.08870325
188	0xbe260a6c	-0.16214913
189	0xbde6ab47	-0.11263137
190	0x3ef90fe7	0.48644945
191	0xbf1e48ea	-0.6183001
192	0xbf864990	-1.04912
193	0xbf1fbb67	-0.6239533
194	0xbbc9cb90	-0.0061582997
195	0x3d8dff37	0.06933444
196	0xbe63f92f	-0.22263025
197	0xbe9d053e	-0.30668062
198	0xbda6cf51	-0.08145011
199	0xbe3b2846	-0.18277082
200	0xbd2d3e32	-0.042295642
201	0x3fe85a2c	1.8152518
202	0xbeec7db7	-0.46189663
203	0xbea8a100	-0.32935333
204	0xbde638d9	-0.112413116
205	0xbdad5e07	-0.084652
206	0xbed82fce	-0.42223972
207	0xbe48413e	-0.19556138
208	0x3f18f866	0.59754026
209	0x3e5f46c1	0.21804334
210	0x3d7c7786	0.061637424
211	0xbe84c3c9	-0.25930622
212	0x3db028dd	0.08601544
213	0x3d5d5286	0.05403378
214	0xbc9f3f2b	-0.0194393
215	0x3db00018	0.08593768
216	0xbdc89c9b	-0.09795495
217	0xbe28aa2a	-0.16471162
218	0x3e445f18	0.191769
219	0x3dab9679	0.0837831
220	0xbd9dfcac	-0.07714209
221	0x3dde440c	0.10852823
222	0x3e9a8fd2	0.3018785
223	0xbf461f7e	-0.77391803
224	0x3f2c5a44	0.67325234
225	0xbe2d7f4b	-0.1694309
226	0xbfbc96ee	-1.473356
227	0x3f617ae5	0.8807815
228	0x3eb3e583	0.3513604
229	0x3dc89f0a	0.09795959
230	0x3ebe0811	0.3711553
231	0xbfb154b9	-1.385398
232	0x3f240ee8	0.64085245
233	0x3f2490ca	0.6428343
234	0x3f0a43e2	0.5400983
235	0x3ee04a65	0.4380676
236	0xbd81a49e	-0.06330226
237	0x3ead446a	0.33841258
238	0xbf8b3014	-1.0874047
239	0xc0249205	-2.5714123
240	0xbf121fd4	-0.57079816
241	0xbfd3b56a	-1.6539738
242	0xbdd08216	-0.10181062
243	0xbee75b1b	-0.45186695
244	0x3f00f498	0.5037322
245	0x3f6a09e4	0.9142134
246	0xbe293c4d	-0.16526909
247	0x3eb3f4f6	0.35147828
248	0xbed1e433	-0.40994415
249	0x3ebbf874	0.36712992
250	0xbf576204	-0.84133935
251	0xbe1fca0d	-0.1560442
252	0xbf8862e1	-1.0655175
253	0x3da1a695	0.07893101
254	0xbf25792a	-0.64638007
255	0x3c0abde9	0.00846813

layer_5.bias f4 [16]
0	0xbdeca71f	-0.11555313
1	0xbf7dfd3e	-0.9921454
2	0x3fdc96bc	1.72335
3	0x3fd0d4b5	1.6314913
4	0xbfced145	-1.6157614
5	0x3fb5c7a0	1.4201546
6	0x3fd89702	1.6921084
7	0xbfbad685	-1.4596716
8	0x3ffa8bc1	1.95739
9	0xbf109d63	-0.56490153
10	0x3f8c2344	1.0948262
11	0x40008276	2.0079627
12	0x3ead6509	0.33866146
13	0x3fc53d00	1.5409241
14	0x400733ba	2.1125321
15	0x3fd53144	1.665566

layer_est.weight f4 [16, 16]
0	0xbd931194	-0.07181087
1	0x3d057ca0	0.032589555
2	0x3dacfcc0	0.08446646
3	0x3e1264fe	0.14296338
4	0xbe2ca65a	-0.16860333
5	0xbd2731f8	-0.04081914
6	0xbe7556c8	-0.23958886
7	0xbd9a7de8	-0.07543546
8	0xbb071d80	-0.0020616949
9	0x3c153820	0.0091076195
10	0x3dffb0fc	0.12484929
11	0xbdfd834c	-0.123785585
12	0xbe0af98a	-0.13571754
13	0xbe558e3c	-0.2085504
14	0x3e576cf6	0.21037659
15	0x3e3ae73c	0.18252271
16	0xbca81960	-0.020519912
17	0x3e7a5732	0.24447325
18	0x3e4f8cc6	0.20268545
19	0xbdc25e64	-0.0949066
20	0x3e493842	0.19650367
21	0x3d89c698	0.06727332
22	0xbd043098	-0.032272905
23	0x3e4137ec	0.18868989
24	0xbe00391c	-0.12521785
25	0xbd567190	-0.052354395
26	0xbdb15484	-0.08658698
27	0x3e7296ca	0.23690334
28	0xbe061b48	-0.13096344
29	0xbce8ee40	-0.028433919
30	0xbe4955ba	-0.19661608
31	0xbe79634a	-0.24354282
32	0xbe1fb8de	-0.15597865
33	0x3e3d1b46	0.18467435
34	0x3e05424a	0.13013569
35	0xbe314032	-0.17309645
36	0x3c8a98f0	0.01691863
37	0x3e22e038	0.15905845
38	0x3e21b996	0.15793452
39	0xbdf640dc	-0.1202409
40	0x3da56914	0.08076683
41	0xbe18a0ee	-0.1490514
42	0xbd1c60e8	-0.038178355
43	0x3e2e9256	0.1704801
44	0xbd45dd10	-0.048306525
45	0x3ded8614	0.11597839
46	0x3c1bc0c0	0.009506404
47	0xbc332b20	-0.010935575
48	0xbe4fc0d6	-0.20288405
49	0x3e6cfd50	0.23143506
50	0x3e6ddbd0	0.23228383
51	0x3e434df0	0.190727
52	0xbba4f980	-0.0050346255
53	0xbe773792	-0.24142292
54	0x3e0fdb5c	0.14048523
55	0x3e0b82f4	0.13624173
56	0x3e2cf486	0.16890153
57	0x3e0c637a	0.13709822
58	0xbbac3280	-0.0052550435
59	0xbc2e1f80	-0.010627627
60	0xbd554298	-0.052065462
61	0x3d9b0dd8	0.07571
62	0xbe6f283e	-0.23355195
63	0xbd254fd0	-0.04035932
64	0xbb954a00	-0.0045559406
65	0x3e78b4b2	0.2428768
66	0x3e02e91a	0.12784234
67	0xbdc08950	-0.0940119
68	0x3e5f3806	0.21798715
69	0x3e4143da	0.1887354
70	0x3ccebdd0	0.025236994
71	0xba95c900	-0.00114277
72	0x3e115b66	0.14195022
73	0xbd7c8820	-0.061653256
74	0xbc676440	-0.014123023
75	0x3e79a510	0.24379373
76	0xbdbbe940	-0.09175348
77	0xbe75c6be	-0.24001595
78	0xbe415232	-0.18879011
79	0x3e45c4d8	0.19313371
80	0x3e308f0c	0.17242068
81	0x3e159b3c	0.14609998
82	0x3d1b73b0	0.037952125
83	0x3dcb8e04	0.09939197
84	0xbe08dc4e	-0.1336529
85	0x3e27a87c	0.16372865
86	0xbd7e4170	-0.062074125
87	0xbd638578	-0.055547208
88	0xbd784068	-0.060608298
89	0x3deb4500	0.1148777
90	0xbc5efcc0	-0.013610065
91	0xbcc780c0	-0.024353385
92	0x3d4c24b8	0.049839705
93	0xbe53c972	-0.20682314
94	0xbe662982	-0.22476771
95	0xbe7f0676	-0.24904808
96	0xbaad0a00	-0.0013201833
97	0x3e4b981a	0.19882241
98	0xbe3715ec	-0.17879456
99	0x3e497334	0.19672853
100	0xbdadc11c	-0.08484098
101	0x3cbd38b0	0.02309832
102	0xbd965d64	-0.073420316
103	0xbdbd6844	-0.09248403
104	0xbe7674c2	-0.24067977
105	0xbd8eaa04	-0.06966022
106	0xbe14e9e4	-0.14542347
107	0xbe67f7fe	-0.22653195
108	0x3df62098	0.120179355
109	0x3e2451aa	0.16046777
110	0xbe1834c0	-0.14863873
111	0x3e64368c	0.22286433
112	0x3e418590	0.18898606
113	0xbe2b3ce6	-0.1672245
114	0xbe6be4a6	-0.23036441
115	0x3e1e127c	0.15436739
116	0xbd852cc0	-0.06502676
117	0x3de6cc48	0.11269432
118	0x3e175f70	0.147825
119	0x3e733526	0.23750743
120	0x3da17c74	0.07885066
121	0x3e5373be	0.20649621
122	0x3e231d44	0.15929133
123	0xbdfc1368	-0.12308389
124	0xbd98e4b0	-0.07465494
125	0xbe32506a	-0.17413488
126	0xbd84f778	-0.064925134
127	0xbd0c7db8	-0.034299582
128	0x3e20b27c	0.15693086
129	0xbd3b4d80	-0.045728207
130	0x3d94fa3c	0.07274291
131	0x3cc0c7d0	0.023532778
132	0x3e52e318	0.20594442
133	0x39ffc000	0.0004878044
134	0xbcf094b0	-0.029367775
135	0x3e31b588	0.17354405
136	0xbca1ec90	-0.019766122
137	0xbe5c16ca	-0.21493068
138	0x3c809ba0	0.015699208
139	0x3c981670	0.018565387
140	0x3e4caafa	0.19987097
141	0xbe7bcc34	-0.24589616
142	0xbe444832	-0.19168165
143	0xbca37380	-0.019952536
144	0x3d9dfe44	0.07714513
145	0xbe29e83a	-0.16592494
146	0xbd289bd8	-0.04116425
147	0x3de8a44c	0.11359462
148	0x3e570730	0.20998836
149	0x3dfa4548	0.122202456
150	0xbd87fb30	-0.06639707
151	0x3e241c84	0.16026503
152	0xbe6cd89e	-0.23129508
153	0xbd7f0f48	-0.062270433
154	0xbdf11608	-0.1177178
155	0x3df38a3c	0.118916005
156	0x3e57dbf8	0.21080005
157	0x3dd32d4c	0.10311374
158	0xbd307eb0	-0.04308957
159	0x3e02e5b8	0.12782943
160	0x3e2fdc64	0.17173916
161	0xbe4d6212	-0.20056942
162	0xbe35b68e	-0.1774542
163	0xbd121ac8	-0.03567007
164	0xbe00c6ce	-0.12575838
165	0xbe7370e8	-0.23773539
166	0xbe07a0e2	-0.13244966
167	0xba449c00	-0.00075000525
168	0xbc971460	-0.018442333
169	0x3e7adce2	0.24498323
170	0x3c809b90	0.015699178
171	0xbdc31940	-0.095263004
172	0x3df7c758	0.12098569
173	0x3e35dc4a	0.17759815
174	0x3c6d3c40	0.014479697
175	0xbe416f62	-0.18890145
176	0xbdc35f30	-0.0953964
177	0xbe6ff4d4	-0.23433238
178	0xbdb3ae94	-0.087735325
179	0x3de6fb40	0.11278391
180	0xbd8b3e54	-0.067989975
181	0xbe043a5a	-0.12912884
182	0x3dd30bf4	0.10305014
183	0xbdaaed88	-0.08346087
184	0xbe143bce	-0.14475939
185	0x3d67dea8	0.056608826
186	0xbe5860d2	-0.21130684
187	0xbd7aa118	-0.061188787
188	0x3df318cc	0.11869964
189	0xbd43fa70	-0.047846258
190	0xbe52d588	-0.20589268
191	0xbd856cf0	-0.06514919
192	0x3e3a3ffc	0.1818847
193	0x3e0133ec	0.12617463
194	0xbd309c38	-0.04311773
195	0xbe504bc0	-0.20341396
196	0xbe4202a4	-0.1894632
197	0x3e725e14	0.236687
198	0x3d942854	0.072342545
199	0xbd1cfe28	-0.03832832
200	0x3df19f78	0.117979944
201	0x3e7d4092	0.24731663
202	0x3e5d6e50	0.21624112
203	0xbe5032fe	-0.20331952
204	0xbe0f5f0c	-0.14001101
205	0xbe2f1a36	-0.17099842
206	0xbd2a9818	-0.041648954
207	0xbe278de0	-0.16362715
208	0xbd2ad1e0	-0.04170406
209	0xbe26ab44	-0.1627627
210	0xbe15731a	-0.14594689
211	0xbe5a3cca	-0.21312252
212	0xbe5259b6	-0.20542035
213	0x3e27324c	0.1632778
214	0xbdc89388	-0.09793764
215	0x3de1bcac	0.110223144
216	0x3e260cb2	0.1621578
217	0xbe0aa50e	-0.13539526
218	0xbd9452c0	-0.07242346
219	0x3e6d7e14	0.23192626
220	0xbd9ed808	-0.077560484
221	0x3e48c9e6	0.19608268
222	0x3e6de922	0.23233464
223	0xbdb31818	-0.0874483
224	0x3d4cce08	0.050001174
225	0x3b2cb200	0.0026351213
226	0xbe6da4f4	-0.23207456
227	0x3e0cd84c	0.13754386
228	0x3e5bffd0	0.21484303
229	0xbd447110	-0.047959387
230	0x3deaa7d4	0.11457792
231	0x3e06a178	0.13147533
232	0xbd7c23e8	-0.06155768
233	0xbc68c300	-0.014206648
234	0xbde1c004	-0.11022952
235	0x3d86cc64	0.06581953
236	0xbe724264	-0.23658139
237	0xbdc14434	-0.09436837
238	0xbe55e02e	-0.20886299
239	0xbe6e571e	-0.2327542
240	0x3e4dcadc	0.20096916
241	0xbe60163c	-0.21883482
242	0x3e45f888	0.19333088
243	0xbc8b2400	-0.01698494
244	0xbe115884	-0.14193922
245	0xbe59178c	-0.21200389
246	0xbdba5330	-0.09097898
247	0x3e00d2d8	0.1258043
248	0xbe28348c	-0.16426295
249	0xbcbead70	-0.02327606
250	0x3b497280	0.0030738413
251	0xbe3d286e	-0.18472454
252	0xbdc4a918	-0.096025646
253	0x3d198780	0.03748274
254	0x3e7a6aaa	0.24454752
255	0xbe7bda56	-0.24595007

layer_est.bias f4 [16]
0	0xbdb7fff8	-0.08984369
1	0x3e794192	0.2434142
2	0xbc8fc580	-0.01755023
3	0xbe566ce6	-0.20939979
4	0xbc2b2bc0	-0.0104474425
5	0xbddc4564	-0.10755423
6	0xbe40112a	-0.18756548
7	0xbbdd9980	-0.0067626834
8	0xbd6c3720	-0.05766976
9	0x3e13b20e	0.14423391
10	0xbd476e38	-0.048689097
11	0x3d6cc820	0.05780804
12	0xbd536488	-0.051609546
13	0xbdc5765c	-0.09641716
14	0x3d51c5a8	0.05121389
15	0xbc133060	-0.0089837015

layer_inf.weight f4 [1, 16]
0	0xbec51034	-0.38488925
1	0x3e89a786	0.26885623
2	0x3e822eb5	0.2542626
3	0x3e80c42b	0.25149664
4	0x3ec87510	0.39151812
5	0x3e096965	0.13419111
6	0x3e2ae6f4	0.16689664
7	0xbe268659	-0.16262187
8	0x3e850d03	0.2598649
9	0xbe989ce3	-0.29807195
10	0xbe141d96	-0.14464411
11	0x3e31c300	0.17359543
12	0xbe801126	-0.25013083
13	0x3df6d1e0	0.12051749
14	0x3eb03238	0.34413314
15	0x3ea81a48	0.3283255
