saved_models/qpsk_HeuristicNet_nt12.pkl (torch, 386463 bytes, 13 tensors)

layer_1.weight f4 [128, 648]
00000000: 8a98 14bc d9e1 13bd 4d09 573c e148 0bbd
00000010: 3e09 c53b a799 0a3d 83c3 683c ef88 fa3b
00000020: be78 123c 0e46 a23c e476 e53c a341 4bbc
00000030: bdcd c73c f578 ad3c 1e77 4eba ab23 363c
00000040: 15af e13c a601 023c be9c 03bc e4ce 30bc
00000050: 2312 073d b9ef beb9 0945 55bc aa76 0e3d
00000060: 170e 00bd 8412 523d 979b 48bd 22bd 643d
00000070: 0208 503c fbf9 133b d88b dcbc b16a 05bd
00000080: 8145 33bd 87f2 6e3d d5a2 aa3d 2d25 15bd
00000090: f215 da3c 784e d03b be9f 87bd 46a8 95bc
000000a0: 5503 7b3d a0fd d83c 1838 253d 8490 763b
000000b0: c1e3 203c 2c80 1abd 7b47 bf3c 7f16 e0bc
000000c0: 0032 6839 2b46 f23a 0449 66bd 4f14 6cba
000000d0: 6fc0 de3c 68ab 44bc 6be7 5a3d e84e 39bd
000000e0: 3958 babc 964d 85bc b681 a4bb d6c2 d03b
000000f0: ea79 313d fe8a 3e3c 46c9 3e3c e87b 193d
00000100: e8c8 d53d 5dd4 10bd b180 5f3c 934b cfbc
00000110: a00d 4abd 8a51 5e3d 6b11 423d 4877 3d3d
00000120: 32cc c33c 3049 1bbc 55b3 7dbc ac2b 6bbc
00000130: 3986 fc3c 01f4 9a3c fc67 a3ba 7e0f dcba
00000140: 3ac5 e4bb 087b 85bc ebd3 383d a2ad 8e3d
00000150: 94b4 bf39 bd89 173c 7de1 fabd b551 05bc
00000160: 5bf8 153d 93cf 363d b395 8c3c ef93 a83b
00000170: 3782 8dbd 6b49 c03c 4584 b93d 9e95 93bc
00000180: c2cd 0bbd 3a30 f4bc 6433 803c f684 92ba
00000190: 4aa0 843c 5b4f 7e3c 2270 69bd c255 00bd
000001a0: 8b3f e839 7762 0e3c 12c4 b0bc fdb1 9dbd
000001b0: ca40 08bc b8c7 7339 f92b ae3c a513 bb39
000001c0: 3615 ac3a dafb 423b 9c94 ef3c 5479 073d
000001d0: 19e2 e4bb a2aa 3ebd a4bb bc3c 3c25 1e3d
000001e0: d49e 56bc fca7 9f3c 4f8d 073d 525a e63c
000001f0: d57e 4cbc e870 463d 6080 fabc a299 13bd
00000200: 3c76 e23c 8a3f 4f3d 2933 c3bc 07d3 323d
00000210: dfa6 f03c b853 76bc a2bd ca3c 46ae abbd
00000220: a877 2c3d b068 f43c 963f d83c 038d a0bc
00000230: 422a 9abc 1443 8c3c 39dd 673c 7c28 68bd
00000240: b14d 11bd cecd 8f3c a6cc 4abc 20cb 25bb
00000250: 17db 063d ae50 dfbc 5d01 8fbc 5e62 ed3c
00000260: 65de 973b c411 b1bc 5336 4e3d 72b3 95bc
00000270: 009f 1ebc b067 3f3c bc30 d1bc 7d80 bc3a
00000280: b840 c4bc 5008 dabc 23ac c1bb 71e3 8cbb
00000290: 79a0 063d 116c 88bb 1cba b1bd 245a e43b
000002a0: 009f 733c d029 4e3b b20a db3c 899a 183d
000002b0: 381a f4bc 6b15 d4bc 9c2c 943b 4fec acbc
000002c0: 6aa5 fbbc 53f8 5bbc d968 023d 6c1c 82bd
000002d0: 910b 7abd 9e5f 033b c4fc 0abd ecdb 6cbc
000002e0: bf21 8ebd ea06 c03c 008c a13d 36ca ae3c
000002f0: 692f 90bc 59bd f73c ffb4 ddbd c7f8 7f3d
00000300: 8093 efba 6cbb ecbc 2852 2c3c ce64 1ebc
00000310: 5601 b93c d9a9 1f3d fd09 01bd fd10 f5bb
00000320: 9dfa 08bc e8e5 8bbb 9113 1f3d e4e0 f7bc
00000330: 5686 003c 90ac 703d 5a49 813c cf14 f6bc
00000340: 8de3 25bd d639 86bc dd0f 2b3d 44e5 203d
00000350: 6a58 d0bc cc78 9dbd cac7 f73c 2705 8ebc
00000360: 58ee 1dbc 0982 0f3d e0fe a43b 1641 af3c
00000370: 9391 043d 40ea 173a 2e59 1dbd c8d1 b7bc
00000380: 2002 e7bc 5368 693d 2788 203c 5a0e 08bd
00000390: 9d83 bb3c c182 533c 0fbd 3e3d 4617 ab3c
000003a0: 35fc 3abc cd3c 78bb 1d96 153c 0cbf 023d
000003b0: 0219 8bbd 1f4e 593d 0619 a13d 2a9c c33a
000003c0: eedb ee3c 0098 4cbb a935 0d3d a8ea e2bb
000003d0: 72de e03c ec6b 3ebc c896 7b3c 500b 343b
000003e0: 39dc 1b3d f0c2 013b 3c8c 933c 3e8e cabb
000003f0: 1b82 4f3d 0378 033c 6683 c33d f751 cfbc
-0.009069571 -0.036104057 0.013124776 -0.03400505 0.0060130646 0.03383794 0.01420677 0.0076457183
0.00893992 0.019808795 0.028010793 -0.012405786 0.024390096 0.02117584 -0.0007876026 0.011116902
0.027549306 0.007934963 -0.008032976 -0.010791514 0.03297628 -0.0003641823 -0.013016948 0.034781136
-0.031263437 0.05128719 -0.048976507 0.055844434 0.012697222 0.002257942 -0.026922151 -0.032572452
-0.043767456 0.05833676 0.08331839 -0.036412407 0.026621792 0.0063570105 -0.06622265 -0.018268716
0.061282475 0.026488125 0.0403367 0.003762276 0.009819926 -0.03771989 0.023349514 -0.027354477
0.0002214387 0.0018484046 -0.056221977 -0.0009005712 0.027191369 -0.012003757 0.053443354 -0.045241266
-0.022747146 -0.016272347 -0.0050203456 0.0063708825 0.043329157 0.011629818 0.011644667 0.03747168
0.104387105 -0.035358775 0.013641522 -0.025304591 -0.0493294 0.05427698 0.047379892 0.046256334
0.023901079 -0.0094778985 -0.015484651 -0.014353674 0.030825721 0.018915178 -0.0012466903 -0.0016789285
-0.006981519 -0.016294017 0.045123976 0.069667116 0.000365649 0.009249148 -0.1225004 -0.008137156
0.036613803 0.044631552 0.017161226 0.005144588 -0.06909602 0.023472508 0.090584315 -0.018015679
-0.034131773 -0.029808152 0.015649505 -0.0011178541 0.016189713 0.0155218495 -0.056991704 -0.031331785
0.00044297831 0.008690468 -0.021577869 -0.07699964 -0.008316228 0.00023248687 0.021261202 0.00035682056
0.001312888 0.0029752166 0.029245667 0.033074692 -0.0069849608 -0.046549447 0.023038693 0.03860973
-0.013099391 0.01948928 0.033093747 0.02811924 -0.012481411 0.04844752 -0.030578792 -0.036035188
0.02764427 0.050597705 -0.023828106 0.043658283 0.029376445 -0.015034609 0.024748627 -0.083828494
0.0421063 0.029835075 0.026397508 -0.01959849 -0.018818978 0.01712183 0.014151865 -0.056679234
-0.035474483 0.01755419 -0.012377894 -0.0025298074 0.032923784 -0.02726015 -0.017456705 0.02897757
0.004634666 -0.021614917 0.050344776 -0.018274043 -0.009681463 0.011682436 -0.025535934 0.0014381554
-0.023956642 -0.026615292 -0.005910413 -0.004299574 0.032867882 -0.004163273 -0.08678076 0.0069687534
0.0148694515 0.0031458028 0.026738498 0.03725675 -0.029797658 -0.02588912 0.0045219194 -0.021108774
-0.030718524 -0.013425904 0.03183827 -0.06353077 -0.061046187 0.0020046006 -0.033932462 -0.01445673
-0.0694003 0.023440797 0.07888031 0.021336656 -0.017600732 0.030241655 -0.10825538 0.062493112
-0.0018278211 -0.028897963 0.010517634 -0.009667588 0.022583645 0.03898034 -0.031503666 -0.007478832
-0.008360532 -0.0042693503 0.03883702 -0.030258603 0.007844528 0.05875832 0.015782047 -0.03003922
-0.040500212 -0.016385 0.041763175 0.039281145 -0.025432784 -0.07689056 0.030246634 -0.017336441
-0.009639345 0.03503612 0.0050352663 0.02139334 0.032365393 0.0005795099 -0.038415127 -0.022438899
-0.028199255 0.056984257 0.009798086 -0.03321681 0.022889907 0.012909592 0.04656702 0.020885121
-0.01141267 -0.0037878037 0.009130028 0.031920478 -0.06791879 0.053053018 0.07866101 0.001492386
0.029157605 -0.0031218529 0.034475002 -0.006924946 0.02744982 -0.01162241 0.015355773 0.0027472563
0.038051818 0.001980003 0.018011205 -0.0061815074 0.050661188 0.0080242185 0.09546547 -0.025307639

layer_1.bias f4 [128]
00000000: 4340 3dc0 f3c4 5bc0 5578 8fc0 1538 cbbf
00000010: 56a0 77c0 efce 9dbe fabc 16c0 a57c 55c0
00000020: 4e76 c5bf e7a0 1ac0 7d17 a4bf 7aa3 72c0
00000030: 8a2d 9ebf e8a9 fcbf 951d 1ec0 3b16 94bf
00000040: 92e2 d8bf c367 7fbf c2e1 c3bd b02c d3bf
00000050: aee8 afc0 e4fb adbf ada1 0cc0 11da 18c0
00000060: 84aa 80bf 2eaf 1dc0 b14b e7bf 9cac debf
00000070: 3dbb 3abf 2c70 e8bf 934c 9ac0 b37d fbbf
00000080: 539a 67bf 937a 59c0 61ff 8dbe 7341 c9be
00000090: bc40 ddbf 2523 b2bf 4dac 33c0 fd15 62c0
000000a0: 5c17 70bf 831b 05c0 fdd0 cbbf 8431 60c0
000000b0: 52b6 02c0 cca8 efbf 18d0 03c0 cd08 6cbf
000000c0: 9ef3 dabf e47f e6bf e6f0 14c0 1053 02c0
000000d0: dcdd e9bf b81e 9fbf 4a12 42c0 21f9 e0c0
000000e0: 7c2b 0fc0 d10a 1bc0 8576 0bc0 182c 35c0
000000f0: 026b 7dc0 f3ee 0fc0 fa49 c7be 1c05 16c0
00000100: de94 c6bf 864f efbf 30f0 22c0 8347 d4bf
00000110: 5f33 d0bf 49ea 74c0 cbf8 a7c0 4734 f6bf
00000120: 9d05 eabf 915a 02c0 ff44 1dc0 bf21 c0bf
00000130: 940b b5bf 60a8 a7bf dd97 03c0 8137 09c0
00000140: 9f49 a2c0 a7b8 a3c0 45a8 18c0 2955 0fbf
00000150: 9d69 a1c0 f889 0ec0 d38d 08c0 02d7 88bf
00000160: 2753 1cc0 9f00 3ec0 3a3d 1cbf 7005 653f
00000170: af43 5cbf e56b 1ac0 b234 7cc0 db47 47c0
00000180: 4d58 b13c 689c 98bf 2bd5 f9bf 976f 343e
00000190: a695 50c0 0585 8dbf be4e 8dbf dc41 1bc0
000001a0: b345 4fc0 dafd b1bf 65c6 fabf 2003 8cc0
000001b0: a70c e7bf a148 30c0 e19f 09bf b89b 1ec0
000001c0: fa01 51bf 9f78 5cc0 9250 6ac0 e83e 24c0
000001d0: 33ec 2fc0 e21b 1fc0 0062 2b3e 7be8 25c0
000001e0: 10be 84be 54fa 75c0 0094 95bf 5e63 6cc0
000001f0: e909 c5c0 cac5 d0c0 39fd 07c0 89a3 13c0
-2.9570472 -3.4338958 -4.483439 -1.587649 -3.8691611 -0.3082194 -2.3552842 -3.3357327
-1.5426729 -2.4160707 -1.2819668 -3.7912278 -1.2357647 -1.9739351 -2.4705555 -1.1569284
-1.6944144 -0.997677 -0.09564544 -1.6498013 -5.4971533 -1.3592496 -2.197368 -2.3883097
-1.0052037 -2.4638171 -1.8069974 -1.7396426 -0.7294195 -1.8159232 -4.8218474 -1.9647735
-0.90469855 -3.3981063 -0.277339 -0.39307746 -1.728538 -1.3916975 -2.8073914 -3.532592
-0.93785644 -2.0798042 -1.5923153 -3.5030222 -2.042378 -1.8723388 -2.059576 -0.9220093
-1.7105596 -1.8007779 -2.3272033 -2.0363197 -1.8270831 -1.243125 -3.0323663 -7.0304112
-2.237029 -2.4225352 -2.1791089 -2.8308163 -3.9596562 -2.2489593 -0.38923627 -2.3440619
-1.5514181 -1.8696144 -2.54591 -1.6584324 -1.6265677 -3.8267996 -5.24912 -1.9234704
-1.8282963 -2.0367777 -2.4573362 -1.5010298 -1.4144158 -1.3098259 -2.056144 -2.1440127
-5.071487 -5.1162906 -2.3852704 -0.5598932 -5.0441422 -2.227171 -2.1336563 -1.0690615
-2.4425752 -2.968788 -0.61030924 0.8946142 -0.86040777 -2.4128354 -3.9407163 -3.1137607
0.02164855 -1.1922731 -1.9518179 0.17620693 -3.2591338 -1.1056219 -1.1039655 -2.4258947
-3.238629 -1.3905594 -1.9591795 -4.3753815 -1.8050736 -2.754433 -0.5375958 -2.4782543
-0.8164364 -3.4448621 -3.6611676 -2.5663395 -2.7487915 -2.4860768 0.16736603 -2.5923145
-0.25926256 -3.8434038 -1.1685791 -3.693565 -6.1574597 -6.524144 -2.1248305 -2.3068564

layer_2.weight f4 [64, 128]
00000000: aefc 403e 650b e03d b30e 253d d64f 94be
00000010: 2992 e4bb 5c1f 51bc 4378 083d 5c38 f3bd
00000020: e273 56bd 598a be3d 2fc1 d63c 9967 70bd
00000030: bc68 9fbd 5e1f f3bd 8f46 dd3c 874b f33d
00000040: 5f52 c1be 6800 613c 5b6e 6abe c567 a8be
00000050: 082d 213d 351c 2bbd 1945 463c ab12 bb3c
00000060: 7722 b1bc 2aee 203d 0d5d 55be a3a9 74be
00000070: b3a0 ccbe 6cbb bbbe 7b85 e9bd 8246 dcbd
00000080: 3d2b 5e3c 1c1e 123e e6d1 53ba 78e8 2bbc
00000090: 9da1 023d db6c 0cbd 3fe9 bcbe 51b8 923d
000000a0: fce5 9d3c 9ad8 a23c 40ed 92bc adf4 7ebc
000000b0: a4b6 5cba 6965 f6bc c408 1c3d 665a dfbd
000000c0: 3fb3 bdbe 94e8 9bbd 952c ea3c 9143 25bd
000000d0: 9b85 83be d8ff 44be 43b3 cabb dcbd 1ebd
000000e0: 9da1 0e3c 7d66 4a3d 48c9 d0be 5373 c5be
000000f0: 7008 a03d 7e9d dd3b 2d2a ffbb 1acc 80bd
00000100: 04b4 abbd a2de 9d3c f6f6 583d e660 bfbe
00000110: 40e6 8a3f 7c0f 11bc 7e3e 093d ac0a 553d
00000120: 19e6 ccbc 8a83 46bd 9266 c83c 550a 0abd
00000130: d17c 2bbe 2b9d e13e 9300 543d 21a9 173d
00000140: 6306 313d 7a82 2f3d bf8c 173c ae42 d33d
00000150: bb9f c23d 133a 963c 5537 93bc 50c4 acbe
00000160: 8368 063d e5eb a43f 5754 babc a651 1bbe
00000170: 82f4 8abd 2078 2d3d 2e45 863d fc73 f93a
00000180: cb59 bd3e 3bfe cdbe 88be 133d 6199 55bd
00000190: 8189 51bc 1689 6e3f 6fa3 f2bf 33a6 2a3d
000001a0: 78d8 e33d 79e4 0b3f 9619 8abc 0ed6 503d
000001b0: 8aae 84be 7970 a53d 1398 debd f951 ebba
000001c0: 122d 883d e512 2bbc 9fe1 153c 0bf1 1e3d
000001d0: 5b43 efbe 871a 6c3c defc b83e 0907 d53c
000001e0: 853c 98be a3be abbd faeb 673e 91fa 35be
000001f0: 55d9 afbc 3e19 87bd 2606 a6bd 7079 24be
00000200: 39e0 193d 0501 3abe 7983 80bd a480 1ebc
00000210: 856e 4abc 6e21 013d bc72 2b3d 2221 f7be
00000220: f0c9 983c 9b33 553d f8da f63c e8d0 c2bd
00000230: 2591 10bf a17b 933d 4ea1 fd3c 7abd 20bd
00000240: f962 ce3c 417c f63c 715d 7e3e 0e8d 2b3d
00000250: 8716 f7bb cf60 f03d fd14 4c3c 9b0c a53c
00000260: 327f 243d b257 be3d 8f19 1d3d cc04 373d
00000270: d02f 4c3d 022d 793c c458 143e 7be4 933c
00000280: 0cc1 903c e14c ccbb ff51 2f3d 55e6 be3d
00000290: 58fa 92bf cf61 793d 8e3f 863d 2a78 3ebf
000002a0: 3bf4 cb3d 871d 813d 4d96 ac3d c72f ce3c
000002b0: 4157 433d 89ab b93d c75b 833c 3557 923d
000002c0: b28a 243d 40cb 8ebe d993 f8bb 8d0c 893d
000002d0: 1145 f23c 7cc3 773f f3c9 883d c02f 1bbd
000002e0: 95b8 6d3c 2ad0 ac3e 6bf4 4039 3838 9c3d
000002f0: f993 cdc0 f9eb 5b3c dace 833d 931f 91be
00000300: 0587 2dbe a2f9 52be 2c7b 0abc af81 933c
00000310: 9cf3 b03d 718b 60bf 53db 133c 9ad6 10bf
00000320: 33f7 4b3d 9462 3bbf ce38 acbd 56ff 82bf
00000330: 3de2 133d 7bf0 0b3d 901f b13c 610b 5f3c
00000340: f252 f33c 3d12 193d 020e c03c a4bd 3c3c
00000350: b6a1 e6bd 416b aabb 11b0 cb3c 3ba9 3a3d
00000360: 7537 1c3d c617 c63c d2f3 4ebd 6fea 8abe
00000370: 00a7 2e3e 5248 c83c 1148 d1c0 6afd e03d
00000380: 6486 aebd ae03 603c 8f90 b63c 5abb aabd
00000390: 7b0c 603c d11d ac3d d451 01bd 57bc bc3c
000003a0: b43f 1d3d aa32 c4bc 886a 213d 8f55 46bd
000003b0: bdab df3c 88f7 afc0 75cd 0b3d 582c 33bb
000003c0: 5978 19be dbd9 64bf ad96 52bc 9932 753f
000003d0: f0ac d03d 72bc c43c 1fb1 da3b d1e6 02bd
000003e0: 5c94 bc3d fdf3 7fbf 7c50 a6bc 2a1d 87bd
000003f0: 166c 6a3d 6bca a4bd 6bf4 7d3d 0cde ff3e
0.1884639 0.10939673 0.04029722 -0.2896716 -0.0069754315 -0.012763824 0.033317816 -0.11875984
-0.05235661 0.093037315 0.026215164 -0.05869255 -0.07783648 -0.11871217 0.027011184 0.1187964
-0.37758157 0.013733007 -0.2289366 -0.3289167 0.039349586 -0.041774947 0.012101435 0.02283605
-0.02162288 0.03928963 -0.20836277 -0.23892836 -0.39966354 -0.3666643 -0.114024125 -0.10755636
0.0135601135 0.14269298 -0.00080802885 -0.010492437 0.031892408 -0.0342835 -0.36896703 0.07164062
0.019274704 0.019878674 -0.017935395 -0.015561265 -0.00084195496 -0.030077653 0.038094297 -0.10905914
-0.37050816 -0.0761272 0.028585711 -0.04034764 -0.2568787 -0.19238222 -0.0061859204 -0.038755283
0.008705524 0.049414147 -0.40778565 -0.38564548 0.07814109 0.0067631593 -0.00778701 -0.06288929
-0.08383945 0.019271199 0.052969895 -0.37378615 1.0851517 -0.008853789 0.033506863 0.05201213
-0.025012063 -0.04846529 0.024462972 -0.03370126 -0.16746832 0.44065222 0.05175836 0.03702653
0.04321898 0.04284904 0.009249865 0.103154525 0.095031224 0.018338239 -0.01797072 -0.33743525
0.032814514 1.2884489 -0.022745294 -0.15167865 -0.067849174 0.04235089 0.06556164 0.0019031758
0.3698257 -0.40233025 0.036070377 -0.052148227 -0.012789131 0.93177927 -1.8956126 0.041662406
0.111252725 0.54645497 -0.016857903 0.05098539 -0.25914413 0.08078093 -0.108688496 -0.0017953507
0.066492215 -0.0104415165 0.009148031 0.038804095 -0.46731076 0.0144106215 0.36130422 0.026004331
-0.29733673 -0.083859704 0.22648612 -0.17771365 -0.021465937 -0.065966114 -0.081066415 -0.1606195
0.03756735 -0.18164451 -0.062750764 -0.009674225 -0.0123554515 0.03152602 0.041857466 -0.48267466
0.018650979 0.052051168 0.03013371 -0.09512502 -0.5647147 0.07201315 0.030960705 -0.0392432
0.025193678 0.030088546 0.24840333 0.041882567 -0.0075405273 0.11737215 0.012456176 0.020147612
0.040160365 0.0929407 0.038354453 0.04468231 0.049850285 0.015208485 0.14486986 0.018053284
0.017670177 -0.0062347506 0.042802807 0.09321276 -1.1482649 0.060884293 0.06555091 -0.74402106
0.09958693 0.0630446 0.08427105 0.025169266 0.047690634 0.09065921 0.016034974 0.0714554
0.040171333 -0.27889442 -0.007585984 0.06691847 0.029573949 0.9678266 0.06679144 -0.037887335
0.01450934 0.33752567 0.000184016 0.076279104 -6.424313 0.0134229595 0.06435938 -0.28344402
-0.16946037 -0.2060304 -0.008452218 0.018006174 0.08640215 -0.8771277 0.009024459 -0.56577456
0.049796294 -0.73197293 -0.08409272 -1.0234172 0.03610443 0.034164887 0.021621495 0.013613553
0.029702637 0.03737091 0.02344418 0.011519823 -0.11261313 -0.005200774 0.024864228 0.045571547
0.038138825 0.024181258 -0.050525494 -0.27131984 0.17055893 0.024448548 -6.540047 0.10985835
-0.08521727 0.013672752 0.022285728 -0.08336516 0.013674851 0.084041245 -0.031572178 0.023039026
0.03839083 -0.02394994 0.039408237 -0.04842144 0.02730357 -5.498966 0.034131486 -0.0027339663
-0.14987315 -0.8939492 -0.012853307 0.9578033 0.10189235 0.024015639 0.0066739465 -0.031958405
0.09207985 -0.9998167 -0.02030205 -0.065973595 0.057231985 -0.08046421 0.062000673 0.49974096

layer_2.bias f4 [64]
00000000: 7b7f 16c0 5578 743f d36b b840 2f97 3f3e
00000010: 7944 61bf 036e 1e3f 1d1b efbe 0f72 22c0
00000020: 6ba4 06bf dc13 a13f 5260 15bf eb71 873f
00000030: ceb7 a7bd 3be8 fd3d 42db f6bf 4f63 1fbe
00000040: 9535 87bf a49c 093e e976 933e b775 0b3f
00000050: 250b 173f dd21 82c0 5712 7ebf e64b 513f
00000060: 5c30 243f 4d7b be3d e82e 1f3f 201b 88bd
00000070: 5481 0840 f270 903f 94d6 963d e04f 443e
00000080: 9477 d440 3765 a7bf 8cc8 3140 c7b4 413f
00000090: e7db aebe f798 01c0 c1e4 8bbf 0b9b cfbf
000000a0: 5da4 df3f d4df 8240 f890 a2bf 593d 99be
000000b0: 5195 d1bd e4e2 0c3e fb33 26be 4e8d 1d3f
000000c0: 89b6 a73f 10c7 07c0 2467 fbbf 5c37 1040
000000d0: 382a 2d3f cda2 11be 3336 9740 113f 253f
000000e0: 014e 91bd 12c9 c4bd 3057 debd f21e d5bd
000000f0: 119d 6c3e 530f b440 a8db 383f 3639 c9bf
-2.3515308 0.9549611 5.763162 0.18710016 -0.87995106 0.61886615 -0.46700373 -2.5382116
-0.5259463 1.2584186 -0.583501 1.058164 -0.08189355 0.1239781 -1.9285662 -0.15565227
-1.0563227 0.1343866 0.2880166 0.54476494 0.5900138 -4.0666337 -0.99246734 0.81756437
0.6413629 0.093008615 0.6218095 -0.06645799 2.1328936 1.1284468 0.07365146 0.19171095
6.639597 -1.3077763 2.7778654 0.7566647 -0.34152147 -2.0249612 -1.0929185 -1.621919
1.7472035 4.089823 -1.2700491 -0.29929617 -0.10233558 0.13758427 -0.16230766 0.6154374
1.310258 -2.1215248 -1.9640851 2.2533789 0.67642546 -0.1422226 4.725366 0.64549357
-0.07094956 -0.096086636 -0.108564734 -0.10406293 0.23106791 5.6268706 0.7221017 -1.5720584

layer_3.weight f4 [32, 64]
00000000: b355 16bd edef 913c eeba bd3d 1d81 283e
00000010: dce6 ebbb faa8 2abe 6438 413d 4a18 803d
00000020: 3ede ff39 2133 423e 1566 af3c cb31 a83e
00000030: b393 a33d 1676 103d 1cf5 20bb 62bb fcbc
00000040: 2aad 8e3b 9fbe dd3c 036c fe3d 4aa5 4d3e
00000050: b3d6 443d 1fe0 48bd 55cb a63c fa4b 6e3d
00000060: f090 d63c 98f0 143d d10c 8abc 5b2c b73d
00000070: 1ba4 113e c1f9 24bd e8ec 443e db01 193d
00000080: 93a3 da3d 317d 823e 73c3 cabe 2baa 033d
00000090: 352c b43c 45eb 0d3b 528f a8bd 8d11 393e
000000a0: 6230 cc3d 7327 bf3d a338 2b3e 345b a03d
000000b0: 834b 813d 2c29 d03c 85e9 b1bc 9a3f 473d
000000c0: f622 813a c9c0 27be bfc5 b63e fdbb 3b3c
000000d0: d4c9 bbbc ba5c ba3c b256 c2bc 788d debc
000000e0: 3624 92bd db47 a73d 489f c43c 7a4f 44bd
000000f0: dbec 063d d3cc 683d e783 523c 6eef 36bd
00000100: 4650 32be 5dec c9bd db9b c53d bcc0 373e
00000110: 1c99 b5bd b076 aabd febb 2a3c 8617 0ebe
00000120: 24db 27bd e83e 10bd 2d9e 23be e62b aa3d
00000130: b6ab 853d 9557 42bd 1520 6ebe a0dd 21bd
00000140: 5ccc ed3b af92 11be 3a74 143e 68ff d53d
00000150: e05b 8e3d eb74 1fbf 2e3f 4bbe eb10 523d
00000160: c68c 143e cdd3 a4bd 43ed a6bd 5d4f 713d
00000170: d978 8f3e 50e5 5abd f384 d73d 3a54 51bd
00000180: aa14 9e3e e6c8 783d 3866 0a3e dfe7 143e
00000190: 3868 1bbe 381d 14bd 2461 993d d90d 5e3d
000001a0: 1218 9abc 3be4 893d 2806 443d 22db cf3d
000001b0: 305f 5c3d 227e 0abe 6410 e5bb d15c f1bd
000001c0: 0348 713d 686a 1cbf f801 fd3d 232e c1bc
000001d0: 03c6 a73c f325 85bd 7595 933d ad57 80bc
000001e0: f5b8 89bc cc4d a9bb 6fff 0cbe 7f89 b93d
000001f0: 9d3f 3fbd b926 113e d6ad ddbd 8513 6fbf
00000200: bb68 37bd 5b86 09bf c6d3 b4ba 348b e8bd
00000210: f34f b33d 0dd6 5e3c 0fd8 89bd de61 a4bb
00000220: fed7 6d3e 3402 33be 68c6 ffbc 1f0e ad3d
00000230: 34cd 33bd eb95 68bd 7d70 29bd 9bd6 253c
00000240: e092 f8bc f26f 5dbd 0326 26be 2048 6d3e
00000250: 842b dbbc 3a94 6abd 8527 2dbe 398b 18bd
00000260: 4d21 8f3d 52de eabd 38d8 97bc ab72 a5bd
00000270: 283f 83bc 48e4 003e dfd3 1f3d 56bf 85bd
00000280: c3aa 343d 0551 973d e5f0 b8bd d9dc a83d
00000290: 7ed2 57bd faba dbbc 83f0 7bbe 7c94 883d
000002a0: c6b4 dfbc b54b b0bd 1d8a ef3c eec4 57bd
000002b0: f268 16be b155 7fbd 639b 263e 655a 603d
000002c0: a33b f9bc df12 8bbe 8c30 03be d317 df3c
000002d0: b0db 8abd 34f1 3dbd 51ce 16bd d425 32bd
000002e0: e10d 51be b451 96bd 6d8f 4bbd 9bb9 cc3d
000002f0: 04e6 e4bd e6e0 88bd 97da b5be bdd0 2abd
00000300: b2a8 973d 760e 1bbf d099 61be 8fe0 1bbd
00000310: 5052 14bf d85c cebe 7c36 8ebe dee9 c2be
00000320: 07d3 5a3d d987 84be 7ea5 123f 4f98 8c3e
00000330: 269b e53d 71b7 c7be 3e3d 923d 14a0 ff3c
00000340: 50b6 923d 3272 0dbf f95e afbb 8fc2 08bf
00000350: 6eae a83d 3ab0 12bf dd7f 52be 811b 8cbd
00000360: b84a a4bd 263a 403e 7333 113e f45e 5c3e
00000370: 7544 50be 76d0 22be b484 11bf 979d 79be
00000380: b3c7 20be b664 27bd 8362 cabe 2159 ea3d
00000390: 1536 a6be bdf0 a73d cab5 dbbd a432 e8bd
000003a0: 24d6 87bd 42da 863e fca9 9dbc 0387 d23d
000003b0: b38e 4c3d f000 25bf 83d2 cebd b9bd 2e3f
000003c0: a3e2 23bd 1642 1abf 4721 bfbc afde a0be
000003d0: 69de 09be 2296 89be 0d10 dcbe 0d88 57be
000003e0: 5cbd a43c c42e d83e 7cb5 d1be 8140 df3d
000003f0: c6bb 90be 9219 833b 28f1 ca3d b279 3b3d
-0.036702823 0.0178146 0.0926417 0.16455503 -0.0071991514 -0.16666022 0.04717292 0.06254633
0.00048802973 0.18964817 0.021410981 0.3285049 0.07987156 0.035268866 -0.002456016 -0.03085107
0.004354139 0.027068434 0.12422945 0.20082584 0.048056316 -0.049041864 0.020360628 0.058177926
0.026192158 0.03636226 -0.016851814 0.08944007 0.14222758 -0.040277246 0.19230998 0.037355285
0.106757306 0.25486138 -0.3960224 0.032144707 0.021993736 0.0021655124 -0.08230461 0.18073101
0.09970166 0.09333696 0.16720824 0.078298956 0.06313231 0.025410257 -0.021717796 0.04864464
0.0009852338 -0.16382135 0.35697743 0.011458394 -0.022923388 0.022749294 -0.02372298 -0.027167067
-0.07135813 0.08168002 0.024001732 -0.047927357 0.032940727 0.05683596 0.012848831 -0.04466193
-0.17413434 -0.09859536 0.09648868 0.17944616 -0.08867094 -0.08323419 0.010420797 -0.13876161
-0.040980473 -0.035216242 -0.15978308 0.08309154 0.06526892 -0.047446806 -0.23254426 -0.039518
0.0072570276 -0.14216112 0.14497462 0.104491055 0.069511175 -0.6228778 -0.1984832 0.051285665
0.14506826 -0.0804821 -0.08150723 0.058913577 0.28021887 -0.053441346 0.10523405 -0.051105715
0.3087514 0.060738467 0.13515556 0.14541577 -0.15176475 -0.036160678 0.07489231 0.054212425
-0.018810306 0.06732985 0.047857434 0.10149218 0.053801715 -0.13524678 -0.0069904793 -0.117852814
0.058906566 -0.61099863 0.12353891 -0.02358157 0.020480162 -0.06501379 0.07206241 -0.015666807
-0.016811827 -0.005166745 -0.13769315 0.090594284 -0.046691526 0.14174928 -0.10824172 -0.9338916
-0.044777613 -0.53720635 -0.0013796024 -0.11354676 0.087554835 0.013600838 -0.06730663 -0.0050165495
0.23226926 -0.17481309 -0.031222537 0.08449959 -0.04389687 -0.056783598 -0.041367043 0.010121967
-0.030343473 -0.054061837 -0.16225438 0.23172045 -0.026754148 -0.057270266 -0.16909607 -0.037242148
0.069887735 -0.114681855 -0.018535718 -0.08078512 -0.016021326 0.12587082 0.039020415 -0.06530635
0.044108164 0.073885 -0.09030322 0.08245248 -0.052690975 -0.026822556 -0.24603467 0.06668946
-0.02730788 -0.0860819 0.029240662 -0.05267804 -0.14688471 -0.06233758 0.16270213 0.054773707
-0.030423945 -0.27162835 -0.12811488 0.02723304 -0.06780183 -0.046372607 -0.036817852 -0.043493107
-0.2041545 -0.073398024 -0.04969733 0.09996339 -0.111766845 -0.06683521 -0.35518333 -0.041702975
0.07405223 -0.6056894 -0.22031331 -0.038055953 -0.579381 -0.4030521 -0.27775943 -0.38069052
0.053423908 -0.25884894 0.5728377 0.27459952 0.11211233 -0.39007142 0.07140587 0.03120426
0.071636796 -0.55252373 -0.005351898 -0.5342187 0.08236395 -0.5730015 -0.20556588 -0.068411835
-0.08022064 0.18772182 0.14179783 0.21520597 -0.20338614 -0.15899834 -0.56843114 -0.24376522
-0.15701179 -0.04086753 -0.39528283 0.11442781 -0.32463136 0.08200214 -0.10728033 -0.11337784
-0.06632641 0.26338392 -0.019246094 0.10279658 0.049940776 -0.64454556 -0.10098746 0.68258244
-0.04001106 -0.6025709 -0.023331298 -0.31419894 -0.13463749 -0.26872355 -0.42980996 -0.21047993
0.020109825 0.4222318 -0.40958774 0.10900975 -0.2826826 0.004000851 0.09909278 0.045770355

layer_3.bias f4 [32]
00000000: afec 7a3f 7021 0640 34ce 2b40 1bda 283e
00000010: 6371 4e3f bdfc 9e3f 4653 893f 0947 bcbe
00000020: 7449 82be f004 e23f bb58 0a40 9eaf 493d
00000030: e940 583f 701f 1940 3883 39c0 6b2b 17bf
00000040: 549b 05bf a00f 473f 0c04 a53f d0da fd3f
00000050: 0b20 813e 0f28 c03e d103 983e ca12 fb3f
00000060: 4974 9c3e 97ee 2abf 8d1c ddbd 9d92 e5bc
00000070: 7987 02be 8552 e2be d9a1 f63f e57d 43bf
0.980174 2.0957909 2.6844606 0.1648945 0.80641764 1.242088 1.0728538 -0.36772946
-0.25446665 1.7657757 2.1616657 0.049239747 0.84474045 2.3925438 -2.898634 -0.59050626
-0.52190137 0.77758217 1.289186 1.9832401 0.2521976 0.37530562 0.29690412 1.9615109
0.3055747 -0.6677031 -0.10796461 -0.028024012 -0.12746991 -0.44203582 1.9268142 -0.76363975

layer_4.weight f4 [32, 32]
00000000: ed5c 0abd 12fd 2fbe 2aaa 8d3c 5cd0 c5bd
00000010: 527c 18bc ae85 8cbd 3818 39be eea1 28be
00000020: 3095 bcbd 0ea6 0d3d 9f69 88bd bde0 8e3c
00000030: baa5 24be c1fa 8c3d d6f0 88be c204 c0bd
00000040: 5be6 8b3d a134 b63d cb84 983e adb5 12bd
00000050: 8083 93be 14aa 34bf 3bb8 3b3d 6bf4 43be
00000060: 8e6e a5bc 6853 b9bc 335e 743c 8fc1 c53e
00000070: 3f5b 8dbd 3d34 a8bc 070a c73d b36a 6fbe
00000080: 86c9 193e e5bb a73b 4329 533e dfb8 593b
00000090: 8610 ff3c 1f2d b93c 3695 9bbd 8bf3 ec3d
000000a0: c61c 68bd 983f 703d 0987 25be 341f 7a3e
000000b0: 20d4 a23d 5f5f 39be c6ad 493d a3e8 35be
000000c0: 05ac 6bbd 2143 9fbe f271 2abe cc09 85bd
000000d0: 4350 22bf d8f8 eebf 93fe 073d 163a 1bbe
000000e0: 21d7 b7bc 8e80 e3bd ae63 853e 46a7 75be
000000f0: 13e1 b13d a9c1 613e 64c7 00be 8d67 413d
00000100: 6887 36bd 2ee8 e4bd c527 5cbd cbd1 013c
00000110: 22d1 ce3d 80da 5d3d fccb 333e c1b8 62be
00000120: ba13 86bd 7402 a3bc ce61 89be 0823 893a
00000130: 4d55 803c 6c92 843e f629 833d c56d a1bc
00000140: 8cdd 02be 29be e33d b951 d73e 0d0d da3c
00000150: 2a72 d73b 9cbd 073e 29e8 813d 8766 d33d
00000160: f5a8 87bc f5f6 293d 7908 a7bd 66d4 0a3d
00000170: 5521 13bd 10b9 4b3e fe54 91bd 5fd1 633e
00000180: 1035 febd cea8 dcbc 5dcd fabd 72e3 ba3d
00000190: e115 0d3d 7cf4 83be 502e a43e b431 d03d
000001a0: ebbe 003e 0c51 06c0 ecc8 7ebe ae5d 25bd
000001b0: b969 36bf 95a3 e1be 5b3e 92bc 065e cabe
000001c0: b53d 2abd e0fb cdbd 683d 52bf ec69 b5bc
000001d0: aa7f b2be f933 d0bd f15d 4dbd 1054 a73e
000001e0: d0d6 753c 586e 99be 63ea 9fbb b294 e0bd
000001f0: 0e58 2bbe c617 68bd b311 16be 30db f93d
00000200: 040c 023d 5480 533d 6ccb 7ebd 2181 d83d
00000210: beaf 9ebd 6258 7dbe 3ed8 5f3d 9ac5 cc3d
00000220: 391c 2bbe 2319 09bf daa8 64be b844 c33a
00000230: 884b c6be e082 bcbd 022e 53bd 1b54 78be
00000240: da42 f0bc 1c9f 03bf 3b17 9dbe 98ca 823d
00000250: 1a43 91bf 8d6c 01be 1fc7 92bb 009a d4be
00000260: 1552 c33d 4287 d03b 8326 203d 0e1f f23b
00000270: b5b9 d8bd ce9e 13bd d1e0 72bd febf 7dbc
00000280: fa58 1ebd 7112 1fbe 8d81 ebbe e6e5 9d3d
00000290: 7dbb 473e c353 713d 1470 d13c 3107 3a3e
000002a0: abf5 cb3d c36d bc3d fa4a a5bd 1571 a33d
000002b0: a603 96bd 0fc1 843d 36ad 0cbb 63dc f53b
000002c0: 5c8b 6f3e d642 d63d 07c1 ffbd 1ff5 133e
000002d0: 0a7b fb3c d916 d3bd 1cfd 5fbd c87a 2abe
000002e0: 823c e53d 369f 98bd c178 2ebd e65b 643d
000002f0: 9fbc 4fbd 36ee 6b3e 0420 e93c f5b4 a53d
00000300: 3950 00bf fab1 51bd 15b6 babd 9809 b23d
00000310: 77bb af3e 732b c43c d136 acbf 1bc9 11bf
00000320: f2cc 1cbe df59 2abf 9f37 46bd 7ee2 9bbd
00000330: ee54 a4bd b64f d23e 605f 69bd 1c74 453e
00000340: 1818 28bf d555 04be 5872 d53c d1fd 913e
00000350: 0f72 c3be 6e1b 2e3e 87f8 80bf 9aa5 a2be
00000360: 076b ed3d 40e3 dd3d 21c7 99be 2d5f 35bf
00000370: d23a 1bbc 0a39 5f3e c140 a03e 9792 013e
00000380: 576e fa3d 8144 4abf 1888 90bf 4381 93be
00000390: 7bb6 77be dd70 02be 9462 24bb 261c 01be
000003a0: c1a9 07be 19fa f73d 2ae0 58be a150 993d
000003b0: f06a 9cbe 4ebf afbf 4667 6fbb 07ff a3bd
000003c0: 9538 473d 9d5b 9cbe 0ebf 33bf 3f3c 2fbe
000003d0: c5a1 f9be bdcd d8be 1ca5 1b3e 4fbf bfbe
000003e0: ac29 fe3b 9d5a 0a3c 542d fa3c 43ef f33d
000003f0: 973e d73d e52d a73d 9ba2 27be 08e8 e3bc
-0.033780027 -0.17186382 0.017293055 -0.09658882 -0.009306984 -0.06861435 -0.18075645 -0.16468021
-0.09208143 0.03458219 -0.066607706 0.017441148 -0.16078845 0.06883765 -0.26746243 -0.093759075
0.06831046 0.08896757 0.29788813 -0.03581779 -0.28811264 -0.7057202 0.045829993 -0.19136207
-0.020194318 -0.022622779 0.014915037 0.38624236 -0.069021694 -0.020532722 0.097187094 -0.23380546
0.15018281 0.0051188343 0.20621209 0.0033221764 0.031135809 0.022604523 -0.07596819 0.1156989
-0.056668065 0.058654398 -0.16164793 0.24425966 0.07950616 -0.18102787 0.04923799 -0.17764525
-0.057537097 -0.31105903 -0.16645029 -0.06496009 -0.6340372 -1.8669691 0.033201765 -0.15158877
-0.022441449 -0.11108504 0.26052612 -0.23989591 0.086855076 0.22046532 -0.12576061 0.047217894
-0.044562727 -0.11177097 -0.053748865 0.007923554 0.10098483 0.054163456 0.17558283 -0.2214079
-0.06546731 -0.01989863 -0.26832432 0.0010462711 0.015665675 0.2589296 0.06404488 -0.019705663
-0.12779826 0.111202545 0.42054537 0.026617551 0.0065748887 0.13255924 0.06343109 0.1032229
-0.016560057 0.041495282 -0.08155913 0.033893965 -0.03592046 0.19894814 -0.07096289 0.22247837
-0.124124646 -0.026935961 -0.12246201 0.09125413 0.034444693 -0.25772464 0.32066584 0.1016573
0.1257283 -2.0986967 -0.24881333 -0.040372543 -0.7125507 -0.44070116 -0.017851999 -0.3952486
-0.041562755 -0.10057807 -0.8212495 -0.022145234 -0.34863025 -0.10166163 -0.050138418 0.32681322
0.015004829 -0.29966998 -0.004880236 -0.109658614 -0.16732809 -0.056663297 -0.14655189 0.1220001
0.03174974 0.051636055 -0.062205717 0.105715044 -0.07748364 -0.24740747 0.054649584 0.09998627
-0.16709985 -0.5355398 -0.22330037 0.0014897799 -0.387295 -0.0920465 -0.05155755 -0.24250834
-0.029328752 -0.51414657 -0.30681786 0.06386298 -1.1348603 -0.12639065 -0.0044793035 -0.41523743
0.0953714 0.0063637802 0.039099228 0.007388956 -0.10582296 -0.03604012 -0.059296433 -0.015487669
-0.038659073 -0.15534379 -0.45997277 0.07709865 0.19505115 0.058917772 0.025566138 0.18166806
0.09958967 0.09200623 -0.08070941 0.07980553 -0.07324915 0.064821355 -0.0021465546 0.007503079
0.23393005 0.10461967 -0.12487989 0.14448975 0.030698318 -0.10307092 -0.054684743 -0.166484
0.111931816 -0.07452242 -0.04259563 0.055751704 -0.050716992 0.23040089 0.028457649 0.080911554
-0.5012241 -0.051195122 -0.09116761 0.08693236 0.34322712 0.0239465 -1.3454229 -0.5694749
-0.15312555 -0.6654338 -0.04839289 -0.07611559 -0.080240116 0.4107644 -0.056975722 0.19282573
-0.65661764 -0.12923367 0.0260555 0.2851396 -0.38172957 0.17002651 -1.0075845 -0.3176697
0.115926795 0.1083436 -0.30034736 -0.7084835 -0.009474473 0.21799102 0.31299403 0.12653576
0.12228077 -0.7901078 -1.1291533 -0.28809556 -0.24190705 -0.12738366 -0.0025083171 -0.12608394
-0.1324835 0.12108249 -0.21179262 0.07486082 -0.30550337 -1.3730257 -0.0036530062 -0.08007627
0.048637945 -0.30538645 -0.702134 -0.17112826 -0.48756233 -0.42344466 0.15199703 -0.37450644
0.0077564325 0.008444455 0.030539192 0.1191087 0.10509985 0.081630506 -0.16370623 -0.027820602

layer_4.bias f4 [32]
00000000: 9771 a03f 7eed bd3f d012 be3f a7da 9a3f
00000010: f016 e23f 08c2 e13f 2894 1b3d be1a 23c0
00000020: 4acd a23f d829 5dbf 4ef7 773f e740 943f
00000030: 9005 c23f 15aa d53f 3c29 eebf 4e4c dc3f
00000040: 004b ed3f 82b4 e43f 2be0 e6bf bdac 92bf
00000050: 3ac6 a0bf 3e2c c93f 6684 5e3f 994f 66bf
00000060: c53f d83f 1103 83bf c250 86bf ba97 e93f
00000070: f90d 9f3f a413 ab3f 3925 4a3e 3512 be3f
1.2534665 1.4838102 1.4849491 1.2097977 1.766325 1.7637339 0.03798309 -2.5485072
1.2718899 -0.86391973 0.9686173 1.1582307 1.5157948 1.669253 -1.8606334 1.7210786
1.8538513 1.7867587 -1.8037161 -1.1458966 -1.2560494 1.5716627 0.86920774 -0.89965206
1.6894461 -1.0235311 -1.0493395 1.8249428 1.2426139 1.3365369 0.19740762 1.4849306

layer_5.weight f4 [16, 32]
00000000: e86c 0a3d 30ce 843e 6c21 433e 4c78 f53c
00000010: adb4 043e 2fb1 263e a25d 3ebd fc87 27bf
00000020: fe76 63be be03 2abe 8255 08bd 9495 1d3e
00000030: b914 a33d 817e a0bd 4cb7 aebe 1918 2c3e
00000040: ab1a e13e 4969 6a3e e732 24bf 3def 213d
00000050: d439 e1bd 3dde 45be 266e ef3c 808f 05be
00000060: be4c fe3d c673 f7bb d5f7 24be e839 b23e
00000070: 0ca4 0f3e 60cf a23e 05e8 79be 4d17 283d
00000080: 6c05 553f 9bfd 833e ec82 083f 9cea 033f
00000090: a615 e83e 4aa5 7bbe d99a e13e d484 b2be
000000a0: fe13 e1be 33df 4d3d 3d58 a1bc 6558 c6bc
000000b0: e23b a8be a50c cd3e d10f ec38 cef2 be3d
000000c0: 150f 8bbe e72f 963e 4866 1ebf 841c a63d
000000d0: 8d05 22be a422 92bd 0502 4bbf 5f21 afbc
000000e0: 7e75 09c0 c5d0 bb3e 1b69 8a3d a40d d6c0
000000f0: 41f2 363e 4355 123e 3bb9 fcbe 3339 283f
00000100: 063f 85bd 7d64 593e 8771 583e 93a0 8d3e
00000110: 9e45 bf3e 3acd 6dbf 92b2 543e c726 55be
00000120: 7db2 70c0 ed74 903e d81c c0bd 9aa6 4f3d
00000130: e013 2dbf 9056 093c bfd2 b8be 8678 143f
00000140: 132d d8be f1e5 f43e 65d5 eebe 249d 8abe
00000150: 3318 bcbd 6bca 803e ad3e f5be ed8a 4c3d
00000160: 6a96 f3bf 2fbd 0ebf 55de 9ebd 65c6 09bf
00000170: c9da b0bd 80e4 2abf 5820 ebbe 5868 4ebe
00000180: c4c0 7ebd 0a0a 0dbe c309 32be 464f 693d
00000190: f814 2a3e 8bc6 39be 83ef 21be 5b1a fd3d
000001a0: 7912 a3be 7805 06bd 3760 43be 560e 8bbd
000001b0: 56e7 43be 26a0 783a 9a5d 51be e115 6cbe
000001c0: 8850 6bbd 442b ce3c 2cd7 0ebe 9dd8 02be
000001d0: db12 3e3d f350 75bd c9de bc3d 0114 8ebe
000001e0: 26d0 453c 79af 1a3e 7fa8 b93c c1d0 43bd
000001f0: ee53 43be bfe0 4f3d 45d9 80bd f042 7cbe
00000200: ff4a 893d 92fe 9abe 6072 573f c7c7 663f
00000210: 9b00 873f 75a1 07bf 5d34 b83e f09f 533e
00000220: 733b b23c 7d4f 063f 570c 0dbe b1f6 a03d
00000230: aa9d 8ebe c49c e1bf 4e8b 15bf ecd6 f63c
00000240: 1afe 0fbf 4a01 543f b671 a3be d962 b1bd
00000250: 7226 20be 7fd8 903e b852 b2be 74a7 4dbe
00000260: afb1 fbbf abe9 e1be 78de 73be d631 26c0
00000270: 289b d33e 37a1 c73b eada 03be 10a2 4e3e
00000280: 259f 143c 5c0f 59be 7385 c4be 6294 8e3d
00000290: 8537 23be 9653 b93c d226 383d f742 833d
000002a0: f1d5 b1bd c8af a13d 2275 58be 49e6 0b3d
000002b0: f2f3 4e3d c419 0cbe 3d81 45be 3758 8fbd
000002c0: 1e58 2cbe 3677 88bd 10de 253d 6276 ad3d
000002d0: 5743 4b3d c9f5 bcbd c5a0 193d d3ef 1cbe
000002e0: e745 293d 45d5 36be e5f0 19be a011 bbbd
000002f0: 87a3 76be ca72 b8bd 87e5 54be 0a4e 1ebe
00000300: 2464 843b c470 b83d 0a1c 393e a5de 983e
00000310: a65c 4a3e faa7 0a3e d539 91bd 6536 2cbf
00000320: 7587 4abe cbba ba3d 9801 093e f435 113c
00000330: 8dd5 863e eaaf b23c 7cda b2be 7ab1 8a3e
00000340: 6370 943e 1d43 da3e 3c63 413c 4cce 94bd
00000350: 8e93 3ebd 4ce9 04bd 19cc a83e ed2e 11be
00000360: 2b9c 563d 146a 41be 1db2 06be fbff 9b3e
00000370: 033d 143e 7734 053e cfe1 ebbc f240 8e3c
00000380: 9ea1 883e 224c b23e f1ff 763e d35b cc3e
00000390: cc06 923e 2d3a fd3d 9b36 703e 9ae6 d2be
000003a0: 49ea 09be 09b4 6e3d 30a9 dd3d cab7 203d
000003b0: 9eab 1b3e b76a aebd c4f4 d5bd 41be bc3e
000003c0: 730f e63e 2af2 bd3e 4e2a 85be e896 a1bd
000003d0: eccf 14be a122 0f3e 95d2 483e 9ae8 f2bc
000003e0: daae 4a3e 3d62 dabd 8410 04be df85 a53e
000003f0: dda9 a13d 4e61 8a3e eb89 0dbe 2644 543d
0.033795267 0.2593856 0.19055718 0.029964589 0.12959547 0.16278528 -0.046476014 -0.6544187
-0.2221336 -0.1660299 -0.03328467 0.15389091 0.07962937 -0.07836629 -0.3412422 0.16806068
0.4396566 0.22891726 -0.6414017 0.039534796 -0.10997358 -0.19323058 0.029227328 -0.13043022
0.12416981 -0.007551643 -0.16110165 0.34809804 0.14027423 0.3179884 -0.24404915 0.041037846
0.832114 0.25779423 0.5332477 0.5152986 0.45329016 -0.24574772 0.44063452 -0.34866965
-0.43960565 0.050261687 -0.019695396 -0.024212072 -0.32858187 0.4004871 0.00011256303 0.09323655
-0.27159944 0.29333422 -0.6187482 0.08110908 -0.1582243 -0.071355134 -0.79299957 -0.021378217
-2.1477962 0.36682716 0.067583285 -6.689165 0.1786585 0.14290337 -0.4936007 0.6571228
-0.065061614 0.2122974 0.21137057 0.2766157 0.373578 -0.92891276 0.20771244 -0.20815574
-3.760894 0.28214207 -0.093805015 0.050695993 -0.6760845 0.0083824545 -0.36098287 0.57996404
-0.4222189 0.4783168 -0.46647182 -0.27073014 -0.09184303 0.25154433 -0.4789938 0.049937177
-1.9030278 -0.5575742 -0.0775725 -0.5381835 -0.0863548 -0.66754913 -0.45923114 -0.20156991
-0.062195554 -0.13773361 -0.17386536 0.056960367 0.16609561 -0.18142144 -0.15814023 0.123585425
-0.3185003 -0.03272006 -0.19079672 -0.06789844 -0.19131216 0.0009484313 -0.20445862 -0.23055221
-0.057449847 0.025167115 -0.13949269 -0.12777944 0.0464047 -0.059891652 0.092221804 -0.27749637
0.012073552 0.15106 0.022663353 -0.047806505 -0.19074985 0.050751444 -0.06291441 -0.2463491
0.067037575 -0.30272347 0.841589 0.90148586 1.054706 -0.5298074 0.3597745 0.2066648
0.021756863 0.5246504 -0.13774239 0.07859553 -0.27854663 -1.7625966 -0.5841569 0.03013178
-0.56247103 0.82814467 -0.31922692 -0.08661432 -0.15639666 0.28290173 -0.34828734 -0.2008341
-1.96636 -0.44123587 -0.23815334 -2.5967917 0.41329312 0.0060922164 -0.12876478 0.2017901
0.009071146 -0.21197265 -0.38383064 0.069618955 -0.15939148 0.022622865 0.044958897 0.06409257
-0.08683384 0.07894856 -0.21138433 0.034155164 0.050525613 -0.13681704 -0.19287582 -0.069992475
-0.16830489 -0.06663363 0.04049498 0.08469845 0.049624767 -0.09226567 0.037506837 -0.1532586
0.04132643 -0.17854793 -0.150333 -0.09134221 -0.24085818 -0.09006269 -0.20790683 -0.15459457
0.004040258 0.09005883 0.18077102 0.29857364 0.19761905 0.1354064 -0.07091109 -0.672705
-0.19778235 0.09117659 0.13379514 0.008862961 0.263348 0.021812398 -0.34932315 0.2708853
0.28991994 0.42629328 0.0118034445 -0.072659105 -0.046527438 -0.03244905 0.32968214 -0.14178057
0.052395027 -0.18888122 -0.13153882 0.30468735 0.14476399 0.13008295 -0.028794197 0.017364953
0.26685804 0.3482371 0.24121071 0.39913806 0.2852081 0.12364612 0.2345833 -0.4119156
-0.13468279 0.058277164 0.108232856 0.039237775 0.15202186 -0.08516448 -0.10447076 0.36863902
0.44933662 0.3709882 -0.26008838 -0.07890111 -0.14532441 0.13978054 0.1961158 -0.029651929
0.19793263 -0.10663269 -0.12896925 0.32328698 0.07893727 0.27027363 -0.13822143 0.051822804

layer_5.bias f4 [16]
00000000: 5df3 b03f 510f 163f c19b 993f 9a37 41be
00000010: cad1 c93e 7db8 dcbc c5ba d83f e1c7 b03f
00000020: 101d 3fbe 350f d53f 89ab cd3f 9ee1 be3f
00000030: e0f2 ccbe 4c0b ad3f 305a ae39 d0af c03f
1.3824269 0.5861712 1.2000657 -0.18868867 0.3941787 -0.02694344 1.6931998 1.3810998
-0.1866343 1.6645266 1.6067973 1.4912603 -0.4002905 1.3519073 0.0003325506 1.5053654

layer_est.weight f4 [24, 16]
00000000: 4002 61bc 9231 7dbe 861d 7fbe 085a 453e
00000010: 7cfc 0e3e 107e cd3c a008 6bbc f0b8 803d
00000020: f88f 073d fa8f 513e 24ce d93d 52ac 273e
00000030: acb7 5f3e 760c 423e 604e 3b3e 7e95 4cbe
00000040: 44bb 14be 785d 65be 28ac 41be da86 33be
00000050: fea4 263e c013 663c dc7a a03d 485b f8bd
00000060: fc66 5cbe 00b4 ea3b 900e a0bc 38ad 8bbd
00000070: cc83 2abe 3c79 bf3d 4270 6ebe 8895 1dbe
00000080: 6671 783e b272 643e 5a84 3bbe bc0a 463e
00000090: 30eb b53d 3213 54be f6a5 6c3e 963f 17be
000000a0: 1619 03be 5083 0f3e 4077 79bd 3473 143e
000000b0: 48f5 2dbd 2eb3 5cbe a289 503e 58b9 683d
000000c0: e812 543e 5c05 823d 04a7 a8bd a4eb cdbd
000000d0: bcca c83d f229 633e 865e 4ebe e86c c6bd
000000e0: 18ff 20bd e08b 423d aca0 823d 4a48 3e3e
000000f0: 42c8 523e 6af6 003e 225d 03be 389c 2d3e
00000100: de53 6a3e 38c2 d2bd 68ae 2e3e 3097 f3bc
00000110: 4ccd fabd 484e b2bd 2e6a 503e c0ad 7cbd
00000120: 98a9 ba3d c885 d6bd c0bb 653e 2e1e 70be
00000130: 70f6 9fbc f466 90bd 1c30 eb3d 3e51 543e
00000140: 22fc 65be 5494 463e 06bb 6abe 1060 833c
00000150: 00fd 373d d41e 7dbe 80c6 39be e86f debd
00000160: f649 023e 1c0e e3bd b0d0 d43d 94c5 e2bd
00000170: 0029 9a3d b227 0e3e 142c c13d de62 213e
00000180: e445 4f3e d067 a0bd a056 1fbc 8868 343d
00000190: 80f5 2b3d 9008 323d 4073 393c 0e16 12be
000001a0: 74e5 75be d825 473d 00c6 65be 1861 07be
000001b0: 8c9a 31be 445e ee3d 5481 ad3d eefe 523e
000001c0: 6049 6dbe f843 403d 5ef9 64be 7803 0bbe
000001d0: 588e 24be 488b 47be 4a2d 5a3e 5215 49be
000001e0: 607b 51be a069 39be 1433 a93d 203e f23d
000001f0: 8e90 053e e4d2 41be 2071 14be 20fe 183d
00000200: a4a4 2dbe e899 643e 0221 5abe 50ee 15be
00000210: 4007 08bc 529a 223e 58d4 a33d 5c0d 803d
00000220: 64c8 fcbd 44a4 2b3e 789b 733e 842f 6e3e
00000230: 0a72 58be b0c5 923d 6a96 313e d88c 4dbe
00000240: 082d 6e3e ec6b 2c3e 3e87 7cbe cce4 e43d
00000250: 38e5 223e 00c4 f6b9 586d 5fbd b87c 953d
00000260: e46c 48be c8fb 65bd 00ea 0ebb 48a8 3fbe
00000270: a00b f63d d036 83bc 0859 08be f6d2 523e
00000280: b07f 37bd 3ab1 5cbe 0c43 31be b8b6 c13d
00000290: ca69 09be c49e 9cbd e0e3 6d3e eca7 f4bd
000002a0: d4d7 29be 46eb 6d3e 5087 df3c 7858 68be
000002b0: a8f1 5c3d be61 0c3e 00af 69bd 78f8 efbd
000002c0: ec31 36be 3819 73bd fcf3 00be a89f 8abd
000002d0: 2817 b8bd cc57 463e 8e38 35be 12fb 573e
000002e0: 5ad1 51be 38f2 243e 9abe 363e 506a fe3c
000002f0: 5858 8fbd 3072 233e 5042 9d3d 3868 e83d
00000300: 1aae 143e c8c8 38be baa0 273e 70f8 703e
00000310: d87a 963d 2cef 6abe 38b3 fa3d 54c1 bbbd
00000320: 544f 043e a092 983c 5aa1 47be 98c6 583d
00000330: 3ed3 6cbe f80d 2f3e aa1f 4f3e 60a6 0abe
00000340: c06e 9ebd 9ad6 163e d64c 5b3e 08e1 10be
00000350: 00ef 5cbd a013 58bc 040c d3bd 8817 4f3e
00000360: 6053 543d 804c b73b fc11 6d3e 90c5 81bd
00000370: d8b5 3fbe acf5 3ebe 2c12 3fbe 303c 443e
00000380: 86ca 0cbe a4d4 353e 2a8f 673e 1857 b3bd
00000390: 6429 8ebd a079 efbc e854 c7bd 2c7e 0a3e
000003a0: de12 42be 9024 c23d 4247 37be 500b e8bc
000003b0: 8ca3 3cbe e44d 8c3d 4831 6a3d 843e 873d
000003c0: 20de 3e3e 3488 4abe 1ce7 b9bd cc55 b1bd
000003d0: 40a1 34be 7a12 743e 209c b9bc cadf 333e
000003e0: a631 6bbe d077 28be 48c1 263d 8a16 1f3e
000003f0: e8c2 833d c8ba 6fbe 182a 313e 1029 10bd
-0.013733447 -0.24725941 -0.24913606 0.19272625 0.13963503 0.025084525 -0.014345318 0.06285274
0.033096284 0.20465079 0.10635021 0.16374329 0.21847409 0.18950066 0.18291616 -0.19978902
-0.14524561 -0.22398937 -0.18913329 -0.1753191 0.16273877 0.014042795 0.078359336 -0.121267855
-0.2152366 0.007162571 -0.019538194 -0.06820148 -0.16651839 0.093492955 -0.2328501 -0.15389073
0.24262008 0.22309378 -0.18312207 0.19340032 0.08882749 -0.20710447 0.23110184 -0.1477035
-0.12802538 0.14014935 -0.06090474 0.14497072 -0.042470247 -0.21552727 0.20365003 0.056817383
0.20710337 0.063486785 -0.08234981 -0.100547105 0.098042935 0.2218397 -0.20153245 -0.09688741
-0.039305776 0.047496676 0.06378302 0.18582264 0.20584205 0.12594 -0.12828496 0.16954124
0.22883555 -0.102909505 0.17058718 -0.029735178 -0.122461885 -0.08706337 0.20353004 -0.06168914
0.09114379 -0.104747355 0.22434902 -0.23449013 -0.01952669 -0.07050887 0.114837855 0.20734116
-0.22459462 0.1939252 -0.22922906 0.016037017 0.044919014 -0.24718791 -0.18142128 -0.10861188
0.12723526 -0.110866755 0.103913665 -0.11072841 0.075273514 0.1388233 0.09432235 0.15760371
0.20241505 -0.07832301 -0.009725243 0.044045 0.041982174 0.043465197 0.011318982 -0.14266226
-0.2401331 0.048620075 -0.22438812 -0.13220632 -0.17344111 0.116390735 0.08471933 0.2060506
-0.23172522 0.04693982 -0.22360751 -0.13575542 -0.16069925 -0.19486725 0.21306339 -0.1963704
-0.2045722 -0.18106699 0.082616955 0.11828256 0.13043424 -0.18928105 -0.14496279 0.037351727
-0.16957337 0.22324336 -0.21301654 -0.1464169 -0.00830251 0.15879181 0.07999486 0.06252548
-0.12342909 0.16761881 0.23789775 0.23260313 -0.21137252 0.07166612 0.17342535 -0.20073259
0.23259366 0.16838044 -0.24660966 0.11176452 0.15907753 -0.00047066808 -0.054547638 0.07299179
-0.19572788 -0.05614832 -0.0021806955 -0.18716538 0.12013936 -0.016017348 -0.13315213 0.20588288
-0.044799507 -0.21551982 -0.17310733 0.09458679 -0.13419262 -0.0764747 0.23231459 -0.11946091
-0.16586238 0.23234281 0.027286202 -0.22689998 0.0539414 0.1370916 -0.05705166 -0.117173135
-0.17792481 -0.059350222 -0.12593073 -0.06768733 -0.08988792 0.1936943 -0.17697355 0.2109187
-0.20490018 0.16108024 0.17846146 0.031056553 -0.06999272 0.15961528 0.07678664 0.11348003
0.1451954 -0.18045342 0.16369906 0.23532271 0.07347649 -0.229428 0.122412145 -0.09167734
0.12920886 0.018624604 -0.19495144 0.05292377 -0.23127457 0.17095172 0.20226923 -0.1354003
-0.07735968 0.14730301 0.2141603 -0.14148343 -0.053938866 -0.013188273 -0.10305026 0.2022382
0.051837325 0.0055938363 0.23151392 -0.0633651 -0.18721712 -0.18648404 -0.18659276 0.19163585
-0.13749132 0.17756897 0.22613207 -0.08756846 -0.069414884 -0.0292328 -0.097329915 0.13524693
-0.1895251 0.0947963 -0.17898276 -0.028325707 -0.18421763 0.06850794 0.057175905 0.06603721
0.18639421 -0.1977852 -0.09077284 -0.086589426 -0.17639637 0.23835173 -0.022657454 0.17565838
-0.22968158 -0.16451955 0.04071167 0.15535942 0.0643366 -0.23411095 0.17301214 -0.03519541

layer_est.bias f4 [24]
00000000: 8c71 063e ea6e 123e 3075 da3d 6033 e0bc
00000010: 60e8 96bd 40f7 483d 9456 6e3e 08d4 723d
00000020: 52fd 1d3e 8048 c23b e08a a5bd 2093 f5bd
00000030: 706f 763e 0071 0dbc 58af 57be 100a 5e3e
00000040: f451 3dbe 0c16 20be c037 2bbd 8007 f8bb
00000050: 90d7 b2bc 3870 0ebe 7c7c cabd d009 8a3d
0.13129252 0.14300123 0.10666883 -0.027368248 -0.07368541 0.04906392 0.23275214 0.05928424
0.15428665 0.005929053 -0.08083129 -0.119909525 0.24065948 -0.008632898 -0.21062982 0.21683526
-0.18488294 -0.1563341 -0.041801214 -0.0075692534 -0.021831304 -0.13909996 -0.09887025 0.06740153

layer_inf.weight f4 [1, 16]
00000000: 879a 703e f4dd 9ebe e2f8 1ebf e940 7aba
00000010: 624d 12bf 29b1 0fbc 820f 983e 743f a63e
00000020: 3f5c f1bd c60a c83e 2cea d83e 84b7 803e
00000030: 7fd1 223c 3010 a13e 736c 97bd e16a 853e
0.23496448 -0.31028712 -0.62098515 -0.00095464155 -0.57149327 -0.008770266 0.29699332 0.32470286
-0.11785173 0.3907072 0.4236616 0.2514001 0.009937643 0.31457663 -0.07393732 0.26058105
